DRLND_deep_reinforcement_learning_nanodegree/p2_continuous_control/checkpoint_actor.pth (torch_old, 548262 bytes, 10 tensors)

fc1.weight f4 [400, 33]
0	0x3fa6cdd0	1.3031559
1	0x3fa4edbe	1.2885053
2	0x3ecd6854	0.4011866
3	0xbe117705	-0.14205559
4	0x3eabe174	0.33570445
5	0xbf882195	-1.0635248
6	0x3ddb052a	0.10694344
7	0x3f211554	0.6292317
8	0xbf5ba71c	-0.85801864
9	0xbee921f4	-0.45533717
10	0x3e57e32f	0.21082757
11	0x3f4338a9	0.7625833
12	0x3e80fb9d	0.25191966
13	0xbeb137d2	-0.346129
14	0xbfdd2fb1	-1.7280179
15	0x3eae5428	0.3404858
16	0xbf04d0e6	-0.51881254
17	0x3e863f47	0.26220152
18	0xbf0e3e12	-0.5556346
19	0xbef48547	-0.47757933
20	0xbf1e4821	-0.6182881
21	0x3f5413a2	0.8284246
22	0x3bbe16f4	0.005801076
23	0x3f458a44	0.771641
24	0xbf4c42b8	-0.79789305
25	0xbef370ab	-0.47546896
26	0x3eaf8d15	0.34287325
27	0xbc4a653e	-0.01235324
28	0xbe7ee6f2	-0.24892786
29	0x3c598304	0.013275865
30	0x39d4a049	0.00040555213
31	0xbb7a42a0	-0.0038186684
32	0xc10b6e9e	-8.714506
33	0xbf810214	-1.0078759
34	0xbecf354d	-0.40470353
35	0xbe83bc09	-0.25729397
36	0x3f830e57	1.0238751
37	0x3fba3d86	1.4550025
38	0xbeb8e22c	-0.36110055
39	0x3fef6d75	1.8705279
40	0x3eb8f2fb	0.3612288
41	0x3ede4c45	0.43417564
42	0x3ce8660c	0.028368972
43	0x3e2f4dc5	0.1711951
44	0xbf33bfbc	-0.7021444
45	0x3edffddf	0.43748376
46	0xbe3d2353	-0.18470506
47	0xbe872140	-0.26392555
48	0x400793f8	2.1184063
49	0xbfc63ece	-1.5487916
50	0xbf3b3832	-0.7313262
51	0x3ec703b0	0.3887
52	0xbf3ba33c	-0.7329595
53	0xbe49c1ce	-0.19702837
54	0xbd8f0770	-0.069838405
55	0xbed13fc6	-0.40868968
56	0xbe125782	-0.14291194
57	0x3f28d33c	0.6594732
58	0x3f93da2a	1.1550953
59	0xbf063a3f	-0.52432626
60	0xbc88deb9	-0.016707765
61	0xbfa61184	-1.2974095
62	0xbd12bd33	-0.035824966
63	0xbcbdc0c6	-0.02316321
64	0x3ca6573e	0.020305272
65	0xc0aa7a44	-5.327425
66	0x3f2fec29	0.68719727
67	0x3ebc0a3c	0.36726558
68	0x401ba129	2.4317114
69	0x3f752dd8	0.95773077
70	0x3e0ae91d	0.13565488
71	0xc016547c	-2.3489065
72	0x3fee3236	1.8609073
73	0x3f0008dd	0.50013524
74	0xbfd93106	-1.6968086
75	0x3d85c2c1	0.06531287
76	0x3f6614a3	0.8987524
77	0x3f144b21	0.5792714
78	0x3f7f882e	0.9981717
79	0x3f9ac418	1.2091093
80	0xbfddfb2b	-1.7342275
81	0xbf213f6f	-0.62987417
82	0x3fe6fbe1	1.8045617
83	0xbe1ce37e	-0.15321156
84	0xbf925bf4	-1.1434312
85	0x3ef655d0	0.48112345
86	0x3e8ad5ce	0.27116245
87	0x3f2a4f9a	0.6652771
88	0xbe73d4c3	-0.23811631
89	0x3de04b1b	0.10951825
90	0xbebaa556	-0.36454266
91	0xbf5d7517	-0.8650679
92	0xbf6cd36c	-0.92510104
93	0x3d0d8e45	0.034559507
94	0xbfb94cae	-1.4476526
95	0x3d417d1b	0.04723845
96	0x3cd10481	0.025514843
97	0x3d2f3c49	0.0427821
98	0xbfac4a64	-1.3460202
99	0xbf5b82ff	-0.8574676
100	0x405e0e21	3.4696124
101	0x3e8c4365	0.27395168
102	0xc03d7264	-2.9601068
103	0xc0090d21	-2.1414263
104	0xc07d5526	-3.958322
105	0xc026f495	-2.608678
106	0x3ce41ff2	0.027847264
107	0xbf064b94	-0.52459073
108	0xbf2517f4	-0.64489675
109	0xbe3a7c19	-0.18211402
110	0x3ea64b65	0.32479396
111	0xbe7e019d	-0.24805303
112	0xbf2562c8	-0.64603853
113	0x3ff7482e	1.9318902
114	0xbecdf2b1	-0.4022422
115	0x3f8db385	1.107041
116	0xbecf9e3a	-0.40550405
117	0x3ebe1601	0.37126163
118	0xbf42f93b	-0.76161546
119	0x3d1b580a	0.037925757
120	0x3f8af170	1.0854931
121	0xbc11964a	-0.008885929
122	0xbf80e56b	-1.0070013
123	0x3f4a6f46	0.7907604
124	0xbecdebb2	-0.40218884
125	0xbec7be4b	-0.3901237
126	0xbcdc982f	-0.026928036
127	0xbd5e270d	-0.05423646
128	0xbce62aa3	-0.028096503
129	0xbb972c0f	-0.0046134065
130	0x3c9ac972	0.018894885
131	0x3f8386d6	1.0275524
132	0x3cb8cfd6	0.022560041
133	0xbf2d013d	-0.67580014
134	0x3d8b1e3c	0.06792876
135	0xbf128b8b	-0.57244176
136	0xbfddbac7	-1.7322625
137	0x3ed22778	0.41045737
138	0x3ff0f0b4	1.8823457
139	0x3f02aea0	0.51047707
140	0x3fea597a	1.8308556
141	0xbfb41b12	-1.4070761
142	0x3e115fbc	0.14196676
143	0x3fb49491	1.4107839
144	0xbc401856	-0.011724552
145	0x3cc1d45d	0.023660833
146	0xbe83665c	-0.25664032
147	0xbf555542	-0.8333322
148	0xc00bfcb9	-2.1873
149	0xbf775abc	-0.96622825
150	0xbf1b6758	-0.60704565
151	0xbf69f0bb	-0.9138295
152	0x3f435e77	0.76316017
153	0xbfe4e5f7	-1.788268
154	0x3f91675d	1.1359669
155	0xbf85dddd	-1.0458332
156	0xbfd89f25	-1.6923567
157	0x3f0e4d23	0.5558645
158	0x3e85d991	0.26142552
159	0xbc85c301	-0.016328337
160	0x3f4451dc	0.7668741
161	0xba8c2da0	-0.001069475
162	0x3b567835	0.0032725458
163	0xbcabe0ba	-0.020981181
164	0xc09ba13f	-4.8634334
165	0x3e95d3d3	0.29263172
166	0xbf3d9728	-0.7405877
167	0xbf834e13	-1.0258201
168	0x3fdb33a4	1.7125134
169	0xbfb79082	-1.4340975
170	0xbdb971b9	-0.09054894
171	0xc0285346	-2.6300826
172	0x3eadc97e	0.3394279
173	0xbe9edb15	-0.3102652
174	0x3fec553d	1.8463513
175	0xbd2d7396	-0.04234656
176	0x3e0d7b9e	0.13816687
177	0xbf7f4cce	-0.9972657
178	0xbffc5374	-1.9712968
179	0x4012019b	2.281348
180	0xbf7dd8b4	-0.9915879
181	0xc010756b	-2.2571666
182	0x3d8812b7	0.066441946
183	0x3da3d69c	0.07999918
184	0x3d607d0c	0.054806754
185	0x3e310e7f	0.17290686
186	0x3f3c4afb	0.7355191
187	0xbf0ab416	-0.5418104
188	0xbef9a90b	-0.48761782
189	0x3f94bb3f	1.1619643
190	0xbed53bf2	-0.41647297
191	0xbf36a06d	-0.7133854
192	0xbc30fd04	-0.010802511
193	0xbe9f783e	-0.31146425
194	0x3d0d8bd9	0.034557197
195	0x3b5b4212	0.003345613
196	0xbcbe177a	-0.023204554
197	0x3f804f9c	1.0024295
198	0x3fa9f331	1.3277341
199	0x3ff6c4c3	1.9278797
200	0xbf7b0d08	-0.9806676
201	0xbf70dd18	-0.9408736
202	0xbf048d9d	-0.51778585
203	0x3db828de	0.0899217
204	0xbf9130f0	-1.134306
205	0x3cc0e442	0.023546342
206	0xbeab39ac	-0.33442438
207	0x3f287311	0.6580058
208	0x3efb43e7	0.49075243
209	0x3dd830fb	0.10556217
210	0x3df77bb8	0.12084144
211	0x3f561a37	0.8363375
212	0x3f849aa7	1.0359696
213	0x3f5f9ad8	0.8734565
214	0x3ffb0fa3	1.9614147
215	0x3f7cacea	0.98701346
216	0x3eb0785f	0.34466836
217	0x4005fb8e	2.0934787
218	0xbcd514b0	-0.026010841
219	0xbe30d46d	-0.17268534
220	0x3d20b046	0.039230607
221	0x3d006e8a	0.03135542
222	0x3f07033e	0.5273932
223	0x3e952bf0	0.29135084
224	0xbfe743ea	-1.8067601
225	0x3c41e23d	0.011833725
226	0xbd48ae19	-0.048994157
227	0x3d2bbab5	0.041926105
228	0xb969ebdd	-0.00022308477
229	0xbc1d0e60	-0.009585947
230	0x407ba241	3.9317782
231	0xbf04ecd1	-0.51923853
232	0xbed18ebd	-0.40929213
233	0x3bd4fef0	0.0065001175
234	0xc067e691	-3.6234477
235	0xbf27a793	-0.6549007
236	0xbf0a463b	-0.54013413
237	0x3f754c20	0.9581928
238	0xbf91374a	-1.1344998
239	0x3eaff1f1	0.34364274
240	0x3f005a32	0.5013763
241	0xbe3a4d1a	-0.18193474
242	0xbe459603	-0.19295506
243	0x3e579b7a	0.21055403
244	0x3e88f1c8	0.26746964
245	0x3ddd1a72	0.1079606
246	0xbf1813d8	-0.5940528
247	0x3ea6937b	0.32534394
248	0x3f8df7f2	1.1091292
249	0xbf69847d	-0.91217786
250	0x3fa1e479	1.2647849
251	0x3ef789bc	0.4834727
252	0xbd5b7787	-0.053580787
253	0xbe62d677	-0.22152124
254	0x3fa34ba5	1.275746
255	0x3ec53b63	0.3852187

fc1.bias f4 [400]
0	0xbda46a63	-0.08028104
1	0xbd93e0e4	-0.07220629
2	0x3e2d3d5c	0.16917938
3	0x3cdb9d7e	0.026808497
4	0xbe17a900	-0.14810562
5	0xbe1e335f	-0.15449284
6	0xbe18e944	-0.14932734
7	0xbe015c52	-0.12632874
8	0xbdd7542a	-0.105141
9	0xbdbe831a	-0.093023494
10	0x3e044a30	0.12918925
11	0xbd9257ce	-0.07145654
12	0x3e23f0b5	0.16009791
13	0xbd23d6d2	-0.03999979
14	0xbe103ba2	-0.14085248
15	0xbd82c0d9	-0.06384439
16	0xbd9e7024	-0.07736233
17	0xbdf58b26	-0.11989431
18	0xbe263df6	-0.16234574
19	0x3bc9b6d4	0.006155828
20	0xbe0a7bc8	-0.13523781
21	0xbd4aea26	-0.049539708
22	0xbd39d223	-0.045366418
23	0xbdcde828	-0.10054046
24	0xbbd64759	-0.006539267
25	0xbe09f5ff	-0.13472746
26	0xbd67cbba	-0.056590773
27	0x3e1dceba	0.15410891
28	0x3e25d3ef	0.16194128
29	0x3c63499b	0.013872529
30	0x3d28a245	0.041170377
31	0x3e1ed32d	0.15510245
32	0x3e2b1c7a	0.16710082
33	0xbda7efee	-0.0820006
34	0x3ce1a6a2	0.027545277
35	0xbd0cf0d7	-0.03440937
36	0xbdf481bd	-0.11938808
37	0x3e1de264	0.15418392
38	0x3e0c8b71	0.13725068
39	0x3bf5abc0	0.007497281
40	0x3e13aadc	0.14420646
41	0x3d3f0f35	0.046645362
42	0x3deb5120	0.11490083
43	0x3d96f786	0.0737143
44	0x3da8ba4a	0.08238657
45	0x3d7eb2f5	0.062182385
46	0x3db37692	0.0876285
47	0x3e1ca406	0.15296945
48	0x3d8a54d7	0.06754463
49	0xbde2ee67	-0.11080628
50	0x3d83115a	0.06399794
51	0x3e322582	0.1739712
52	0x3e13f554	0.14449054
53	0x3de02a3c	0.109455556
54	0xbd86e553	-0.06586709
55	0x3e304225	0.17212732
56	0x3cffc239	0.031220542
57	0xbdbfdaa6	-0.09367876
58	0xbbcce32c	-0.006252667
59	0x3e024e71	0.12725236
60	0xbe23b68f	-0.1598761
61	0xbd23e90e	-0.04001718
62	0x3e050aad	0.12992354
63	0xbd44d3fb	-0.048053723
64	0xbd8fffc5	-0.07031206
65	0xbd419a60	-0.047266364
66	0x3d694a3c	0.05695556
67	0xbe096f7b	-0.13421433
68	0x3cad605d	0.021164114
69	0x3d37a216	0.04483231
70	0x3d3d68fc	0.0462427
71	0xbb195c9a	-0.0023401142
72	0x3daf517b	0.08560463
73	0xbc223b8c	-0.009901892
74	0x3e0a81cf	0.1352608
75	0x3dec0f7c	0.11526391
76	0xbdf61875	-0.120163836
77	0xbd0a71ca	-0.033799924
78	0x3e0ab144	0.13544184
79	0xbc8b91df	-0.01703733
80	0xbd5aa51f	-0.053380128
81	0xbc2dbfc9	-0.010604807
82	0xbd23b4ac	-0.039967224
83	0xbd7841c5	-0.060609598
84	0x3d1d9035	0.038467605
85	0x3e1613d8	0.14656007
86	0x3cce3b6b	0.025174817
87	0x3dc83970	0.0977658
88	0x3e09b43b	0.13447659
89	0xbde73d4c	-0.11290988
90	0xbdfd9dc0	-0.12383604
91	0xbcd18096	-0.02557401
92	0x3d56ccd7	0.052441444
93	0xbcaccc72	-0.02109358
94	0xbda56b18	-0.08077067
95	0xbdf60401	-0.120124824
96	0x3ba1b8f6	0.004935379
97	0x3e0473d8	0.12934816
98	0x3bf50bbd	0.007478206
99	0x3e296a39	0.16544427
100	0xbda7dc29	-0.08196289
101	0x3e2415c6	0.16023931
102	0xbde4070d	-0.11134157
103	0x3e0d5d91	0.13805224
104	0x3c9c9a69	0.019116597
105	0x3e3135d0	0.17305684
106	0x3e295540	0.16536427
107	0xbd74b18e	-0.05973964
108	0xbc51697d	-0.012781498
109	0xbd41f38c	-0.047351405
110	0x3d1eb4b1	0.03874654
111	0xbdafba10	-0.085804105
112	0xbd260af5	-0.040537793
113	0xbdd80b71	-0.10549057
114	0x3dd8fb17	0.105947666
115	0x3e0d36a6	0.13790378
116	0x3c9ec7e5	0.019382427
117	0xbba86e62	-0.005140112
118	0xbe05b2b0	-0.13056445
119	0xbe2222a0	-0.15833521
120	0xbe0aae3c	-0.13543028
121	0xbe03fbf5	-0.12889083
122	0xbe12abd6	-0.14323363
123	0x3da6d3e2	0.08145882
124	0xbe082e1f	-0.13298844
125	0x3dab19c5	0.083545245
126	0x3decfd44	0.11571744
127	0xba9b3289	-0.0011840622
128	0x3d26ccb6	0.04072257
129	0x3dde29fd	0.108478524
130	0xbe2199c3	-0.15781312
131	0x3e1a06ca	0.15041652
132	0x3e2f8950	0.17142224
133	0x3e2ab73a	0.16671458
134	0xbd8aaec9	-0.06771619
135	0x3ddadeb6	0.1068701
136	0xbd830c2e	-0.063988075
137	0x3cdd97f9	0.027050005
138	0x3e151269	0.14557804
139	0x3d156768	0.03647557
140	0x3d820c76	0.06350033
141	0xbd3b8dee	-0.04578965
142	0xbdaa6688	-0.083203375
143	0x3e1171c7	0.14203559
144	0xbe21f13a	-0.15814677
145	0x3cfb1dd8	0.030653879
146	0xbc85e2aa	-0.016343433
147	0xbd481f3b	-0.04885791
148	0xbe2e2d4c	-0.17009467
149	0xbdd3e598	-0.10346526
150	0xbdcba67b	-0.09943863
151	0x3cd80671	0.026370259
152	0x3d8a279c	0.06745836
153	0xbe2246d8	-0.15847337
154	0xbd894f30	-0.06704557
155	0xbe2a16c1	-0.16610242
156	0x3df43e26	0.119259164
157	0xbe2318d8	-0.15927446
158	0xbcc12704	-0.023578174
159	0xbccc3c5f	-0.02493113
160	0xbdc3a660	-0.09553218
161	0x3dff1d59	0.124567695
162	0x3d97ee7f	0.074185364
163	0x3dba414f	0.09094488
164	0x3dfb2b66	0.12264137
165	0xbdb1cc32	-0.08681525
166	0x3dac8bc7	0.08425098
167	0x3e101cdd	0.1407351
168	0xbd2675ae	-0.04063957
169	0xbc711ea4	-0.014716778
170	0x3c84b5c9	0.016199963
171	0xbe2ed787	-0.17074405
172	0xbc96d7ba	-0.018413413
173	0xbcac3c64	-0.02102489
174	0xbe018978	-0.12650096
175	0x3e025ad0	0.12729955
176	0xbe1c611d	-0.15271421
177	0xbd8f012c	-0.069826454
178	0x3dd20bbb	0.10256144
179	0x3cdca549	0.026934283
180	0x3d913c72	0.07091607
181	0x3bf813f6	0.007570739
182	0xbe2601eb	-0.16211669
183	0xbe00e603	-0.12587743
184	0xbd711fc9	-0.058868203
185	0xbdefc1d5	-0.117068924
186	0xbddd7e84	-0.108151466
187	0xbd65d6e3	-0.056113135
188	0x3e1f084c	0.15530509
189	0x3e0a26ec	0.1349141
190	0x3d058775	0.032599885
191	0xbde50a35	-0.111835875
192	0xbdd762e1	-0.105169065
193	0x3e2ee1de	0.17078349
194	0x3cb096e9	0.021556335
195	0x3ca2aad1	0.019856842
196	0xbdca64dc	-0.09882519
197	0xbdb63e30	-0.0889858
198	0x3db0178f	0.085982434
199	0xbc74acb0	-0.01493375
200	0xbc9717a8	-0.018443897
201	0xbdafa715	-0.0857679
202	0xbe043c89	-0.12913717
203	0xbde659c6	-0.11247592
204	0xbe2f9d5a	-0.17149869
205	0x3e22ff8f	0.159178
206	0x3cd0a249	0.025468009
207	0x3cc75168	0.02433081
208	0x3e060399	0.1308731
209	0x3db338f5	0.08751098
210	0xbccfb76a	-0.025356013
211	0x3ddc203c	0.10748336
212	0x3b2e218b	0.0026570286
213	0xbe2df060	-0.16986227
214	0x3e109cb6	0.1412228
215	0xbdd2386e	-0.10264669
216	0xbe06c935	-0.13162692
217	0xbd255f5b	-0.04037414
218	0x3d30995b	0.043115
219	0x3e0c3c9d	0.13694997
220	0xbe306dec	-0.17229432
221	0xbe27be55	-0.163812
222	0xbded8b98	-0.11598891
223	0xbdd075cd	-0.10178719
224	0x3e2f0bc6	0.17094335
225	0xbb34fdbc	-0.0027617058
226	0x3e010a19	0.12601508
227	0x3d49e430	0.049289882
228	0x3dd079c4	0.10179475
229	0xbdb947da	-0.09046908
230	0x3d9c9769	0.07646067
231	0x3d82c218	0.06384677
232	0x3d7385a1	0.05945361
233	0xbe063c33	-0.13108902
234	0xbd747ca5	-0.059689183
235	0x3e178169	0.1479546
236	0xbd1b4a89	-0.03791288
237	0xbe01fdbc	-0.12694448
238	0xbe176835	-0.14785846
239	0xbd0d7992	-0.034539767
240	0x3da55276	0.08072369
241	0xbd5238b4	-0.051323608
242	0x3dfe4c6f	0.12416922
243	0x3d969d2c	0.07354197
244	0xbe0e9b86	-0.13926515
245	0x3b04e27a	0.0020276592
246	0x3e225aa5	0.1585489
247	0x3dde70bf	0.10861348
248	0xbd8042af	-0.06262719
249	0xbe0418d0	-0.1290009
250	0x3d3bcd1e	0.045849912
251	0x3daa3603	0.08311083
252	0xbd12a752	-0.0358041
253	0xbe1763d9	-0.14784183
254	0x3e2bec9f	0.16789483
255	0x3dabf30f	0.08395969

bn1.weight f4 [400]
0	0x3d996a9f	0.074910395
1	0x3f8c2c5b	1.0951036
2	0x3f2522e4	0.64506364
3	0x3f432400	0.76226807
4	0x3ef66b79	0.4812887
5	0x3f4e5c24	0.80609345
6	0x3f39c8a2	0.72571766
7	0x3e889150	0.26673365
8	0x3f5a547a	0.8528515
9	0x3e741685	0.23836716
10	0x3f85a7c3	1.0441822
11	0x3f6af097	0.9177336
12	0x3f029a4d	0.51016694
13	0x3fbdc22a	1.4824879
14	0x3f5de869	0.86682755
15	0x3ed41632	0.41423184
16	0x3f1fcf4a	0.62425673
17	0x3f1d8808	0.6153569
18	0x3f268254	0.65042615
19	0x3f53999e	0.82656276
20	0x3f653c52	0.89545166
21	0x3f444a48	0.76675844
22	0x3f2e72ee	0.6814412
23	0x3e809c92	0.25119454
24	0x3f52aef3	0.822982
25	0x3fb5b591	1.4196035
26	0xbb561b3d	-0.0032670044
27	0x3f0a44be	0.5401114
28	0x3f4efbd2	0.80853
29	0x3f8df186	1.1089332
30	0x3f41667c	0.75547004
31	0x3f955bbc	1.166862
32	0x3f7c095f	0.984518
33	0x3ea5d848	0.32391572
34	0x3eda2114	0.42603362
35	0x3f120cc7	0.57050747
36	0x3ea197ce	0.3156113
37	0x3f218efc	0.631088
38	0x3fb64b2e	1.4241693
39	0x3f1f0329	0.62114197
40	0x3f360692	0.71103776
41	0x3f4ee6b5	0.8082078
42	0x3ed41c35	0.4142777
43	0x3e65ad1b	0.22429316
44	0x3f70716b	0.9392306
45	0x3eb28452	0.34866577
46	0x3f4a64bf	0.79059976
47	0x3f52f24d	0.8240097
48	0x3f8784d1	1.0587407
49	0x3f70f740	0.94127274
50	0xbf10320d	-0.5632637
51	0x3f4fb66d	0.81137735
52	0x3f2e1097	0.67994064
53	0x3f133030	0.57495403
54	0x3f572b47	0.8405041
55	0x3fb48d69	1.4105655
56	0x3f851124	1.0395856
57	0x3ecb32a8	0.39687085
58	0x3f6b3d83	0.91890734
59	0x3f503f04	0.81346154
60	0x3f41a77e	0.756462
61	0x3f500a43	0.8126566
62	0x3f3ea6b6	0.7447313
63	0x3f3321bd	0.69973356
64	0x3d8af6ff	0.06785392
65	0x3f44cecf	0.76878065
66	0x3f4aec0d	0.79266435
67	0x3f455bd1	0.77093226
68	0x3ffcd441	1.9752275
69	0x3f680344	0.9062998
70	0x3f1274e1	0.57209593
71	0x3f3cfad1	0.73820215
72	0x3f6c13f4	0.92217946
73	0x3f2164fa	0.63044703
74	0x3faffacf	1.3748416
75	0x3f5561c9	0.83352333
76	0x3f61adb9	0.88155705
77	0x3effd773	0.49969062
78	0xbf207e9e	-0.626932
79	0x3f1f13e7	0.62139744
80	0x3f4cea72	0.80045235
81	0x3ef96271	0.48707917
82	0x3f9ec001	1.2402345
83	0x3f54cbed	0.83123666
84	0x3f89cd9e	1.0765874
85	0x3f647ccd	0.8925293
86	0x3f7315af	0.9495496
87	0x3f7e3038	0.99292326
88	0x3f492c8c	0.785836
89	0x3fa15757	1.2604779
90	0x3f10e92d	0.566058
91	0x3f3cf550	0.7381182
92	0x3f853db6	1.0409458
93	0x3f48ceec	0.7844074
94	0x3f8bdecb	1.0927366
95	0x3eab7df6	0.33494538
96	0x3ef14983	0.47126397
97	0x3f42a7a6	0.7603706
98	0x3f21b8a4	0.63172364
99	0x3f1ec953	0.62025946
100	0x3f44f92f	0.76942724
101	0x3f216c68	0.6305604
102	0x3f339504	0.70149255
103	0x3f7ca260	0.98685265
104	0x3eff799a	0.49897462
105	0x3e81eab9	0.25374392
106	0x3f828378	1.0196371
107	0x3edeb13c	0.43494594
108	0x3f771830	0.9652128
109	0x3f66c7ef	0.90148824
110	0x3f2c4dea	0.6730639
111	0xbab8a454	-0.001408706
112	0x3fa115c9	1.2584773
113	0x3e95cd45	0.2925817
114	0x3f4ddb85	0.80413085
115	0x3fc8e999	1.5696288
116	0x3f4e26b3	0.805278
117	0x3f7b3177	0.9812235
118	0xbb050bd7	-0.0020301247
119	0x3f872f21	1.0561258
120	0x3ed638c5	0.41840187
121	0x3aafeb33	0.0013421535
122	0x3f81447d	1.0099026
123	0x3f2dc3ab	0.6787669
124	0x3f2c0d0c	0.6720741
125	0x3f450178	0.76955366
126	0x3f8411b2	1.03179
127	0x3f87ef45	1.0619894
128	0x3f263cc5	0.64936477
129	0x3f08f081	0.5349198
130	0x3ef6682e	0.48126358
131	0x3ea320b0	0.31860876
132	0x3bb56625	0.005535858
133	0x3f489361	0.7834988
134	0x3f814095	1.0097834
135	0x3f452c23	0.7702047
136	0x3f07428f	0.52835935
137	0x3f488e36	0.78341997
138	0x3f82d223	1.0220379
139	0x3f4b86fc	0.79502845
140	0x3f1dd5cc	0.61654353
141	0x3f6cf376	0.9255899
142	0x3f5b4e6b	0.8566653
143	0x3f860127	1.0469102
144	0x3fb8b51d	1.4430271
145	0x3f3c1d62	0.73482335
146	0x3fe3aff4	1.7788072
147	0x3f2ecd60	0.6828213
148	0x3f3b7b84	0.73235345
149	0x3f6f60f1	0.93507296
150	0x3f3bed31	0.734088
151	0x3f0cf36d	0.5505894
152	0x3f900bb5	1.1253573
153	0x3f88047f	1.0626372
154	0x3f3aaa6d	0.729163
155	0x3e947847	0.28998014
156	0x3f40878f	0.75206846
157	0x3f1c71c9	0.6111112
158	0x3fb8dde9	1.4442722
159	0x3ecaf110	0.3963704
160	0x3e69c3c8	0.22828591
161	0x3fa7a880	1.3098297
162	0x3ea66000	0.32495117
163	0x3f3c52b4	0.73563695
164	0x3f3aec2a	0.7301661
165	0x3ef40819	0.47662428
166	0x3f8f890d	1.12137
167	0x3ef8ffc6	0.4863264
168	0x3f1380ca	0.5761839
169	0x3f4f56ea	0.80991995
170	0x3f1f20ac	0.6215923
171	0x3f6626c0	0.8990288
172	0x3f3cc1d1	0.7373324
173	0x3f16640f	0.5874643
174	0x3f4f2fbd	0.8093222
175	0x3fbe3bbd	1.4861981
176	0x3f250db9	0.64474064
177	0x3ea08706	0.31353015
178	0x3f844368	1.0333071
179	0x3f5bb5e1	0.858244
180	0x3f7ae9bb	0.98012894
181	0x3e7f95b2	0.24959448
182	0x3f1b1a32	0.60586846
183	0x3f9f8787	1.2463235
184	0xbeef7fb1	-0.46777108
185	0x3f68ca84	0.90934014
186	0x3e4f39e3	0.20236926
187	0x3f118e1a	0.56857455
188	0x3ecd72b5	0.40126577
189	0xba001f02	-0.0004887433
190	0x3fb3cf22	1.4047587
191	0x3f36716d	0.71266824
192	0x3f9bb294	1.2163873
193	0x3fa85096	1.3149593
194	0x3f84beb4	1.0370698
195	0x3f6da38d	0.92827684
196	0x3f88bef1	1.0683271
197	0x3f28af75	0.65892726
198	0x3f58da68	0.8470826
199	0x39f2dced	0.0004632244
200	0x3ef8b403	0.48574838
201	0x3ee4fd57	0.44724533
202	0x3f40eb89	0.753594
203	0x3f1537c1	0.582882
204	0x3f5eeb24	0.87077546
205	0x3f399927	0.72499317
206	0x3f2522da	0.64506304
207	0x3f4020ca	0.7505003
208	0x3f5267e4	0.82189775
209	0x3f5313d2	0.8245212
210	0x3efbc133	0.49170837
211	0x3f562738	0.83653593
212	0x3f14cffc	0.5812986
213	0x3fb30160	1.3984795
214	0x3fa15ed7	1.2607068
215	0x3f2b9fe0	0.67040825
216	0x3f1a0d2b	0.6017634
217	0x3f5373ad	0.8259838
218	0x3efb0e81	0.49034503
219	0x3f5de3fc	0.86676
220	0x3f847924	1.0349469
221	0x3f820780	1.0158539
222	0x3f82c3cf	1.0216006
223	0x3f8a42c9	1.0801631
224	0x3fd0f52b	1.6324819
225	0x3f7e199b	0.9925782
226	0x3f7c2251	0.9848986
227	0x3f826f70	1.0190258
228	0x3f14079d	0.57824117
229	0x3f31ff49	0.6953016
230	0x3f259789	0.6468435
231	0x3f57fedb	0.84373254
232	0x3e8fdc83	0.28097925
233	0x3f67e3af	0.9058179
234	0x3f229f01	0.6352387
235	0x3e818a37	0.25300762
236	0x3f85c5fe	1.0451047
237	0x3f505e3f	0.8139381
238	0x3e394fbe	0.18096825
239	0x3f617c7e	0.88080585
240	0x3f535ef1	0.82566744
241	0x3f2fb693	0.6863796
242	0x3f2ee2ed	0.6831501
243	0x3f85834d	1.0430695
244	0x3a91bc08	0.001111866
245	0x3f4accdd	0.79218847
246	0x3f71a866	0.9439758
247	0x3f5abe6c	0.8544681
248	0x3f6e588f	0.9310388
249	0x3f20cacd	0.6280945
250	0x3f588f2d	0.8459347
251	0x3e8214e8	0.25406575
252	0x3f84a4ed	1.0362831
253	0x3f45acae	0.77216613
254	0x3f8ebe8c	1.11519
255	0x3dbde9ae	0.092730865

bn1.bias f4 [400]
0	0xbed992ed	-0.42494908
1	0xbfb9628c	-1.4483199
2	0xbf8fd396	-1.1236446
3	0xbf867fa1	-1.0507699
4	0xbf2b4ab1	-0.66910845
5	0xbf9dcda5	-1.2328383
6	0xbf8e7c09	-1.1131603
7	0xbfab427c	-1.3379664
8	0xbfa3684b	-1.2766203
9	0xbfa03400	-1.2515869
10	0xbfa74b5e	-1.3069875
11	0xbf25ea12	-0.6481029
12	0xbf85a529	-1.0441028
13	0xbf5d5491	-0.86457163
14	0xbf5a14d9	-0.8518806
15	0xbfb89c10	-1.4422626
16	0xbea02d36	-0.31284493
17	0xbf5a2f38	-0.852283
18	0xbdba4c54	-0.0909659
19	0xbf1b789c	-0.6073091
20	0xbf84d16d	-1.0376412
21	0xbf1fd4cc	-0.6243408
22	0xbf171357	-0.59013885
23	0xbf360961	-0.7110806
24	0xbf7a77f6	-0.97839296
25	0xbf8a13e7	-1.0787324
26	0xbcd76998	-0.026295468
27	0xbf9a5065	-1.2055784
28	0xbf7fdeeb	-0.9994952
29	0xbfa1310c	-1.2593093
30	0xbf4e3c18	-0.80560446
31	0xbf91f5a8	-1.1403093
32	0xbf6fb400	-0.93634033
33	0xbfa906e1	-1.3205224
34	0xbf0f13ee	-0.55889785
35	0xbeb6af66	-0.35680693
36	0xbfd97de5	-1.6991545
37	0xbfa7509a	-1.3071473
38	0xbfc5ef49	-1.5463649
39	0xbeb29b28	-0.34884
40	0xbfa95f36	-1.3232181
41	0x3c57c0eb	0.013168554
42	0xbe8d9336	-0.27651376
43	0xbfd41969	-1.6570255
44	0xbf6207fc	-0.88293433
45	0xbf3d401c	-0.7392595
46	0xbfab296f	-1.337202
47	0xbf8d40c0	-1.1035385
48	0xbfd1fe8b	-1.6405805
49	0xbf0b8e75	-0.5451425
50	0xbf5d7ca3	-0.86518306
51	0xbf803394	-1.001574
52	0xbf827af3	-1.0193771
53	0xbe30213e	-0.17200181
54	0xbf65089a	-0.8946625
55	0xbfbe3ab2	-1.4861662
56	0xbfca3ef4	-1.5800462
57	0xbec0b98f	-0.3764157
58	0xbf93f8b7	-1.1560277
59	0xbf8db012	-1.1069357
60	0xbf89750f	-1.0738848
61	0xbf3cbb70	-0.73723507
62	0xbf62f319	-0.8865219
63	0x3e1af6bf	0.15133189
64	0xbeb83697	-0.3597915
65	0xbf80c042	-1.0058672
66	0xbf65cd00	-0.8976593
67	0xbeed93f7	-0.4640195
68	0xbe11af14	-0.14226943
69	0xbf67fc90	-0.90619755
70	0xbfc61357	-1.5474652
71	0xbee15b4f	-0.44014975
72	0xbf6d6f85	-0.9274829
73	0xbed92780	-0.4241295
74	0xbf3f3272	-0.7468635
75	0xbfaa822f	-1.3320979
76	0xbf5f82b0	-0.8730879
77	0xbea06c3f	-0.31332585
78	0xbf86c964	-1.053021
79	0xbefe6f56	-0.49694318
80	0xbf2771f5	-0.6540826
81	0xbfb3eb09	-1.4056102
82	0xbf924d94	-1.1429925
83	0xbf55024c	-0.8320663
84	0xbf5d5e45	-0.8647197
85	0xbf50a7a5	-0.81505805
86	0xbf634389	-0.88774925
87	0xbfab5c9e	-1.338764
88	0xbe3cab60	-0.1842475
89	0xbf2a3452	-0.66486084
90	0xbf79a763	-0.97521037
91	0xbf78b7d3	-0.97155493
92	0xbe40e852	-0.18838623
93	0xbf94f52b	-1.1637319
94	0xbfaeb931	-1.3650266
95	0xbf8fbe58	-1.1229963
96	0xbf11843b	-0.5684239
97	0xbecd7392	-0.40127236
98	0xbf6f9034	-0.9357941
99	0xbf1b9168	-0.6076875
100	0xbf469625	-0.7757285
101	0xbef225f0	-0.4729457
102	0xbf60520b	-0.8762519
103	0xbfa43449	-1.2828456
104	0xbf319da3	-0.6938116
105	0xbfaf4328	-1.369237
106	0xbf4027d6	-0.75060785
107	0xbfa68379	-1.3008872
108	0xbf154d24	-0.5832083
109	0xbf3074a4	-0.6892798
110	0xbfb430ce	-1.4077394
111	0xbd8da277	-0.06915753
112	0xbf613f04	-0.8798678
113	0xbff16958	-1.8860273
114	0xbf93b0fa	-1.1538384
115	0xbfd162a2	-1.6358225
116	0xbf15c575	-0.5850442
117	0xbfb451dd	-1.4087483
118	0xbcf76821	-0.03020102
119	0xbfa2f0c0	-1.2729721
120	0xbe33d387	-0.1756116
121	0xbcafc392	-0.02145556
122	0xbfb78c4d	-1.4339691
123	0xbed9d45a	-0.42544824
124	0xbe9bb5e7	-0.30412218
125	0xbf50d6e8	-0.8157792
126	0xbf828459	-1.0196639
127	0xbfa5459d	-1.2911869
128	0xbf50c9e5	-0.81558067
129	0xbf70802a	-0.9394556
130	0xbfaf6715	-1.3703333
131	0xbf0d47e3	-0.55187815
132	0xbd8aaf20	-0.06771684
133	0xbf59d4b6	-0.85090196
134	0xbf7d2a28	-0.9889245
135	0xbf51bfe9	-0.81933457
136	0xbef04d83	-0.46934137
137	0xbf384d44	-0.719929
138	0xbef03841	-0.46917918
139	0xbfa090ef	-1.254423
140	0xbf6c69d1	-0.92348963
141	0x3dd1f90d	0.10252581
142	0xbed51aef	-0.4162211
143	0xbf937580	-1.1520233
144	0xbfd58f76	-1.6684406
145	0xbf4f25b3	-0.809169
146	0xbff8bdc7	-1.9432915
147	0xbf6aff39	-0.9179569
148	0xbf3cb5cf	-0.7371492
149	0xbfa234fe	-1.2672422
150	0xbf5e41f6	-0.868194
151	0xbe507c19	-0.2035984
152	0xbf2ef0bd	-0.6833609
153	0xbf3809ac	-0.7188976
154	0xbf2e07c6	-0.6798061
155	0xbf921d65	-1.141522
156	0xbf8d5a49	-1.1043178
157	0xbf12b675	-0.5730966
158	0xbf811cf9	-1.0086967
159	0x3e3a3d0c	0.1818735
160	0x3f35f5a6	0.71077955
161	0xbfc75d28	-1.5575304
162	0xbe085518	-0.1331371
163	0xbf92cdf3	-1.1469101
164	0xbeca5f2b	-0.39525732
165	0xbf63dbae	-0.8900708
166	0xbf91ff83	-1.1406101
167	0xbf172794	-0.59044766
168	0xbf4543b5	-0.7705644
169	0xbe9e0dbb	-0.3086985
170	0xbf8010c4	-1.0005116
171	0xbf8bad3d	-1.0912243
172	0xbf455c94	-0.7709439
173	0xbf5213ab	-0.8206126
174	0xbfa17234	-1.2612977
175	0xbfb71430	-1.4303036
176	0xbf077bd6	-0.52923334
177	0xbfc2bb6d	-1.5213448
178	0xbf10a5ad	-0.565028
179	0xbf83745d	-1.0269886
180	0xbf8c9f02	-1.0986025
181	0xbfa33367	-1.2750062
182	0xbf5cfaa9	-0.8631998
183	0xbf093514	-0.53596616
184	0xbf073a22	-0.5282308
185	0xbfc2fbf0	-1.5233135
186	0xbfc4dae1	-1.5379297
187	0xbe1cdc85	-0.15318497
188	0xbe8c6406	-0.27420062
189	0xbe0c4346	-0.13697538
190	0xbfeb1c75	-1.8368059
191	0xbf55d7fa	-0.8353268
192	0xbf80a7e7	-1.005124
193	0xbfa9b0c6	-1.3257072
194	0xbfb6ca87	-1.4280556
195	0xbf809cfc	-1.0047908
196	0xbf36876a	-0.71300375
197	0xbf12c88c	-0.5733726
198	0xbfba9194	-1.4575677
199	0xbca9a480	-0.020708323
200	0x3cf67744	0.030086167
201	0xbfe7a2bb	-1.8096536
202	0xbf840a15	-1.0315577
203	0xbef95e19	-0.48704603
204	0xbf39e356	-0.7261251
205	0xbf136246	-0.5757183
206	0xbf5191c6	-0.8186306
207	0xbfe72c4f	-1.8060397
208	0xbf18fc81	-0.5976029
209	0xbf9d08a7	-1.2268265
210	0xbe964918	-0.2935264
211	0xbf00fc55	-0.5038503
212	0xbf276a84	-0.65396905
213	0xbf8f3dd5	-1.1190745
214	0xbf44ef37	-0.7692751
215	0xbf858752	-1.0431921
216	0xbf09b01b	-0.5378434
217	0xbf979bc1	-1.1844407
218	0xbf929fa7	-1.1454972
219	0xbf88d6d4	-1.069056
220	0xbf789c93	-0.97113913
221	0xbdff16b7	-0.124555044
222	0xbf39fa6f	-0.72647756
223	0xbf530684	-0.8243182
224	0xbfc2f3a9	-1.5230609
225	0xbfacbcce	-1.3495119
226	0xbf5740f2	-0.84083474
227	0xbf9139c3	-1.1345752
228	0xbf1be6da	-0.60899127
229	0x3e4c1cb8	0.1993283
230	0xbf54df37	-0.831531
231	0xbf8ae98f	-1.0852526
232	0xbf907c0b	-1.1287855
233	0xbfb70c7e	-1.4300687
234	0xbf869d35	-1.0516726
235	0xbf82b031	-1.0210019
236	0xbfa0b74f	-1.2555941
237	0xbf30f38d	-0.6912163
238	0xbef84a5b	-0.4849423
239	0x3e665056	0.22491583
240	0xbf952fd3	-1.165522
241	0xbf5e1a50	-0.867589
242	0xbfc2ae17	-1.5209378
243	0xbf8cfdb0	-1.1014919
244	0xbc79d6d7	-0.015248976
245	0xbfade624	-1.3585858
246	0xbf76ea9c	-0.96451735
247	0xbf78e97c	-0.9723127
248	0xbf8201ae	-1.0156763
249	0xbe9b3792	-0.30315834
250	0xbf46c44a	-0.77643263
251	0xbf9b0f0b	-1.2113966
252	0xbedb594c	-0.42841566
253	0xbe0acc42	-0.1355448
254	0xbf52b16d	-0.8230198
255	0x3eeb9636	0.4601304

bn1.running_mean f4 [400]
0	0x4001aa4d	2.0260193
1	0x402bca3b	2.6842182
2	0x40aff626	5.4987974
3	0xc19182b2	-18.188816
4	0x3fd7971c	1.684299
5	0xc07aa154	-3.9160967
6	0xc0e636fc	-7.194212
7	0xc049eebb	-3.155196
8	0x3f8a7de5	1.081967
9	0xc0bdc4a6	-5.930255
10	0xc0512e45	-3.268449
11	0x3f63eec1	0.89036185
12	0xbf639a52	-0.8890735
13	0xc01fd7de	-2.4975505
14	0xbf8e5803	-1.1120609
15	0xbfd35057	-1.6508893
16	0xc040e80a	-3.0141625
17	0x3fac64e1	1.3468286
18	0x406debaa	3.7175088
19	0x4120d9dc	10.053188
20	0x4090ac38	4.521023
21	0x40691538	3.64192
22	0xc09a70b9	-4.82626
23	0xc0b7639b	-5.730909
24	0x40dd7a84	6.9212055
25	0x3f0cc30d	0.54985124
26	0xbdc70e2c	-0.097195
27	0x3e5f6091	0.21814181
28	0xc07b4e12	-3.92664
29	0x3fa3d5f2	1.2799666
30	0xbf4c0066	-0.7968811
31	0x3dfe721a	0.12424107
32	0x40045fc2	2.0683446
33	0xbf83f145	-1.0308005
34	0x411066b0	9.02507
35	0x409091fe	4.5178213
36	0xbfce3b00	-1.6111755
37	0xc0d10630	-6.5320053
38	0x3d3a0b7d	0.045421112
39	0x3ec86112	0.3913656
40	0x40357dd0	2.835804
41	0x3f97e92b	1.1868032
42	0x4081883b	4.0478797
43	0xbedd5d47	-0.43235227
44	0x3f182608	0.5943303
45	0x3fbab992	1.4587882
46	0xc0f319b0	-7.5968857
47	0x3ebc9f83	0.36840448
48	0xbf92eda4	-1.1478772
49	0xc0182e78	-2.3778362
50	0x4023979c	2.5561285
51	0x400ed5df	2.2318037
52	0xc13809b2	-11.502367
53	0x4079832c	3.898631
54	0xc08d47c5	-4.415011
55	0x40393ca6	2.8943267
56	0xc05280d5	-3.2891133
57	0x408707ee	4.219718
58	0x3f1b0c3a	0.6056553
59	0xc0a9f007	-5.31055
60	0xbfb9ed48	-1.4525537
61	0x407ac292	3.9181256
62	0xbffedfa2	-1.9911997
63	0xc01d2e53	-2.4559524
64	0xbd7da272	-0.061922498
65	0x3be9bcd6	0.0071331067
66	0x40804b2e	4.009177
67	0x40ed0c6b	7.407766
68	0xc0251be3	-2.579827
69	0xc07881c9	-3.8829215
70	0xc0a554cf	-5.1666026
71	0xc0c3ab14	-6.1146336
72	0xc0688c1e	-3.633552
73	0x40dbf07e	6.873107
74	0x3d9f54c8	0.077798426
75	0x3fec25d0	1.844904
76	0xc08b068f	-4.3445506
77	0xc045ffef	-3.093746
78	0xc0136b74	-2.3034334
79	0xc0c108ea	-6.032338
80	0xbea59940	-0.32343483
81	0xc0e9d8a6	-7.3076963
82	0x3fb9f3b7	1.4527501
83	0xc00b2475	-2.1741002
84	0xbddab477	-0.10678952
85	0xc0b71088	-5.720768
86	0xbfa87083	-1.3159336
87	0xc09ef339	-4.9671903
88	0x4162917c	14.160519
89	0x40052b9d	2.080787
90	0xc07c54ce	-3.942676
91	0xc10cae52	-8.792559
92	0x3ff6da63	1.9285396
93	0xc01b8eab	-2.4305828
94	0x4009f7c7	2.1557481
95	0x4173505f	15.207122
96	0xbfedd15a	-1.8579514
97	0x40a62258	5.1916924
98	0xbfdb5ab5	-1.7137057
99	0x40d8e81b	6.778333
100	0xc0e21746	-7.065341
101	0x4020f354	2.5148516
102	0xbf4cf634	-0.80063176
103	0x3f8ebf69	1.1152164
104	0xc074cc48	-3.8249683
105	0xc092b3e4	-4.5844593
106	0x4065542e	3.583263
107	0xc0916eaa	-4.544759
108	0x3edd09fc	0.4317168
109	0x40cb1d81	6.3473516
110	0xc080c398	-4.023876
111	0xbe284773	-0.16433506
112	0xbc9ce128	-0.019150332
113	0xc05573ef	-3.335201
114	0xc0c21c7e	-6.065978
115	0xbf701700	-0.93785095
116	0xc08000ea	-4.0001116
117	0xc04d4390	-3.2072487
118	0xbe5faffd	-0.21844478
119	0xc0981155	-4.7521157
120	0x405f1dac	3.486186
121	0xbee420c3	-0.44556245
122	0xc0782f70	-3.8778954
123	0xbf946cf8	-1.1595755
124	0x404c6204	3.1934824
125	0x3f9b69c7	1.2141656
126	0x40128d67	2.2898805
127	0xc0250aaf	-2.578777
128	0x40a39aec	5.1126614
129	0x40b89635	5.768336
130	0x3fff5493	1.9947685
131	0x40b688ad	5.704184
132	0x3eb2946e	0.34878868
133	0x416310f3	14.191638
134	0xc0146fdd	-2.3193276
135	0xbfbbe4ca	-1.4679196
136	0x40284a68	2.6295414
137	0x401aae10	2.416874
138	0x3e788ecc	0.24273223
139	0xc02563a0	-2.5842056
140	0x3e45e10e	0.19324133
141	0x3fa38f7d	1.2778164
142	0xc058f1ff	-3.3897703
143	0xbfebdab7	-1.8426121
144	0xc010f366	-2.2648559
145	0xc0a72874	-5.223688
146	0x3eccd47b	0.4000586
147	0x3facf2e0	1.351162
148	0xc13d4954	-11.830402
149	0xbf77108f	-0.9650964
150	0x3df5ffd6	0.120116875
151	0x40cd713e	6.4200735
152	0xc0217471	-2.522732
153	0xbf97d62d	-1.1862236
154	0x3fd6230d	1.6729447
155	0x3f9d32e4	1.2281156
156	0x3fbb0b58	1.4612837
157	0x3f9ae0ff	1.2099913
158	0xc0409a59	-3.0094206
159	0x417e9ff3	15.91405
160	0xc033b45e	-2.8078837
161	0xc0541362	-3.313683
162	0x3f9664c6	1.1749504
163	0xc0a25b0e	-5.073615
164	0x40e0800b	7.0156302
165	0xc0d97165	-6.795092
166	0x3f0babeb	0.545592
167	0xbf20ccef	-0.62812704
168	0x40d9f477	6.811092
169	0x3e2bdeef	0.16784261
170	0x40fd3c91	7.9136434
171	0x40b580ea	5.6719866
172	0xc0a4f977	-5.1554523
173	0xbf3f8027	-0.7480492
174	0xc11b9109	-9.722909
175	0x3f836ec1	1.0268174
176	0xbfe3f1b5	-1.7808138
177	0xc0d75973	-6.729669
178	0x3f304120	0.6884937
179	0x40f7c712	7.7430506
180	0xc09a44db	-4.820905
181	0xbf0c0ee2	-0.5471021
182	0xbf29796c	-0.662009
183	0xc024c4c1	-2.574509
184	0x410caa7d	8.791623
185	0xc011ecfb	-2.2800891
186	0xc0ffe1da	-7.99632
187	0x40a6340f	5.193855
188	0xc02c9385	-2.6965039
189	0x3f023fd4	0.50878644
190	0xc0d4d475	-6.6509347
191	0xc096fc3c	-4.7182903
192	0x4061458a	3.5198693
193	0x4001d238	2.0284557
194	0x3faa4268	1.3301516
195	0x40e40f71	7.126885
196	0x408c7d99	4.3903317
197	0xc0c2e38d	-6.090277
198	0x4039114b	2.8916805
199	0x3e3caf8c	0.18426341
200	0xbee74268	-0.4516785
201	0xc1337b1f	-11.217559
202	0xc099acb2	-4.802331
203	0x40ba2ab0	5.817711
204	0x402b250a	2.6741357
205	0xc0c53cca	-6.1636705
206	0xc08ca5ff	-4.395263
207	0x414fa6f7	12.978263
208	0xc099773f	-4.7958064
209	0xc0137907	-2.304262
210	0x416250e0	14.144745
211	0xbfa92ca3	-1.3216747
212	0x401a4b24	2.4108362
213	0xc0785b63	-3.8805778
214	0x3f295530	0.6614561
215	0xc00f57c7	-2.2397325
216	0x4118a60f	9.540542
217	0xbfea4627	-1.8302659
218	0x3e94a574	0.2903248
219	0xc038da34	-2.888318
220	0x3fb1adf3	1.388121
221	0x40745933	3.8179443
222	0xbee05be6	-0.43820113
223	0xc0966970	-4.700371
224	0xc06979c9	-3.6480582
225	0x40b69a61	5.706345
226	0x4060f6ba	3.515059
227	0x412be589	10.743539
228	0xc10049c3	-8.018008
229	0x3e8a3625	0.26994434
230	0xc099d53c	-4.8072796
231	0x3f2837ac	0.6570995
232	0x3fe2c7df	1.7717246
233	0xc0ba02c8	-5.8128395
234	0x40f3fcd0	7.624611
235	0x3f5ae72d	0.85508996
236	0x40389814	2.884282
237	0x40893a78	4.2883873
238	0xc0bb5be0	-5.854965
239	0x3e08bc6b	0.13353126
240	0xc04bb594	-3.1829576
241	0x3eea45cb	0.45756373
242	0xc06de631	-3.7171748
243	0xc0100f67	-2.25094
244	0xbe92cfcb	-0.28674158
245	0xc07e985f	-3.97805
246	0xc096297c	-4.692564
247	0xc0277ce0	-2.6169968
248	0x409437fd	4.6318345
249	0xc0fa53bf	-7.822723
250	0xc012570c	-2.286563
251	0xc0ae795b	-5.452314
252	0x40613586	3.5188918
253	0xbfc1d9a1	-1.514454
254	0xbff3d46b	-1.90492
255	0xbfd6bce0	-1.677639

bn1.running_var f4 [400]
0	0x423117c5	44.273212
1	0x427bdb94	62.96443
2	0x42614a4a	56.322548
3	0x42975e7c	75.68454
4	0x422dd976	43.462364
5	0x437ba6dd	251.65181
6	0x423f6160	47.845093
7	0x428e08fd	71.017555
8	0x4303d394	131.82648
9	0x43182cee	152.1755
10	0x42db1386	109.53813
11	0x42b4ca5a	90.39522
12	0x42159258	37.392914
13	0x41f14406	30.158215
14	0x428fd7b9	71.92133
15	0x424494e9	49.14542
16	0x42ccb081	102.344734
17	0x4204ee66	33.23281
18	0x420e142c	35.5197
19	0x431a5900	154.34766
20	0x422286ba	40.63157
21	0x421f03a8	39.75357
22	0x43414d10	193.30103
23	0x43ce28b4	412.318
24	0x42c173c2	96.72609
25	0x4270936f	60.14398
26	0x3e99e90e	0.3006062
27	0x421a2dff	38.544918
28	0x428c4762	70.13942
29	0x42ef2667	119.575005
30	0x42102ae2	36.041878
31	0x40c09867	6.018604
32	0x418f0d45	17.88148
33	0x42d1ca13	104.89468
34	0x42b43c71	90.11805
35	0x42c29925	97.29911
36	0x429599fa	74.800735
37	0x428757fd	67.67185
38	0x42b0d822	88.422134
39	0x42949108	74.283264
40	0x42bbe980	93.956055
41	0x40cbd5e7	6.369861
42	0x426a14bb	58.520245
43	0x42a429f9	82.08198
44	0x42b3cbbc	89.89792
45	0x423a67e8	46.60147
46	0x4282466e	65.13756
47	0x41eb66fb	29.425283
48	0x4313864f	147.52464
49	0x42b47e6a	90.2469
50	0x431db087	157.68956
51	0x42ba1556	93.04167
52	0x4310b937	144.7235
53	0x41d44c26	26.537182
54	0x4214b1a3	37.173473
55	0x41cdab3c	25.70861
56	0x4219a6df	38.41296
57	0x42c1fff2	96.99989
58	0x430a8c92	138.5491
59	0x41b607ea	22.753864
60	0x42835887	65.672905
61	0x42c5fa48	98.98883
62	0x42498397	50.378506
63	0x41329840	11.16217
64	0x417828f4	15.509998
65	0x4278bea1	62.18616
66	0x438111ad	258.1381
67	0x41df735b	27.931326
68	0x432100e4	161.00348
69	0x42b52933	90.58047
70	0x4370d2bd	240.8232
71	0x4184f2e0	16.618591
72	0x425f2638	55.787323
73	0x41818994	16.192177
74	0x42228a34	40.634964
75	0x4302b586	130.70908
76	0x42825d5d	65.18235
77	0x42d021b1	104.0658
78	0x42bf89c9	95.76911
79	0x40d52fee	6.662101
80	0x431c7404	156.45319
81	0x42b8f40d	92.47666
82	0x4298e2ef	76.44323
83	0x42ee74e7	119.228325
84	0x420a9e86	34.654808
85	0x42f33d23	121.61941
86	0x42ee4330	119.131226
87	0x4219cd01	38.4502
88	0x434ec96e	206.78683
89	0x41feddf4	31.858376
90	0x427e8670	63.631287
91	0x4285459b	66.63595
92	0x428d4f03	70.65432
93	0x4283103c	65.53171
94	0x41462abe	12.385435
95	0x434055b6	192.33481
96	0x41e77cf3	28.93601
97	0x420d34b0	35.301453
98	0x428503db	66.50753
99	0x42e10d52	112.52602
100	0x4278c240	62.189697
101	0x40c7a6c2	6.239106
102	0x41138b4c	9.221508
103	0x42fbeda7	125.964165
104	0x41ccdd5b	25.608084
105	0x4251a318	52.40927
106	0x4213df1f	36.96789
107	0x434b1793	203.09209
108	0x42240e4f	41.013973
109	0x436f3c35	239.23518
110	0x43876f1f	270.86813
111	0x3ea8789c	0.32904518
112	0x4298120d	76.035255
113	0x426072e0	56.112183
114	0x43577efe	215.49606
115	0x4223a7ed	40.91399
116	0x431ee7ef	158.90599
117	0x43056667	133.40001
118	0x3f51892d	0.8184994
119	0x42b56d4d	90.71348
120	0x41c4e141	24.609987
121	0x3ef95cb0	0.48703527
122	0x428e80c7	71.25152
123	0x42630d4a	56.762978
124	0x420745ad	33.818043
125	0x43002d3d	128.17671
126	0x4247a587	49.911648
127	0x42e594ec	114.79086
128	0x42c746d2	99.63832
129	0x434506e3	197.0269
130	0x435390e9	211.56606
131	0x42363738	45.553925
132	0x3e228b79	0.15873517
133	0x4351d49f	209.83055
134	0x42456b4d	49.354786
135	0x429674ba	75.22798
136	0x41bb8748	23.441055
137	0x4209f12f	34.48553
138	0x415d04e6	13.813696
139	0x429d8f47	78.77984
140	0x42af77d2	87.734024
141	0x41e93e93	29.155554
142	0x41b7ab42	22.958622
143	0x425e0dba	55.513405
144	0x42387775	46.116657
145	0x4196f4ed	18.869593
146	0x41e934df	29.150816
147	0x417a921c	15.660671
148	0x421607ad	37.507496
149	0x42d10d6a	104.5262
150	0x4223b263	40.924206
151	0x43357161	181.44289
152	0x42f47709	122.23249
153	0x421fd364	39.956436
154	0x420ded8b	35.481976
155	0x42cd8866	102.7664
156	0x4290ac45	72.336464
157	0x42319ed2	44.405098
158	0x42218fb9	40.390354
159	0x42511f3d	52.280506
160	0x4286cb1f	67.39672
161	0x42b09f94	88.311676
162	0x41b6e5df	22.862242
163	0x42a4e91a	82.45528
164	0x430ea0a1	142.62746
165	0x4290074d	72.01426
166	0x4223bb9b	40.93321
167	0x42491882	50.273933
168	0x42c9b875	100.86027
169	0x40bd7e21	5.9216466
170	0x4236bbbd	45.68334
171	0x428d8fd1	70.78089
172	0x424a25f1	50.537052
173	0x4228b3d6	42.17562
174	0x421f83c2	39.87867
175	0x423324f8	44.786102
176	0x4260e748	56.22586
177	0x4270611b	60.09483
178	0x42b7c90f	91.89269
179	0x4365a80e	229.65646
180	0x43077c43	135.4854
181	0x429d0311	78.50599
182	0x42b888db	92.267296
183	0x4256d047	53.703396
184	0x42df40ec	111.6268
185	0x427cf6fe	63.241203
186	0x424761dc	49.845566
187	0x4200c134	32.188675
188	0x42ca4976	101.14348
189	0x3e7d84c2	0.24757674
190	0x41409a79	12.037713
191	0x432d424c	173.25897
192	0x42010a97	32.26034
193	0x41c2a346	24.329723
194	0x42804616	64.13689
195	0x426486e6	57.131737
196	0x42891183	68.5342
197	0x426697b0	57.648132
198	0x42e379a2	113.737564
199	0x3ef7914e	0.48353046
200	0x420353fa	32.83201
201	0x42e45155	114.15885
202	0x4315c60f	149.77367
203	0x42a38268	81.7547
204	0x42952f9b	74.59298
205	0x41ca6b01	25.302248
206	0x41e3b69e	28.464169
207	0x42cc3064	102.09451
208	0x439d20b1	314.2554
209	0x422f4138	43.81369
210	0x42828dcc	65.27695
211	0x40d77842	6.73343
212	0x428a670d	69.20127
213	0x4213ee96	36.982994
214	0x41bb1ec2	23.390018
215	0x42842f56	66.09245
216	0x429e7132	79.221085
217	0x42f6b881	123.36036
218	0x41f64e38	30.788193
219	0x42926304	73.19339
220	0x4252fedc	52.748886
221	0x422f7928	43.868317
222	0x42f64dee	123.15221
223	0x41df9286	27.946545
224	0x41b8aa9a	23.083302
225	0x424ef4b9	51.738987
226	0x41e6a094	28.828407
227	0x425b0418	54.753998
228	0x430aeda3	138.92827
229	0x4227feca	41.998817
230	0x41bea23b	23.829214
231	0x42ae3753	87.108055
232	0x43173354	151.2005
233	0x423a85fc	46.630844
234	0x43011165	129.06795
235	0x42854958	66.64325
236	0x42915829	72.67219
237	0x421b6e56	38.85775
238	0x426b41ed	58.81438
239	0x42ad7c89	86.74323
240	0x42050df4	33.263626
241	0x42b98270	92.75476
242	0x42441789	49.022984
243	0x41cfc672	25.971897
244	0x3f6ae7ab	0.9175975
245	0x42e68d2f	115.27575
246	0x41fcae19	31.585009
247	0x42b69a34	91.30118
248	0x42ca743a	101.227005
249	0x4325c193	165.75615
250	0x40675f76	3.6152015
251	0x42a15a43	80.67629
252	0x425b47b1	54.82001
253	0x415ab813	13.66994
254	0x41492630	12.571823
255	0x431ba4bf	155.64354

fc2.weight f4 [300, 400]
0	0x3d878ebe	0.06619023
1	0x3d989d60	0.07451892
2	0xbe3d70d1	-0.18500067
3	0xbe077731	-0.13229062
4	0xbd90472e	-0.070448264
5	0xbe0923ae	-0.13392517
6	0xbddb950f	-0.1072179
7	0xbe25c822	-0.16189626
8	0xbc8e33b2	-0.017358635
9	0xbdd57330	-0.10422361
10	0xbe2dd042	-0.16973975
11	0xbe057769	-0.13033833
12	0xbe65ea02	-0.22452548
13	0xbde11968	-0.10991174
14	0xbd84c646	-0.0648313
15	0xbe2cab30	-0.16862178
16	0x3b06ef33	0.0020589351
17	0xbd5a5383	-0.0533023
18	0xbdd483ba	-0.10376687
19	0x3e02f7a4	0.1278978
20	0xbe4729c4	-0.19449526
21	0xbe483474	-0.1955126
22	0xb97b85ac	-0.00023987022
23	0x3cefcbc2	0.029271964
24	0xbcb872a7	-0.022515608
25	0xbdb91052	-0.09036316
26	0xbd4fb2bd	-0.050707567
27	0xbe562963	-0.20914225
28	0xbd05216a	-0.03250257
29	0x3bba9076	0.0056934906
30	0xbdc05752	-0.09391655
31	0x3d2fc78f	0.042914923
32	0xbe8f9376	-0.2804219
33	0xbcd5fb1f	-0.02612072
34	0xbdc605f5	-0.09669105
35	0xbe4fd19c	-0.20294803
36	0xbd07e9c0	-0.033181906
37	0xbdc6a74a	-0.096998766
38	0xbc344ba8	-0.011004366
39	0xbd8bac49	-0.0681997
40	0xbcdf23f0	-0.027238816
41	0x3ce819d2	0.028332625
42	0x3cb3878c	0.02191522
43	0xbc87cffa	-0.016578663
44	0xbd8a88d6	-0.06764381
45	0x3d1d2da6	0.038373612
46	0xbe2698ea	-0.1626927
47	0x3d3a4d46	0.04548385
48	0x3cc6ddfc	0.024275772
49	0xbda07bd9	-0.07836122
50	0xbce97aba	-0.028500903
51	0x3cec987f	0.02888131
52	0xbdb06cc0	-0.086144924
53	0xbdcf337a	-0.1011724
54	0xbe2a619a	-0.16638795
55	0x3c997f12	0.01873735
56	0x3c62c5c0	0.013841093
57	0xbd485fa4	-0.048919335
58	0xbe020f28	-0.12701094
59	0xbc8e05e0	-0.017336786
60	0xbd06dde9	-0.032926474
61	0xbd8425f9	-0.06452555
62	0xbdc6645b	-0.0968711
63	0x3d14d012	0.036331244
64	0x3bb1c68f	0.0054252814
65	0xbda743e0	-0.08167243
66	0x3dbd1020	0.09231591
67	0xbe0bc9f9	-0.13651265
68	0xbd0f3c42	-0.034969576
69	0xbdae1e23	-0.08501842
70	0x3c34063c	0.0109878145
71	0xbdb7b921	-0.089708574
72	0xbdac93dd	-0.0842664
73	0xbe592432	-0.21205214
74	0x3b430f5c	0.0029763794
75	0xbe0a3e63	-0.13500361
76	0x3bd2b993	0.0064308136
77	0xbe1475b6	-0.14498028
78	0xbd9c0b2e	-0.0761932
79	0x3dcf85b9	0.101329274
80	0xbe2e08ba	-0.16995516
81	0xbd73b1f3	-0.059495877
82	0xbe2eadee	-0.17058536
83	0xbd876996	-0.06611936
84	0x3d1bf173	0.03807206
85	0x3ac47d52	0.0014990962
86	0xbd20dcfa	-0.03927324
87	0x39de3b52	0.00042387337
88	0xbe832d79	-0.2562063
89	0xbdcf8554	-0.10132852
90	0xbd6c38d9	-0.0576714
91	0xbe0333a0	-0.12812662
92	0xbdafed16	-0.085901424
93	0xbda4c8d8	-0.080461204
94	0xbe317848	-0.1733104
95	0xbe33711a	-0.17523614
96	0x3d2b0ec2	0.04176212
97	0x3d068180	0.032838345
98	0xbe0b3b11	-0.13596751
99	0xbe01730a	-0.1264154
100	0x3bd1fee7	0.0064085606
101	0xbe8b6cd5	-0.2723147
102	0xbdb4d4b3	-0.08829632
103	0xbdd10463	-0.10205915
104	0xbc1b5953	-0.009481746
105	0xbe5c603b	-0.21521084
106	0xbdf3c3e0	-0.119025946
107	0x3cb3af22	0.021934096
108	0xbe0959f6	-0.13413224
109	0xbd629da2	-0.05532611
110	0xbdc0153e	-0.093790516
111	0x3c8ee514	0.017443217
112	0x3bb06904	0.0053836126
113	0xbd3dbe51	-0.046324078
114	0xbd84a44d	-0.064766504
115	0xbc8b316c	-0.01699134
116	0xbe4aa270	-0.19788527
117	0xbe3039fd	-0.17209621
118	0xbda35bee	-0.079765186
119	0xbdd66601	-0.104686745
120	0xbdabe538	-0.083933294
121	0x3cf81dc2	0.030287627
122	0xbe0343ad	-0.12818785
123	0x3cb2ec87	0.0218413
124	0xbe2505d3	-0.16115503
125	0xbe2200c9	-0.15820612
126	0xbde2088a	-0.11036785
127	0xbdb36a13	-0.087604664
128	0x3ca2e4d0	0.019884497
129	0xbd79168e	-0.060812525
130	0xbe51a29e	-0.2047219
131	0xbdf59bdd	-0.11992619
132	0x3b7e1ee1	0.003877573
133	0xbd9a0fc6	-0.0752254
134	0xbdde5e55	-0.10857836
135	0xbdb9ea19	-0.09077854
136	0xbdee78ed	-0.116441585
137	0xbea5be12	-0.32371575
138	0xbd16c54c	-0.03680925
139	0xbcd8e6b5	-0.026477197
140	0xbd75b1bc	-0.059983954
141	0xbe0ca1e0	-0.13733625
142	0xbd272016	-0.040802084
143	0xbe032c27	-0.12809812
144	0xbd81d0a5	-0.06338624
145	0xbe8e491b	-0.2779015
146	0xbe2bce51	-0.16777922
147	0xbd6abce7	-0.057309058
148	0xbd410b3b	-0.04712985
149	0xbde9a8d1	-0.11409152
150	0xbd524e45	-0.051344175
151	0x3dd6d5ef	0.10490023
152	0xbde04d4c	-0.10952243
153	0xbe171142	-0.14752677
154	0xbd8d1dc8	-0.06890446
155	0xbd0cb61c	-0.03435336
156	0xbe0b20cb	-0.13586728
157	0xbdf2a538	-0.11847919
158	0xbe2d607a	-0.16931334
159	0xbd801a8d	-0.06255064
160	0x3cc9d99e	0.0246399
161	0x3d62379a	0.055228807
162	0xbe8334a1	-0.2562609
163	0x3d450455	0.048099834
164	0xbdd7eb18	-0.105428874
165	0xbe1bdfd2	-0.152221
166	0xbd843216	-0.06454866
167	0xbd87b9f5	-0.06627265
168	0xbe0bd730	-0.13656306
169	0xbdb4e002	-0.088317886
170	0xbccbe0f6	-0.024887543
171	0xbe5397da	-0.20663396
172	0xbe6b7dd9	-0.22997226
173	0xbcdc3810	-0.026882201
174	0x3abf7d8e	0.0014609562
175	0xbb8f6b8f	-0.0043768357
176	0xbe68d600	-0.22737885
177	0xbdb4f317	-0.08835428
178	0xbd170183	-0.036866676
179	0xbd39c2cf	-0.0453518
180	0xbe5c06d1	-0.21486975
181	0xbdb13331	-0.08652342
182	0xbe120b66	-0.1426216
183	0xbe073055	-0.13202031
184	0xbd0e2a72	-0.034708448
185	0xbbbed2f4	-0.0058234874
186	0xbdcd4a45	-0.100239314
187	0xbd50d262	-0.050981887
188	0xbdaebd54	-0.08532205
189	0xbce93b56	-0.028470676
190	0xbdb2dc10	-0.0873338
191	0xbd898956	-0.06715648
192	0xbdbacd2b	-0.09121164
193	0xbc5168a7	-0.012781299
194	0xbdf33df5	-0.11877052
195	0xbd562458	-0.052280754
196	0xbc5c5030	-0.013446853
197	0xbdab871c	-0.083753794
198	0x3c3247c8	0.010881372
199	0xbd54995f	-0.05190408
200	0xbc636065	-0.013877963
201	0xbdca2f20	-0.0987227
202	0xbde43741	-0.11143351
203	0xbe26e019	-0.16296424
204	0xbe8f6907	-0.28009817
205	0x3c825999	0.015911864
206	0xbdaaae93	-0.08334079
207	0xbdf5367c	-0.11973283
208	0xbdaaa4ea	-0.08332236
209	0x3d13c71d	0.03607856
210	0xbdbc7515	-0.09202019
211	0x3a30f49f	0.00067503186
212	0xbd87413a	-0.06604238
213	0xbdc67860	-0.096909285
214	0xbd1c0c37	-0.038097586
215	0xbceb078e	-0.028690126
216	0xbdcf9d31	-0.10137404
217	0xbe459d07	-0.19298182
218	0x3de481ed	0.11157594
219	0xbe3d58cb	-0.18490903
220	0xbd981e75	-0.07427684
221	0xbd19e820	-0.037574887
222	0xbd84c016	-0.0648195
223	0xbdf8c66e	-0.121472225
224	0xbc3f02be	-0.011658369
225	0xbc72d44f	-0.014821126
226	0xbebbe83c	-0.36700618
227	0x3d989fdb	0.07452365
228	0xbcf538bb	-0.029934278
229	0xbd65fe92	-0.05615098
230	0x3c0e8760	0.008699268
231	0x3d116741	0.03549886
232	0x3cee7b6d	0.029111588
233	0xbe21f3d3	-0.15815668
234	0x3ce71cda	0.028212
235	0xbe126754	-0.14297229
236	0xbdfd459a	-0.12366791
237	0xbc38e879	-0.011285895
238	0x3d4ecf70	0.050490797
239	0xbb6756c4	-0.003529952
240	0xbd00a819	-0.03141031
241	0x3dfec359	0.12439603
242	0xbdb84229	-0.08996994
243	0xbdb93391	-0.09043039
244	0x3d3d7447	0.04625347
245	0xbe3819c0	-0.17978573
246	0xbce2e0df	-0.027695118
247	0x3d12ebc2	0.035869367
248	0xbda0b3f6	-0.07846825
249	0xbcb6fa40	-0.022336125
250	0xbce1d9cd	-0.027569676
251	0x3c653f9f	0.013992219
252	0xbd9ae32c	-0.07562861
253	0xbe11201d	-0.14172406
254	0x3d2b5370	0.04182762
255	0xbe3f9d29	-0.18712296
