DRLND_deep_reinforcement_learning_nanodegree/p2_continuous_control/checkpoint_critic.pth (torch_old, 549453 bytes, 9 tensors)

fcs1.weight f4 [400, 33]
-0.32981387 2.6927674 -0.19320163 -1.0374423 -0.38271692 -3.1560647 3.1864953 -0.542676
0.6038045 0.6031466 -0.100507475 0.40553403 -0.26966143 0.21533607 -1.8295006 -0.748797
-0.23432827 -1.01745 -0.1486244 -1.3215766 -0.14094399 0.033755995 0.045420643 -0.30151996
-0.09733118 -0.57145983 0.8891127 0.017460497 -0.25963384 0.017553288 -0.018901255 -0.039752174
-5.4628677 -0.17150496 -1.5445001 -0.19944863 -0.13150288 1.6801789 0.2611878 -3.9596906
-0.059820864 0.8297428 1.0181136 -0.14362702 -0.63790125 0.118261576 0.119463846 -0.64918786
-0.369057 -1.6509527 1.0916334 0.42327863 -0.21195044 0.7241734 0.6451158 0.046849918
0.8661394 -0.22328281 -0.4230961 -0.25210077 0.04082625 1.901156 0.029552873 0.044997614
0.010181725 -5.818599 -1.0377302 0.28069788 1.2000518 -1.3751109 0.37773454 0.5335472
-2.3171496 -0.22032094 0.16516498 0.398398 -0.6820237 0.1706651 -0.04474987 0.06270255
0.8131507 -0.61430067 -1.4419091 2.2867985 -1.0346588 0.075342074 0.24930663 -0.34946576
0.78105587 -0.9316244 0.5729873 0.34626278 0.4460967 -0.015499848 1.3184239 -0.021480834
0.047842596 -0.03459961 6.055538 0.7516816 -0.30587757 -0.9742285 -2.302961 -3.2575784
-1.0156473 -0.0003617768 0.10850423 1.5583733 -1.6483958 0.2285504 -0.3692601 -0.24484347
-0.039948076 0.05962197 -0.2735905 -0.090475306 -1.2076708 -0.014536972 2.1455803 -0.020185757
0.5059137 0.18882532 -1.6464819 0.14693663 -0.0043749125 -0.8891353 0.037437417 2.1315823
-0.006041415 -0.03349086 0.048847165 4.012558 -1.3316491 1.9313326 -2.9018333 1.3928334
-2.1961355 0.1421539 0.15552796 -0.46841225 -1.7087303 1.9975247 -0.8930179 0.31936717
-0.32145134 0.6116523 -0.9994578 1.303704 -0.43662515 -0.07388593 1.1774782 -0.1448194
-0.18538426 0.34208226 -0.45168975 -0.30421028 -0.56168884 0.15539582 0.18762283 -0.023536861
-0.50797504 0.028630082 -0.001908071 -0.0006784424 -2.878161 0.03584405 -0.2938813 -3.0106037
-0.079010114 -0.849708 1.138541 -1.182564 -0.7814022 0.1649942 -1.2898046 0.5928929
-0.29597 -0.30212235 2.274791 -0.25909573 0.36647543 0.8636107 0.5714542 -0.055241145
0.20981091 0.30045143 0.31111923 0.23214291 1.2320324 0.1307646 0.48481244 -1.496257
-0.023039024 1.1857117 0.03983335 -0.01134798 0.030804288 -1.431344 0.53670335 4.4262137
0.05668895 -1.0453134 -1.3225703 0.05529663 -0.61482316 0.19483078 -0.08824846 1.7899324
-0.6159184 0.19091871 0.00043669852 -0.8701627 -3.093056 -0.21554057 -1.7383231 0.006046878
0.44265386 0.0536565 -0.038386606 -0.027625337 0.16381168 0.03532908 -0.5446869 0.00296239
0.023812145 0.022047248 0.19279444 -0.034947157 0.045164976 -0.047816426 0.04047643 -1.316249
0.66790116 0.41079006 5.8646746 -0.28110448 1.726442 2.0195932 -0.18718612 0.53058445
0.31272808 -0.54352486 -0.45852885 0.09803088 -0.6294257 0.7540183 -0.40515268 0.79917526
-3.9491546 -1.1302904 0.42165884 -0.13856597 0.17187794 -0.076817624 0.35654056 -0.13406269
00000000: 5ddd a8be 4d56 2c40 a6d6 45be e9ca 84bf
00000010: 79f3 c3be f7fc 49c0 8aef 4b40 d0ec 0abf
00000020: ef92 1a3f d167 1a3f ddd6 cdbd 28a2 cf3e
00000030: 1011 8abe 0f81 5c3e 132d eabf 29b1 3fbf
00000040: c0f3 6fbe cd3b 82bf ff30 18be 6c29 a9bf
00000050: 9f53 10be ba43 0a3d ff0a 3a3d d360 9abe
00000060: 9255 c7bd 314b 12bf e49c 633f 5109 8f3c
00000070: baee 84be eacb 8f3c ced6 9abc 2dd3 22bd
00000080: d0cf aec0 ff9e 2fbe 2eb2 c5bf 433c 4cbe
00000090: b1a8 06be 1a10 d73f 68ba 853e 926b 7dc0
000000a0: b906 75bd 066a 543f 8c51 823f f612 13be
000000b0: 7f4d 23bf 2033 f23d 76a9 f43d 2d31 26bf
000000c0: 0af5 bcbe 6b52 d3bf a5ba 8b3f fab7 d83e
000000d0: 8909 59be 6e63 393f 4f26 253f b3e5 3f3d
000000e0: 50bb 5d3f 40a4 64be 0da0 d8be 5a13 81be
000000f0: 6d39 273d 1459 f33f de18 f23c 6b4f 383d
00000100: 40d1 263c f731 bac0 58d4 84bf a2b7 8f3e
00000110: 4c9b 993f a203 b0bf 6c66 c13e 8d96 083f
00000120: 2e4c 14c0 d09b 61be 0221 293e d3fa cb3e
00000130: 1b99 2ebf d5c2 2e3e a44b 37bd 326a 803d
00000140: a52a 503f cf42 1dbf 7a90 b8bf e85a 1240
00000150: b36f 84bf f24c 9a3d 3d4a 7f3e 2ded b2be
00000160: 47f3 473f f07e 6ebf 4caf 123f 5b49 b13e
00000170: c966 e43e 13f3 7dbc 1dc2 a83f 93f8 afbc
00000180: 99f6 433d 52b8 0dbd f8c6 c140 356e 403f
00000190: fc9b 9cbe 0a67 79bf b763 13c0 2a7c 50c0
000001a0: bb00 82bf dcac bdb9 7737 de3d c778 c73f
000001b0: a2fe d2bf 1e09 6a3e a90f bdbe 3fb8 7abe
000001c0: 98a0 23bd 2b36 743d 0e14 8cbe 1e4b b9bd
000001d0: f594 9abf 7b2c 6ebc 3051 0940 9a5c a5bc
000001e0: 8f83 013f 6d5b 413e ebbf d2bf 8e76 163e
000001f0: 6d5b 8fbb 5f9e 63bf fa57 193d d86b 0840
00000200: 10f7 c5bb b62d 09bd f713 483d e066 8040
00000210: 7a73 aabf e835 f73f a3b7 39c0 5d48 b23f
00000220: 7c8d 0cc0 cb90 113e b942 1f3e bbd3 efbe
00000230: adb7 dabf e4ae ff3f d29c 64bf 1884 a33e
00000240: 4595 a4be 3f95 1c3f 77dc 7fbf c6df a63f
00000250: 558d dfbe 8251 97bd 9bb7 963f 894b 14be
00000260: 5fd5 3dbe 6825 af3e e143 e7be 73c1 9bbe
00000270: d7ca 0fbf 1520 1f3e 3320 403e 60d0 c0bc
00000280: a70a 02bf a289 ea3c 3d18 faba 80d9 31ba
00000290: ca33 38c0 36d1 123d 9c77 96be bbad 40c0
000002a0: 0ed0 a1bd 7786 59bf b6bb 913f 425e 97bf
000002b0: f909 48bf 3df4 283e 5118 a5bf d4c7 173f
000002c0: 6189 97be c8af 9abe 2d96 1140 32a8 84be
000002d0: aba2 bb3e 9715 5d3f d34a 123f 8a44 62bd
000002e0: acd8 563e c5d4 993e 054b 9f3e dfb6 6d3e
000002f0: 3db3 9d3f 28e7 053e 5639 f83e 5985 bfbf
00000300: 56bc bcbc 67c5 973f 4b28 233d e1ec 39bc
00000310: 4659 fc3c 4836 b7bf 6465 093f 8ba3 8d40
00000320: ac32 683d d4cc 85bf fc49 a9bf b87e 623d
00000330: 0d65 1dbf b881 473e 9cbb b4bd 811c e53f
00000340: d4ac 1dbf 3280 433e aff4 e439 fcc2 5ebf
00000350: a1f4 45c0 abb6 5cbe 5f81 debf e424 c63b
00000360: 87a3 e23e ebc6 5b3d 463b 1dbd 884e e2bc
00000370: 40be 273e 3ab5 103d 9a70 0bbf a824 423b
00000380: b011 c33c 6e9c b43c e86b 453e c024 0fbd
00000390: e9fe 383d 28db 43bd 9dca 253d d97a a8bf
000003a0: 92fb 2a3f 1353 d23e 6aab bb40 edec 8fbe
000003b0: 0dfc dc3f 0441 0140 b8ad 3fbe 62d4 073f
000003c0: e51d a03e 7224 0bbf 4bc4 eabe 6ac4 c83d
000003d0: 0b22 21bf 5807 413f 2c70 cfbe c096 4c3f
000003e0: f3be 7cc0 5bad 90bf abe3 d73e 3de4 0dbe
000003f0: c500 303e 8f52 9dbd 7c8c b63e bb47 09be

fcs1.bias f4 [400]
-0.0801696 -0.07144653 0.16925421 0.027524278 -0.1479157 -0.15443781 -0.14978375 -0.12625328
-0.10444901 -0.09268994 0.12930256 -0.07140833 0.16028681 -0.039154854 -0.14084421 -0.06349454
-0.077179305 -0.11964886 -0.16219757 0.00626427 -0.1347619 -0.050391242 -0.045522895 -0.10137863
-0.0053986493 -0.13439463 -0.056602772 0.15390314 0.16097194 0.012220512 0.04085268 0.15430932
0.16697542 -0.08206679 0.027428746 -0.034585908 -0.11974276 0.1548257 0.13800107 0.0078614
0.14358005 0.04681915 0.115043215 0.073798545 0.083005026 0.06221071 0.08736588 0.15283492
0.068046026 -0.11154304 0.064049184 0.17372778 0.14421098 0.109889746 -0.066271 0.17298217
0.032119345 -0.093497194 -0.0062684966 0.12868583 -0.16043638 -0.04003393 0.12957361 -0.047988225
-0.07027794 -0.046996847 0.05776038 -0.13457537 0.021745883 0.044888716 0.046043444 -0.0035531095
0.085846715 -0.010624146 0.13519248 0.115133755 -0.120367415 -0.035305135 0.13553575 -0.017959941
-0.05336006 -0.011072797 -0.039700426 -0.06065442 0.03862556 0.14635575 0.025007376 0.09748907
0.13447428 -0.11280768 -0.12353296 -0.025773704 0.0519461 -0.021377861 -0.08149412 -0.11999812
0.005285341 0.12925538 0.005048898 0.16563532 -0.081040956 0.16030245 -0.11133161 0.13824703
0.019650033 0.17367746 0.1656228 -0.059012964 -0.012651107 -0.047228027 0.038967792 -0.085804105
-0.04002678 -0.10536402 0.10627887 0.13735996 0.018968776 -0.0050870003 -0.13056445 -0.15861793
-0.13404171 -0.12889083 -0.14343402 0.081983544 -0.13255782 0.083281614 0.115844935 -0.0008772125
0.041752458 0.10885211 -0.15818146 0.15065894 0.17133155 0.16637504 -0.0680327 0.10673126
-0.063822754 0.027029948 0.14535297 0.03660178 0.06429773 -0.046565466 -0.0826468 0.14174536
-0.15711989 0.030578393 -0.017091926 -0.04920383 -0.16990705 -0.10350518 -0.0995291 0.026163097
0.06779621 -0.15852685 -0.06696354 -0.16607705 0.11867432 -0.15994124 -0.023369571 -0.024585932
-0.09525246 0.12501289 0.07436604 0.091583826 0.122529626 -0.086782426 0.08430837 0.14086021
-0.03954077 -0.014067122 0.016768353 -0.17098007 -0.018566899 -0.020559361 -0.12571926 0.1279931
-0.15310656 -0.0695373 0.102616414 0.026991975 0.07068857 0.0074053295 -0.16356713 -0.12474542
-0.060065385 -0.11744408 -0.10842838 -0.05620505 0.15538017 0.1349532 0.035706993 -0.1086161
-0.104901634 0.17052813 0.021723103 0.019782122 -0.098706394 -0.08901654 0.085734166 -0.01493375
-0.018010357 -0.085826226 -0.12880307 -0.112355284 -0.17271702 0.15934975 0.025462555 0.02422942
0.13060191 0.087329604 -0.025455132 0.108410224 0.0027279416 -0.16978897 0.14124097 -0.10459577
-0.13149025 -0.03994021 0.042238884 0.1369032 -0.17207108 -0.16273634 -0.115676716 -0.101156
0.17111893 -0.0026494935 0.124939375 0.04924522 0.10137219 -0.09012332 0.07531213 0.06267808
0.059851386 -0.13094123 -0.060062543 0.1478953 -0.037869148 -0.12627472 -0.14735621 -0.03544179
0.07999717 -0.05132557 0.1242398 0.07428921 -0.13926515 0.0017068249 0.15920967 0.107996136
-0.06267154 -0.12891655 0.04521898 0.083393164 -0.035612658 -0.14852066 0.16835298 0.08394637
00000000: f62f a4bd 8f52 92bd fa50 2d3e 987a e13c
00000010: 3777 17be f224 1ebe e960 19be 8a48 01be
00000020: 5de9 d5bd 39d4 bdbd e467 043e 883e 92bd
00000030: 3a22 243e d760 20bd 7739 10be 6d09 82bd
00000040: 2f10 9ebd 760a f5bd 1f17 26be 8144 cd3b
00000050: 06ff 09be 0c67 4ebd 3776 3abd 999f cfbd
00000060: 27e7 b0bb bf9e 09be 4fd8 67bd c998 1d3e
00000070: d4d5 243e 8b38 483c 2455 273d 4303 1e3e
00000080: 9bfb 2a3e a212 a8bd 40b2 e03c f4a9 0dbd
00000090: b13b f5bd a18a 1e3e 2750 0d3e 1acd 003c
000000a0: a606 133e 70c5 3f3d c79b eb3d b123 973d
000000b0: 8afe a93d a8d0 7e3d e2ec b23d c280 1c3e
000000c0: b75b 8b3d ad70 e4bd 382c 833d b2e5 313e
000000d0: 0bac 133e e00d e13d 17b9 87bd 3d22 313e
000000e0: 938f 033d 757b bfbd f667 cdbb 38c6 033e
000000f0: 6f49 24be 9efa 23bd f2ae 043e 4d8f 44bd
00000100: e1ed 8fbd c47f 40bd 2696 6c3d 20ce 09be
00000110: 6c24 b23c 3bdd 373d 0d98 3c3d 49db 68bb
00000120: 67d0 af3d e610 2ebc e66f 0a3e 3fcb eb3d
00000130: 3183 f6bd 1e9c 10bd e2c9 0a3e ba20 93bc
00000140: 1490 5abd ad6a 35bc ea9c 22bd c570 78bd
00000150: d635 1e3d 48de 153e 45dc cc3c 59a8 c73d
00000160: a0b3 093e b707 e7bd d9fe fcbd 6023 d3bc
00000170: 6fc5 543d a020 afbc 64e6 a6bd 93c1 f5bd
00000180: a730 ad3b 865b 043e 3a71 a53b 4e9c 293e
00000190: cdf8 a5bd 5326 243e d401 e4bd a190 0d3e
000001a0: 1bf9 a03c 81d8 313e 0699 293e 94b7 71bd
000001b0: 9746 4fbc 2d72 41bd b19c 1f3d 10ba afbd
000001c0: 1ff3 23bd 17c9 d7bd bca8 d93d 17a8 0c3e
000001d0: 6864 9b3c dab0 a6bb b0b2 05be bd6c 22be
000001e0: 3b42 09be f5fb 03be 5ee0 12be fde6 a73d
000001f0: 3dbd 07be 8d8f aa3d 1c40 ed3d bcf4 65ba
00000200: a004 2b3d dbed de3d 52fa 21be 5646 1a3e
00000210: 8a71 2f3e 385e 2a3e ba54 8bbd eb95 da3d
00000220: 81b5 82bd e96d dd3c 69d7 143e c0eb 153d
00000230: 87ae 833d 6ebb 3ebd ba42 a9bd b225 113e
00000240: 09e4 20be 8a7f fa3c 5e04 8cbc f589 49bd
00000250: 1dfc 2dbe 86fa d3bd ead5 cbbd fe53 d63c
00000260: bdd8 8a3d dd54 22be 2e24 89bd 1a10 2abe
00000270: 860b f33d a3c7 23be 8b71 bfbc 7068 c9bc
00000280: b913 c3bd 6103 003e 394d 983d 4d90 bb3d
00000290: d0f0 fa3d fcba b1bd dea9 ac3d a93d 103e
000002a0: 81f5 21bd c979 66bc c95d 893c 6615 2fbe
000002b0: 9c19 98bc 1b6c a8bc 8dbc 00be a010 033e
000002c0: f7c7 1cbe 9269 8ebd 8e28 d23d 461e dd3c
000002d0: 2bc5 903d 68a8 f23b 247e 27be 877a ffbd
000002e0: 1f07 76bd 8686 f0bd b30f debd 4437 66bd
000002f0: fb1b 1f3e 2c31 0a3e 7f41 123d 1e72 debd
00000300: abd6 d6bd ed9e 2e3e a6f4 b13c 1e0e a23c
00000310: 9426 cabd 4e4e b6bd 6595 af3d b0ac 74bc
00000320: 758a 93bc a9c5 afbd f4e4 03be 871a e6bd
00000330: bbdc 30be 952c 233e d996 d03c c77c c63c
00000340: 82bc 053e ddd9 b23d 4887 d0bc 2e06 de3d
00000350: 44c7 323b 29dd 2dbe 79a1 103e 4f36 d6bd
00000360: 61a5 06be 5898 23bd ae02 2d3d 5a30 0c3e
00000370: 6733 30be 5ba4 26be eae7 ecbd e02a cfbd
00000380: cd39 2f3e 20a3 2dbb 37e0 ff3d 5bb5 493d
00000390: 399c cf3d 9392 b8bd 3f3d 9a3d 5d5d 803d
000003a0: ba26 753d 7515 06be 2404 76bd de71 173e
000003b0: ae1c 1bbd 294e 01be 8ce4 16be 692b 11bd
000003c0: 8ed5 a33d c33a 52bd 7071 fe3d f124 983d
000003d0: 869b 0ebe 8ab7 df3a dc07 233e 142d dd3d
000003e0: f059 80bd b302 04be 8a37 393d 09ca aa3d
000003f0: 94de 11bd cd15 18be b964 2c3e 13ec ab3d

bn1.weight f4 [400]
0.65445614 0.50762737 0.513579 0.46251616 0.39800283 0.43837944 0.21770671 0.38542035
0.9592845 0.31406707 0.17792988 0.32883784 0.27009064 0.21208712 0.36563203 0.3064149
0.1363167 0.17785375 0.6444488 0.594867 0.49589518 0.29564136 0.3245101 0.5334039
0.5622591 0.22327268 0.35974497 0.31929302 0.4241375 0.4658942 0.4716776 0.33436757
0.6159076 0.0071197078 0.39443734 0.39934012 0.54068685 0.609807 0.2694909 0.5170072
0.28582266 0.37917104 0.5454143 0.21400546 0.22834565 0.6805314 0.51999056 0.16571307
0.23373838 0.45639095 -0.0024147267 0.45826262 0.6343028 0.6337021 0.3161227 0.15022041
0.35052568 0.52776504 0.6091339 0.635275 0.47830188 0.33805156 0.29193473 0.28748095
0.4321027 0.45520985 0.60606164 0.54472774 0.23087946 0.5855302 0.6926167 0.3054171
0.6534957 0.7705161 0.42725253 0.3617318 0.4326729 1.2335857 0.42959195 0.4171071
0.2089348 0.27115825 0.33661526 0.35057533 0.67962563 0.19141674 0.45327124 0.42349488
0.44298166 0.7673679 0.31713843 0.65351206 0.5790506 0.20260526 0.41942328 0.7137858
0.2353121 0.3682394 0.62383413 0.5747655 1.5637562 0.17604879 0.35861087 0.53435546
0.6384891 0.5825024 0.2647961 0.43066946 0.38431033 0.3927795 0.18433331 0.0011530536
0.5131281 0.512115 0.30327243 0.5783954 0.49474958 0.53966 0.008907298 0.54238147
0.6184311 0.0037453503 0.22842643 0.40296713 0.2640444 0.22696371 0.24992199 0.27290767
0.26068565 0.59355783 0.22279961 0.23610406 0.29903045 0.14629291 0.5202981 0.6551138
0.34312436 0.5200857 0.57423484 0.4917997 0.44796553 0.2627965 0.36228877 0.2906279
0.35597605 0.5138606 0.52538687 0.48044348 0.16510494 0.15392086 0.13620502 0.2318143
0.4640496 0.49087298 0.5476391 0.2669904 0.44110638 0.49650955 0.19325453 0.451157
0.45570728 0.19429944 0.33125582 0.7499673 0.5457789 0.23200275 0.15227154 0.38241023
0.17326313 0.4854423 0.26230624 0.18662855 0.65205044 0.184372 0.62615097 0.46879885
0.36917922 0.6405217 0.48497546 0.7398023 0.55955523 0.63841945 0.26373112 0.34609517
0.50212544 0.20109667 0.34718615 0.6395893 0.27879274 0.3797998 0.55300695 0.72561294
0.44829774 0.32123172 0.19797984 0.26990327 0.31516582 0.23827566 0.12505308 -0.0016833128
0.4685281 0.2697035 0.2337932 0.2720616 0.5774623 0.27382854 0.39321917 0.22635596
0.39939067 0.5942572 0.33821133 0.45916113 0.2577921 0.24569039 0.31433716 0.27547923
0.36725992 0.24630447 0.5442943 0.4669289 0.25370294 0.35302615 0.552394 0.31347108
0.27495793 0.6386611 0.39726296 0.5236169 0.26542005 0.3090943 0.55778736 0.5906272
0.5904624 0.30050835 0.3856717 0.12985247 0.22504155 0.27359787 0.39285338 0.6355448
0.18102972 0.3538512 0.5998569 0.39460662 0.0002570383 0.50806254 0.12700416 0.49213892
0.31519273 0.48786303 0.31991717 0.19553448 0.475832 0.19008426 0.19191258 0.38076565
00000000: 708a 273f def3 013f ea79 033f ebce ec3e
00000010: 07c7 cb3e 4573 e03e 82ee 5e3e d155 c53e
00000020: ab93 753f 66cd a03e 4033 363e 6f5d a83e
00000030: 5249 8a3e 5e2d 593e 1f34 bb3e 6ae2 9c3e
00000040: 9b96 0b3e 4b1f 363e 99fa 243f 3449 183f
00000050: f9e5 fd3e 4e5e 973e 3026 a63e 288d 083f
00000060: 36f0 0f3f 98a1 643e 7e30 b83e 607a a33e
00000070: 8d28 d93e af89 ee3e ba7f f13e 3a32 ab3e
00000080: 1fac 1d3f 704c e93b b1f3 c93e 4f76 cc3e
00000090: 746a 0a3f 501c 1c3f b6fa 893e 955a 043f
000000a0: 5957 923e b522 c23e 46a0 0b3f 3f24 5b3e
000000b0: 71d3 693e 4e37 2e3f 1a1e 053f b0b0 293e
000000c0: 1d59 6f3e 13ac e93e 6440 1ebb 66a1 ea3e
000000d0: ab61 223f 4d3a 223f d6da a13e 61d3 193e
000000e0: 1a78 b33e 9c1b 073f 33f0 1b3f 62a1 223f
000000f0: fce3 f43e 1815 ad3e 7878 953e b430 933e
00000100: 913c dd3e 4411 e93e db26 1b3f 4773 0b3f
00000110: aa6b 6c3e 4fe5 153f 544f 313f a15f 9c3e
00000120: 7f4b 273f 8b40 453f d8c0 da3e e934 b93e
00000130: 4d87 dd3e 23e6 9d3f 7af3 db3e 108f d53e
00000140: 01f3 553e 41d5 8a3e d658 ac3e 9c7e b33e
00000150: f2fb 2d3f c002 443e 2b13 e83e 52d4 d83e
00000160: 7ece e23e 3972 443f f85f a23e 914c 273f
00000170: a93c 143f c177 4f3e a6be d63e abba 363f
00000180: a8f5 703e e089 bc3e 98b3 1f3f d523 133f
00000190: 2a29 c83f 2246 343e d89b b73e 85cb 083f
000001a0: 0674 233f e11e 153f 5b93 873e b580 dc3e
000001b0: 53c4 c43e 651a c93e dfc1 3c3e 0f22 973a
000001c0: 5d5c 033f f819 033f 8646 9b3e b911 143f
000001d0: d14f fd3e 2827 0a3f eaef 113c 83d9 0a3f
000001e0: 8051 1e3f 8d74 753b 9ee8 693e b551 ce3e
000001f0: d430 873e 2d69 683e 8deb 7f3e 8eba 8b3e
00000200: 9778 853e 68f3 173f 9525 643e 43c5 713e
00000210: 851a 993e cfcd 153e 4232 053f 8ab5 273f
00000220: ffad af3e 5624 053f 0e01 133f 2ccd fb3e
00000230: bd5b e53e 438d 863e ea7d b93e 2ecd 943e
00000240: 7e42 b63e 5e8c 033f c17f 063f b0fc f53e
00000250: 4511 293e 6e9d 1d3e 5479 0b3e ba60 6d3e
00000260: e997 ed3e b453 fb3e 1332 0c3f f7b2 883e
00000270: b2d8 e13e 8036 fe3e 84e4 453e 0dfe e63e
00000280: 7752 e93e 6ff6 463e 5d9a a93e dbfd 3f3f
00000290: 2ab8 0b3f 2192 6d3e 12ed 1b3e 46cb c33e
000002a0: e46b 313e e58b f83e 014d 863e 8e1b 3f3e
000002b0: c7ec 263f 03cc 3c3e 6e4b 203f 6706 f03e
000002c0: 0f05 bd3e 3bf9 233f b44e f83e af63 3d3f
000002d0: 033f 0f3f 756f 233f c407 873e 6333 b13e
000002e0: 4b8b 003f 49ec 4d3e 62c2 b13e 20bc 233f
000002f0: ecbd 8e3e 1f75 c23e dd91 0d3f c5c1 393f
00000300: 4887 e53e 7c78 a43e 3abb 4a3e c330 8a3e
00000310: 6a5d a13e 89fe 733e ea0d 003e 9ba2 dcba
00000320: eae2 ef3e 9416 8a3e 7c67 6f3e a84b 8b3e
00000330: 92d4 133f 4133 8c3e 0654 c93e dbc9 673e
00000340: ef7c cc3e 3d21 183f 092a ad3e 2b17 eb3e
00000350: 53fd 833e 4396 7b3e cdf0 a03e 9d0b 8d3e
00000360: 7e09 bc3e 3d37 7c3e df56 0b3f 4e11 ef3e
00000370: 5ae5 813e d8bf b43e b169 0d3f 487f a03e
00000380: 49c7 8c3e 4b7f 233f 0d66 cb3e c20b 063f
00000390: 23e5 873e 9c41 9e3e 27cb 0e3f 5833 173f
000003a0: 8b28 173f 3bdc 993e c376 c53e 0cf8 043e
000003b0: 4b71 663e 0515 8c3e 1424 c93e 10b3 223f
000003c0: db5f 393e fc2b b53e 3990 193f e109 ca3e
000003d0: 19c3 8639 6310 023f 610d 023e a2f9 fb3e
000003e0: f160 a13e 2fc9 f93e 2fcc a33e 313a 483e
000003f0: 40a0 f33e 73a5 423e bb84 443e b7f3 c23e

bn1.bias f4 [400]
-0.99613917 -0.6562589 -0.9710877 -0.44167525 -0.5297311 -1.0321039 -0.2959296 -0.40141597
-0.46166658 -0.74671876 -0.8949801 0.010944383 -1.0310823 -0.16658776 -0.63393766 -0.5794002
-0.05176576 -0.8016009 -1.1528872 -0.5432119 -0.56589454 -1.4268225 -0.94860995 -0.4062632
0.13476816 -0.096105486 -0.401257 -0.46760023 -0.70741135 0.12429043 -0.22945225 -1.1623894
-1.0706336 -0.11166356 -0.50825614 -0.8270735 -0.6973449 -0.8888132 -0.81768954 -0.9963345
-0.40024263 -0.85874504 -0.8061676 -0.22181167 0.03208035 -1.0163633 -0.83563036 0.46454337
-0.91741353 -0.6965097 -0.03014757 -0.6534713 -0.9342934 -1.1596498 -1.3723378 -0.917509
-0.18024403 -0.96399426 -0.96990156 -0.4330978 -0.62953424 -1.3773673 -0.60208803 -0.46137515
-0.8863781 -1.0235323 -0.954794 -0.35956958 -1.2765163 -0.76727784 -1.1727538 -0.30703697
-1.4267924 -0.21601498 -1.0385597 -0.58727103 -0.6976485 -1.0505592 -0.61762035 -0.38191962
-0.9336855 0.08545675 0.0027437736 -0.7548117 -0.99116516 -0.89737046 -0.5216908 -0.6453291
-0.8066786 -0.45095834 -0.47430465 -0.78427047 -0.5893752 -0.7544416 -0.31268775 -0.8248392
-0.095890045 -0.5592415 -0.30001092 -1.167784 0.018494066 -0.14626028 0.011010327 -0.98751485
-1.1346956 -0.5805378 -0.35338527 -0.35092703 -0.8626516 -0.8311031 -0.89568317 -0.027901422
-0.9213134 -0.75290394 -0.11454904 -0.6688617 -0.99747455 -1.011043 -0.07170479 -0.6574234
-0.9731259 -0.12814534 -0.17394085 -0.7578179 -0.049182843 -1.1295142 -1.1359415 -0.56843597
0.017293328 -1.1874534 -0.87015826 -0.8264339 -0.43200156 -0.09857519 -0.7591505 -1.1152642
-0.7493232 -0.9530412 -1.0318446 -0.83947384 -0.8155878 -0.3209552 -1.4552032 -0.41876122
-0.66129124 -1.2296426 -0.80233824 -0.7239715 -0.279104 -0.8131576 -0.9206938 -0.29958642
-1.1205474 -0.7997416 -0.9326255 -1.1920426 -1.1108642 -1.1302481 0.24875586 -0.6355436
-0.46549246 -0.2080683 -0.6338495 -0.6489803 -1.1000161 -0.6494113 -0.79995537 -0.72567546
-1.0675828 -0.9799982 -0.24991404 0.0026868652 -0.5763757 -0.013723367 -1.3708532 -0.71485764
-0.98620635 -0.9059363 -1.2355574 -1.0840687 -1.016198 -1.097174 -0.33682817 -1.7148249
-1.0717946 -0.13822027 -0.4123205 -0.92557526 0.022186413 -0.6055894 -0.870815 -0.32502767
-0.79237455 -1.0995746 -0.19797774 -0.96937436 -1.3260359 -1.0928018 -0.6167229 -0.036061756
-1.10438 -0.4928589 0.014852807 -0.9832108 -0.706598 -0.36465916 -0.09362174 -0.12378869
-0.5014268 -1.0053848 -0.5664914 -0.48631492 -1.2790774 -1.003083 -0.5785296 0.23020366
-0.44009423 -1.2585354 -0.4402458 -0.89525443 -0.11780975 -1.1640865 -1.1610364 -0.17781928
-0.13443238 -1.3118823 -0.5069835 -1.3168355 -1.1049786 -0.429853 -0.9792318 -0.849625
-1.1043102 -0.74127084 -0.9555226 -0.68408746 -0.19646154 -1.4404683 -0.49533722 -0.9043361
-0.8225241 -0.7334648 -0.90577555 -0.50460696 -0.046635017 -0.9368485 -0.9762564 -0.75651455
-0.21576053 -0.4238539 -0.29299855 -1.0436506 -0.7209917 0.20304139 -0.9189701 -0.7319828
00000000: fa02 7fbf 9500 28bf 3499 78bf 4223 e2be
00000010: 759c 07bf fb1b 84bf 1684 97be 6586 cdbe
00000020: 905f ecbe f628 3fbf 6a1d 65bf 1250 333c
00000030: 81fa 83bf fb95 2abe bd49 22bf 9253 14bf
00000040: 5508 54bd b735 4dbf cf91 93bf ef0f 0bbf
00000050: 77de 10bf 1fa2 b6bf 1ad8 72bf bb01 d0be
00000060: aa00 0a3e f4d2 c4bd 8f71 cdbe 4c69 efbe
00000070: e918 35bf fb8b fe3d 88f5 6abe 2dc9 94bf
00000080: 860a 89bf ddaf e4bd 131d 02bf 17bb 53bf
00000090: 3285 32bf 4389 63bf 1a54 51bf c70f 7fbf
000000a0: 9aec ccbe b7d6 5bbf 0061 4ebf 9922 63be
000000b0: af66 033d 3118 82bf dfeb 55bf a1d8 ed3e
000000c0: 9ddb 6abf 764e 32bf 09f8 f6bc e549 27bf
000000d0: da2d 6fbf 686f 94bf c4a8 afbf dfe1 6abf
000000e0: e491 38be 54c8 76bf 784b 78bf ffbe ddbe
000000f0: 2829 21bf 924d b0bf 7122 1abf 5d39 ecbe
00000100: ade9 62bf 1b03 83bf 616d 74bf 8119 b8be
00000110: e364 a3bf 526c 44bf cc1c 96bf f333 9dbe
00000120: 22a1 b6bf 0833 5dbe 86ef 84bf 6557 16bf
00000130: 1899 32bf b978 86bf 5e1c 1ebf f88a c3be
00000140: 0306 6fbf f303 af3d e2d0 333b 573b 41bf
00000150: 00bd 7dbf 12ba 65bf 878d 05bf 4a34 25bf
00000160: 7d82 4ebf 03e4 e6be 0fd8 f2be f3c5 48bf
00000170: 4be1 16bf 1623 41bf 9c18 a0be a928 53bf
00000180: 0062 c4bd 732a 0fbf 089b 99be f279 95bf
00000190: de80 973c 41c5 15be a964 343c c6cd 7cbf
000001a0: b53d 91bf 209e 14bf eaee b4be b5ac b3be
000001b0: bcd6 5cbf 2cc3 54bf 7e4b 65bf 8691 e4bc
000001c0: 32db 6bbf 50be 40bf b098 eabd 853a 2bbf
000001d0: 7e5a 7fbf db69 81bf f6d9 92bd e64c 28bf
000001e0: c71e 79bf 8838 03be 8d1d 32be 5b00 42bf
000001f0: f373 49bd ec93 90bf 8866 91bf 0585 11bf
00000200: bdaa 8d3c 79fe 97bf b1c2 5ebf 2c91 53bf
00000210: 4f2f ddbe cae1 c9bd b057 42bf fac0 8ebf
00000220: a5d3 3fbf 82fa 73bf 7c13 84bf c2e7 56bf
00000230: 5dca 50bf 3d54 a4be 1944 babf df67 d6be
00000240: 624a 29bf ee64 9dbf 0a66 4dbf 3256 39bf
00000250: b8e6 8ebe 192b 50bf 97b2 6bbf 6463 99be
00000260: 196e 8fbf debb 4cbf 8bc0 6ebf da94 98bf
00000270: cc30 8ebf f8ab 90bf dbb9 7e3e fcb2 22bf
00000280: 0755 eebe db0f 55be f643 22bf 9323 26bf
00000290: 54cd 8cbf d23f 26bf e0c9 4cbf dec5 39bf
000002a0: 8ea6 88bf 29e1 7abf 77e9 7fbe 1e16 303b
000002b0: 5c8d 13bf f9d7 60bc 1e78 afbf e900 37bf
000002c0: 0578 7cbf 71eb 67bf bf26 9ebf c3c2 8abf
000002d0: c712 82bf 3370 8cbf be74 acbe 627f dbbf
000002e0: 9130 89bf 9d89 0dbe ac1b d3be 80f2 6cbf
000002f0: 48c0 b53c e807 1bbf bbed 5ebf 076a a6be
00000300: 0fd9 4abf dcbe 8cbf adba 4abe eb28 78bf
00000310: 8bbb a9bf eee0 8bbf 8de1 1dbf 7eb5 13bd
00000320: 535c 8dbf 0058 fcbe 3059 733c b4b3 7bbf
00000330: 9be3 34bf 9bb4 babe c1bc bfbd ed84 fdbd
00000340: 825d 00bf 73b0 80bf 9505 11bf 45fe f8be
00000350: cfb8 a3bf 0665 80bf 841a 14bf 82ba 6b3e
00000360: 0854 e1be b017 a1bf e667 e1be 652f 65bf
00000370: 3d46 f1bd c900 95bf d79c 94bf 4216 36be
00000380: a4a8 09be c2eb a7bf acc9 01bf 118e a8bf
00000390: f06f 8dbf b115 dcbe efae 7abf 0681 59bf
000003a0: 095a 8dbf edc3 3dbf 219d 74bf 5b20 2fbf
000003b0: 372d 49be 4461 b8bf d79c fdbe 9282 67bf
000003c0: f090 52bf 59c4 3bbf e8e0 67bf ec2d 01bf
000003d0: 5c04 3fbd 4ed5 6fbf f0eb 79bf f0aa 41bf
000003e0: 54f0 5cbe 6103 d9be e803 96be 5896 85bf
000003f0: e992 38bf 15ea 4f3e a041 6bbf 3a63 3bbf

bn1.running_mean f4 [400]
-3.521354 6.265517 -4.5778913 -0.9587435 -1.4897965 3.1178803 -4.11231 -0.5750776
-0.117523536 -1.6746671 -1.1761454 2.2784166 -0.77310044 -1.2572587 4.9825773 3.1576693
1.263493 -0.7135929 -2.8990395 0.4347574 -0.06777901 -10.523486 -3.601296 1.4798785
3.3643582 10.606807 3.6914706 1.1592892 0.64675283 0.09625326 2.232727 -2.1405542
-2.68666 0.4961044 -4.138483 -1.5221568 -5.81711 -2.0769188 3.8497214 -1.7205956
1.0358324 -0.93187004 -5.4190373 -1.6502317 0.20489475 -3.1857548 -0.10783104 3.1136203
-1.2412423 4.9857764 -0.3215939 1.1009437 3.4938455 -3.1996274 -6.3607216 -1.1903083
0.96679604 -3.1030512 0.0767084 -1.612181 -5.981889 -1.4792072 -2.9259071 4.0731893
5.96244 -5.3623304 -7.217377 4.4630313 -8.052155 1.0173742 -1.2573721 -3.1609871
6.587013 1.6064918 -5.392685 2.854145 -0.9216348 0.030646706 0.37625372 1.7324549
-2.809922 6.1115108 0.6733524 -1.855577 4.006265 -8.730055 -1.7358829 1.9754337
0.53728765 -0.48511466 -3.8404276 0.8464195 -0.68188035 2.7870429 2.1331198 7.1391883
0.9644229 3.4015305 0.76711327 1.5843687 -0.07233263 7.5563693 4.4035697 0.17604175
-0.93027174 0.41223383 10.368479 -1.9163935 1.2141565 11.6080065 -0.47465095 -0.18184596
-1.3430328 0.94768023 1.7822375 0.19582283 2.0166864 1.2874616 0.091064185 -3.7273657
3.0768857 0.37043342 2.9400973 1.6861554 1.289279 7.4440885 -0.589748 -3.6737776
6.7386394 -4.440964 -1.2977808 2.6380239 0.011622422 -1.6764319 -0.9520823 -4.6774235
-1.7575265 -6.027891 -1.0124146 -5.099182 -3.5729516 5.0719433 -0.4544002 3.7518907
-5.7323093 9.790354 4.624577 -11.115128 -1.7174916 -5.740068 0.82023704 -5.944624
-4.2355666 -1.8910323 -5.0887346 -2.7992978 -3.1979964 1.2076169 2.6440468 -2.9820936
-0.44655484 3.2453773 -2.4244213 -1.053081 6.7907815 -10.283963 -2.7150428 -9.73278
-4.624583 -0.7390791 -1.1999707 2.229166 -3.0585608 -4.199679 -9.836819 -1.7393693
-7.935771 -4.2517953 -4.2553215 -2.4889407 -2.6806693 -1.8912504 -9.450603 9.143834
-4.01059 -1.9677027 -5.629476 -3.0724068 0.8126769 -6.301746 -2.3416164 0.92694145
-7.348409 2.5132911 2.978568 0.8600726 0.54234743 -2.7838347 6.089005 -0.094001986
-10.712991 -4.4750304 0.20871256 4.903631 -6.223301 0.31669602 1.285033 6.9665895
0.9206113 -5.656842 -1.1493075 -0.95284766 -2.7008045 6.714838 0.011611338 7.1923127
-2.169168 5.2693243 -2.2747543 -0.99283004 0.9958629 0.10821186 6.8672504 -3.5000787
-0.40201923 1.9231759 1.5166564 7.850216 -5.790722 1.1728562 -7.582469 -5.597374
-0.68151367 -9.415667 0.62495315 -0.34578267 -2.4688213 -1.5675901 8.490192 -2.5868454
-0.8498604 -2.7553952 3.248556 6.8598943 -0.13827914 -2.9233136 -4.779582 -4.6974196
2.8723903 -0.82402146 -2.0582232 6.405248 8.8616 -0.69030595 3.291413 -5.861858
00000000: dd5d 61c0 1e7f c840 167e 92c0 3770 75bf
00000010: a7b1 bebf 5a8b 4740 0b98 83c0 4938 13bf
00000020: 2eb0 f0bd 7e5b d6bf ef8b 96bf 94d1 1140
00000030: e9e9 45bf daed a0bf 4671 9f40 4117 4a40
00000040: 23ba a13f 06ae 36bf dd89 39c0 8698 de3e
00000050: b9cf 8abd 3360 28c1 a27b 66c0 a96c bd3f
00000060: a551 5740 7bb5 2941 0e41 6c40 9763 943f
00000070: 9891 253f 6e20 c53d 00e5 0e40 d7fe 08c0
00000080: 3df2 2bc0 6501 fe3e 746e 84c0 09d6 c2bf
00000090: c425 bac0 3dec 04c0 d661 7640 7a3c dcbf
000000a0: 2896 843f 098f 6ebf c168 adc0 cb3a d3bf
000000b0: eecf 513e 68e3 4bc0 85d6 dcbd 8e45 4740
000000c0: 07e1 9ebf 7b8b 9f40 f5a7 a4be b9eb 8c3f
000000d0: 2a9b 5f40 b2c6 4cc0 088b cbc0 065c 98bf
000000e0: f27f 773f 6498 46c0 4b19 9d3d f25b cebf
000000f0: a26b bfc0 a956 bdbf 1042 3bc0 9157 8240
00000100: 4fcc be40 3698 abc0 c1f4 e6c0 27d1 8e40
00000110: a0d5 00c1 5139 823f 92f1 a0bf 9d4d 4ac0
00000120: cfc8 d240 86a1 cd3f e090 acc0 50aa 3640
00000130: 42f0 6bbf cd0e fb3c 54a4 c03e 15c1 dd3f
00000140: c3d5 33c0 7f91 c340 d360 2c3f 8c83 edbf
00000150: 5333 8040 4eae 0bc1 6931 debf 03db fc3f
00000160: af8b 093f f360 f8be 91c9 75c0 f3ae 583f
00000170: b68f 2ebf e95e 3240 0985 0840 3b74 e440
00000180: 6be4 763f adb2 5940 8961 443f 98cc ca3f
00000190: 2123 94bd c7cd f140 0bea 8c40 4a44 343e
000001a0: 4a26 6ebf 5010 d33e 4ae5 2541 624c f5bf
000001b0: 7b69 9b3f 65ba 3941 7305 f3be d435 3abe
000001c0: 80e8 abbf 2c9b 723f 5c20 e43f c885 483e
000001d0: 6411 0140 8bcb a43f dc7f ba3d 298d 6ec0
000001e0: b2eb 4440 73a9 bd3e 8e2a 3c40 f1d3 d73f
000001f0: 1807 a53f f935 ee40 baf9 16bf 2c1f 6bc0
00000200: efa2 d740 611c 8ec0 ae1d a6bf 62d5 2840
00000210: f96b 3e3c 5295 d6bf aabb 73bf 74ad 95c0
00000220: a1f6 e0bf 7ce4 c0c0 cd96 81bf 802c a3c0
00000230: 3dab 64c0 5c4d a240 25a7 e8be fa1e 7040
00000240: 146f b7c0 4aa5 1c41 89fc 9340 90d7 31c1
00000250: c4d6 dbbf a3ae b7c0 0efb 513f 5c3a bec0
00000260: c389 87c0 590d f2bf ead6 a2c0 b227 33c0
00000270: f9ab 4cc0 3193 9a3f 1038 2940 9fda 3ec0
00000280: d6a2 e4be 43b4 4f40 b829 1bc0 5ccb 86bf
00000290: 154e d940 1d8b 24c1 43c3 2dc0 78b9 1bc1
000002a0: 95fc 93c0 4a34 3dbf a498 99bf a8aa 0e40
000002b0: 76bf 43c0 c563 86c0 9c63 1dc1 a7a3 debf
000002c0: d6f1 fdc0 b50e 88c0 982b 88c0 ce4a 1fc0
000002d0: 1690 2bc0 7e14 f2bf ab35 17c1 254d 1241
000002e0: c156 80c0 afdd fbbf ab24 b4c0 50a2 44c0
000002f0: 980b 503f e7a7 c9c0 0bdd 15c0 094c 6d3f
00000300: 2b26 ebc0 c3d9 2040 dca0 3e40 b82d 5c3f
00000310: 48d7 0a3f 592a 32c0 21d9 c240 1d84 c0bd
00000320: 6968 2bc1 7333 8fc0 bfb8 553e 8cea 9c40
00000330: 4825 c7c0 fb25 a23e f67b a43f 4dee de40
00000340: 2fad 6b3f da04 b5c0 821c 93bf d3ed 73bf
00000350: fbd9 2cc0 f4df d640 7b3d 3e3c 6d27 e640
00000360: a6d3 0ac0 4e9e a840 9395 11c0 1c2a 7ebf
00000370: dff0 7e3f 2e9e dd3d 84c0 db40 4a01 60c0
00000380: 77d5 cdbe a12a f63f cc21 c23f f834 fb40
00000390: 984d b9c0 2720 963f 96a3 f2c0 b01d b3c0
000003a0: ae77 2ebf 92a6 16c1 eefc 1f3f 6d0a b1be
000003b0: 2b01 1ec0 cba6 c8bf d4d7 0741 e08e 25c0
000003c0: 7490 59bf 6558 30c0 57e8 4f40 4184 db40
000003d0: 0c99 0dbe 9217 3bc0 56f2 98c0 4351 96c0
000003e0: 3ed5 3740 12f3 52bf eeb9 03c0 cbf7 cc40
000003f0: 1dc9 0d41 e4b7 30bf 83a6 5240 5794 bbc0

bn1.running_var f4 [400]
58.895855 80.06001 68.27589 135.75058 15.381688 30.814306 16.172281 53.339413
52.03291 61.58517 138.84096 35.458755 76.06344 2.7060986 99.08524 53.602837
12.664111 107.37391 70.3587 48.838005 69.33812 160.00415 117.83707 27.577457
50.30144 54.275337 245.08282 24.37767 199.5584 67.505615 80.3968 85.69261
67.4622 5.7666397 29.949337 22.921679 32.238583 90.10783 147.58151 37.895943
77.67656 43.57296 141.09187 32.71062 9.926194 58.90341 18.78892 175.559
121.60383 66.82011 1.1597041 85.84108 110.39466 61.03715 175.57033 45.75291
19.990763 31.923862 55.10654 103.76434 26.726543 110.8888 119.59445 6.373649
37.540855 36.24226 46.1798 31.024168 71.40009 61.47923 61.01219 19.70446
28.954351 61.754936 30.602118 22.300678 22.64124 83.9053 28.110369 18.554903
55.716007 30.620552 36.320446 3.8116412 101.01236 105.276245 66.59315 62.336185
71.50667 126.30726 29.140465 42.2268 82.26456 178.73471 57.51508 111.11329
35.975193 158.61488 86.572685 34.079395 160.43665 65.83889 49.689426 177.4754
109.49518 57.5696 149.03354 8.6456995 88.55286 70.10534 62.814438 0.07260209
45.996326 38.78974 26.288424 56.93255 61.14644 31.226843 0.44853184 66.77704
43.05986 1.0708128 61.924175 53.478695 25.738209 125.39864 44.56731 47.83486
11.130719 64.76158 63.097088 67.49843 97.99084 52.367596 65.308586 115.93281
46.037663 58.735817 48.446335 88.02311 40.263767 61.08638 106.02512 67.696724
189.877 127.46562 32.826725 194.16383 34.836376 70.233284 42.599743 86.83666
23.833057 74.337746 91.09241 54.71452 56.34771 60.32361 26.214886 49.42652
86.355896 117.15811 39.926937 47.918926 101.5995 47.255272 80.737656 49.89215
144.83937 170.1895 38.5852 12.979337 63.42496 44.2116 76.26415 5.4762044
37.316647 45.77527 25.216318 44.514812 98.80882 31.075346 17.05984 104.84129
63.624603 170.33649 32.380535 52.90224 5.6678166 60.956028 83.1327 61.803085
26.89119 262.0636 53.93 63.14549 176.51347 83.199486 152.80498 0.0833869
67.790985 120.87404 31.670366 123.952774 61.779594 34.11885 34.971386 56.76895
34.401577 98.145515 143.36302 53.345867 48.10624 57.763134 38.185272 24.689253
85.10699 77.07978 31.562962 45.360012 77.73242 93.55333 57.177776 58.709766
25.061796 82.57476 5.1372538 70.880585 66.41076 35.238945 44.634216 84.34065
114.5616 47.07957 11.988159 58.145184 29.324215 56.756886 118.78144 43.785866
55.442856 47.58266 47.616722 119.50718 0.23501985 40.105816 29.060192 27.334589
33.0734 15.677762 95.48503 86.20341 23.662388 25.274103 168.12321 28.637024
00000000: 5b95 6b42 ba1e a042 418d 8842 26c0 0743
00000010: 651b 7641 b383 f641 d560 8141 8f5b 5542
00000020: b321 5042 3757 7642 49d7 0a43 c4d5 0d42
00000030: 7b20 9842 b830 2d40 a52b c642 4e69 5642
00000040: 33a0 4a41 71bf d642 a8b7 8c42 1e5a 4342
00000050: 1ead 8a42 1001 2043 94ac eb42 a29e dc41
00000060: ad34 4942 f219 5942 3415 7543 7805 c341
00000070: f38e 4743 e002 8742 29cb a042 9e62 ab42
00000080: a5ec 8642 5088 b840 3e98 ef41 995f b741
00000090: 4ff4 0042 3537 b442 de94 1343 7295 1742
000000a0: 665a 9b42 b64a 2e42 8517 0d43 add7 0242
000000b0: b1d1 1e41 189d 6b42 b54f 9641 1b8f 2f43
000000c0: 2935 f342 e5a3 8542 2f71 943f a2ae ab42
000000d0: 11ca dc42 0b26 7442 0192 2f43 fb02 3742
000000e0: 15ed 9f41 1264 ff41 196d 5c42 5887 cf42
000000f0: f6cf d541 11c7 dd42 5c30 ef42 eff4 cb40
00000100: d629 1642 13f8 1042 1db8 3842 7f31 f841
00000110: d9cc 8e42 bbea 7542 7c0c 7442 bca2 9d41
00000120: 83a2 e741 0e05 7742 23d1 f441 ca67 b241
00000130: 4221 b541 83cf a742 09e2 e041 7170 9441
00000140: 31dd 5e42 e4f6 f441 2348 1142 eef1 7340
00000150: 5406 ca42 708d d242 b12f 8542 4158 7942
00000160: 6a03 8f42 519d fc42 ac1f e941 3ee8 2842
00000170: 7487 a442 16bc 3243 710f 6642 013a de42
00000180: 99e6 0f42 699d 1e43 3725 ad42 4d51 0842
00000190: c86f 2043 83ad 8342 f9c1 4642 b479 3143
000001a0: 88fd da42 4547 6642 9608 1543 c954 0a41
000001b0: 101b b142 ef35 8c42 fc41 7b42 68b0 943d
000001c0: 3dfc 3742 b228 1b42 b14e d241 eeba 6342
000001d0: f495 7442 93d0 f941 f7a5 e53e d88d 8542
000001e0: 4c3d 2c42 6510 893f 5bb2 7742 2fea 5542
000001f0: dae7 cd41 1bcc fa42 ed44 3242 e656 3f42
00000200: 6d17 3241 ee85 8142 6b63 7c42 32ff 8642
00000210: 4ffb c342 6b78 5142 ff9d 8242 99dd e742
00000220: 9126 3842 7af1 6a42 0cc9 4142 d50b b042
00000230: 190e 2142 7458 7442 dd0c d442 b964 8742
00000240: 83e0 3d43 66ee fe42 914e 0342 f129 4243
00000250: 7358 0b42 7177 8c42 2366 2a42 5fac ad42
00000260: 1aaa be41 edac 9442 502f b642 abdb 5a42
00000270: 0e64 6142 604b 7142 16b8 d141 c2b4 4542
00000280: 38b6 ac42 f450 ea42 2fb5 1f42 fbac 3f42
00000290: f232 cb42 6605 3d42 ae79 a142 9091 4742
000002a0: e1d6 1043 8330 2a43 3f57 1a42 5dab 4f41
000002b0: 29b3 7d42 aed8 3042 3f87 9842 113d af40
000002c0: 3f44 1542 e019 3742 05bb c941 2b0f 3242
000002d0: 1e9e c542 4f9a f841 8d7a 8841 beae d142
000002e0: 987f 7e42 2456 2a43 ab85 0142 e59b 5342
000002f0: c15e b540 f9d2 7342 f143 a642 5c36 7742
00000300: 2821 d741 2408 8343 52b8 5742 fb94 7c42
00000310: 7383 3043 2366 a642 13ce 1843 c0c6 aa3d
00000320: fc94 8742 82bf f142 e95c fd41 d2e7 f742
00000330: 4e1e 7742 b479 0842 b3e2 0b42 6813 6342
00000340: 379b 0942 814a c442 ef5c 0f43 2b62 5542
00000350: ca6c 4042 730d 6742 b8bd 1842 9783 c541
00000360: c736 aa42 d928 9a42 f280 fc41 a770 3542
00000370: 0077 9b42 4e1b bb42 0bb6 6442 cdd6 6a42
00000380: 8f7e c841 4726 a542 6264 a440 dcc2 8d42
00000390: 4fd2 8442 aef4 0c42 7089 3242 6aae a842
000003a0: 8a1f e542 7b51 3c42 80cf 3f41 ab94 6842
000003b0: fe97 ea41 0d07 6342 1990 ed42 ba24 2f42
000003c0: 7cc5 5d42 a554 3e42 8677 3e42 ad03 ef42
000003d0: 0ba9 703e 5b6c 2042 467b e841 3dad da41
000003e0: 294b 0442 1dd8 7a41 56f8 be42 2568 ac42
000003f0: 924c bd41 5d31 ca41 8b1f 2843 a018 e541

fc2.weight f4 [300, 404]
-0.06777709 -0.054774262 -0.07281436 0.006330295 -0.019658003 -0.05475077 -0.04025874 -0.020897986
-0.065213785 -0.096604735 0.046168786 -0.04491533 -0.03084762 -0.021938365 0.033937562 -0.044488993
0.018809024 0.04374405 -0.028834252 0.017943224 0.0040631485 -0.007969301 -0.03318005 0.0075498275
-0.020195002 0.043040134 -0.04994508 0.026390564 0.020859364 -0.035497103 -0.012651964 0.039871067
-0.034300376 0.02934489 0.015020459 -0.067048654 0.04494458 -0.047539238 -0.057007864 -0.0065615154
-0.0012328796 -0.001055448 0.02424726 -0.029816998 -4.1329247e-05 0.022550605 0.013191527 0.010738874
0.032767303 -0.059652086 -0.024946507 0.033261247 0.008306411 -0.014327646 -0.00094799156 -0.04628723
0.03742823 -0.04576689 -0.009495719 -0.041252255 0.009391435 -0.09163688 -0.033919852 -0.0013254238
0.019546032 0.01406314 0.033911552 -0.04599229 -0.018818192 -0.004934271 -0.052130245 -0.0060526365
-0.03878073 -0.02483775 -0.002777911 0.014547115 0.03703349 0.017648688 -0.020559564 0.034371145
0.030760022 -0.05006848 -0.01779056 0.04565578 0.026738415 -0.031148426 0.04366582 -0.0333928
-0.09345849 -0.08103509 -0.0228283 -0.03030879 -0.030219868 -0.03238488 -0.028774545 0.008827542
0.028636677 -0.033284444 -0.04992875 -0.06718062 -0.023772122 -0.06624436 -0.09842204 -0.0728981
-0.0108745 -0.018660812 -0.03631767 -0.04672389 0.033958804 0.009363726 -0.0064409594 0.014188132
-0.005502753 -0.06533157 -0.04791632 -0.07184731 -0.04722684 -0.05150552 -0.046147097 -0.03612328
-0.08207326 -0.019767506 -0.018806782 -0.012201362 -0.0030642126 0.02512988 -0.06212135 0.014204306
-0.029130757 -0.050448213 0.0065894555 -0.023677379 -0.009736683 -0.06644066 0.036204837 0.031137066
-0.030427728 -0.021601528 -0.046923812 -0.079758085 0.0153469555 -0.0012068313 0.008549013 0.018332135
0.024337104 -0.017439665 0.0094917845 0.007941505 -0.09000912 -0.027522687 -0.0619136 -0.054436937
-0.057828955 -0.04590179 -0.05486305 -0.015551042 -0.021209536 0.0013500674 -0.11234987 -0.030180143
-0.084482074 0.017739233 -0.053234704 -0.036191408 -0.0006664894 -0.042764936 -0.065000154 -0.057316177
-0.047786333 0.03802714 -0.055418365 -0.046363983 -0.057767786 -0.018079273 0.03486124 -0.061617807
-0.007966561 0.018477313 -0.01340484 0.012568985 -0.049566895 0.03269522 -0.018077292 -0.06929863
-0.028671416 -0.037730552 0.06946426 -0.026252346 -0.09660832 0.002944195 -0.038992953 -0.0015313771
0.02416991 -0.015089796 -0.067347355 0.0414648 -0.004716853 0.03565157 -0.0011138507 -0.02985096
-0.0037674597 -0.02832574 -0.050176714 -0.030400533 -0.01749689 -0.062060993 0.043999247 -0.06350939
0.0120013375 -0.038915165 -0.044421017 -0.035415698 -0.032849275 -0.026090382 -0.0031324287 -0.07550648
0.018121727 -0.055536382 -0.027834738 -0.05852448 0.032886256 -0.0011266996 -0.029246736 -0.04220115
-0.012599106 -0.007959605 0.012907747 0.0021566337 0.01541373 0.0010008834 -0.0076995557 -0.042975217
0.002095776 -0.05219729 0.00047912265 0.016534267 -0.030860253 -0.022374613 0.031894986 0.038758133
-0.0018301393 0.03659648 -0.06286103 0.022687294 0.03870262 -0.012812528 -0.029708637 0.034101915
0.010363402 0.023543052 -0.004268869 -0.07537118 -0.014409093 -0.0107095465 0.013873646 0.023983238
00000000: b7ce 8abd fa5a 60bd b21f 95bd 5d6e cf3b
00000010: d209 a1bc 5842 60bd 59e6 24bd 4132 abbc
00000020: ce8e 85bd b4d8 c5bd 7b1b 3d3d 23f9 37bd
00000030: 26b4 fcbc 16b8 b3bc 1d02 0b3d 173a 36bd
00000040: 6215 9a3c f62c 333d cf35 ecbc abfd 923c
00000050: 2924 853b ac91 02bc cee7 07bd 8b64 f73b
00000060: fd6f a5bc da4a 303d 3693 4cbd 0631 d83c
00000070: 42e1 aa3c 6965 11bd 2f4a 4fbc d84f 233d
00000080: 8d7e 0cbd b264 f03c 5f18 763c ce50 89bd
00000090: cf17 383d 81b8 42bd 1481 69bd fb01 d7bb
000000a0: 9398 a1ba f556 8aba 31a2 c63c c742 f4bc
000000b0: f158 2db8 0cbc b83c 4621 583c 1af2 2f3c
000000c0: 0237 063d bf55 74bd 9e5c ccbc f23c 083d
000000d0: 9d17 083c 81be 6abc a382 78ba ae97 3dbd
000000e0: 584e 193d 1076 3bbd ef93 1bbc 20f8 28bd
000000f0: 89de 193c 1eac bbbd 8bef 0abd d8b9 adba
00000100: 001f a03c 1669 663c d7e6 0a3d 6962 3cbd
00000110: 9c28 9abc aaaf a1bb 8686 55bd 3255 c6bb
00000120: 8bd8 1ebd 8978 cbbc 9d0d 36bb 0657 6e3c
00000130: 6eb0 173d fb93 903c 886c a8bc c2c8 0c3d
00000140: 71fc fb3c 9b14 4dbd 82bd 91bc 8e01 3b3d
00000150: 850a db3c fc2a ffbc eeda 323d e3c6 08bd
00000160: 2a67 bfbd baf5 a5bd 6a02 bbbc 244a f8bc
00000170: a88f f7bc 02a6 04bd 98b8 ebbc 65a1 103c
00000180: 7797 ea3c 4555 08bd 1782 4cbd fe95 89bd
00000190: c1bd c2bc 1fab 87bd 7f91 c9bd 994b 95bd
000001a0: f52a 32bc 8fde 98bc d6c1 14bd 8d61 3fbd
000001b0: 6318 0b3d 506a 193c af0e d3bb 5775 683c
000001c0: 7050 b4bb 8fcc 85bd e743 44bd af24 93bd
000001d0: ee70 41bd 74f7 52bd bd04 3dbd 01f6 13bd
000001e0: 0616 a8bd 77ef a1bc ae10 9abc 39e8 47bc
000001f0: f5d0 48bb 2edd cd3c f572 7ebd 2db9 683c
00000200: a0a3 eebc c9a2 4ebd 5cec d73b 10f7 c1bc
00000210: 9c86 1fbc 0a12 88bd 864b 143d 2913 ff3c
00000220: 9243 f9bc b0f5 b0bc 2f33 40bd 3558 a3bd
00000230: cc71 7b3c 8a2e 9eba 2911 0c3c 462d 963c
00000240: 9b5e c73c a1dd 8ebc 6e83 1b3c 161d 023c
00000250: b456 b8bd 4277 e1bc 1d99 7dbd 44f9 5ebd
00000260: 0ede 6cbd 8403 3cbd 14b8 60bd ccc9 7ebc
00000270: 9fbf adbc bff4 b03a b017 e6bd 593c f7bc
00000280: f004 adbd de51 913c a20c 5abd 713d 14bd
00000290: 59b7 2eba 492a 2fbd cd1e 85bd 5ec4 6abd
000002a0: 9abb 43bd 59c2 1b3d 5efe 62bd 29e8 3dbd
000002b0: ea9d 6cbd fc1a 94bc a9ca 0e3d f462 7cbd
000002c0: 2e86 02bc bc5d 973c f99f 5bbc 25ee 4d3c
000002d0: a806 4bbd 6ceb 053d d416 94bc 71ec 8dbd
000002e0: 51e0 eabc 5a8b 1abd 4743 8e3d 290f d7bc
000002f0: 95da c5bd 65f3 403b 13b7 1fbd 7db8 c8ba
00000300: faff c53c 313b 77bc 69ed 89bd fed6 293d
00000310: d58f 9abb 6107 123d a1fe 91ba 008a f4bc
00000320: 7ce7 76bb 620b e8bc 1986 4dbd 8a0a f9bc
00000330: a355 8fbc ab33 7ebd 8e38 343d 3611 82bd
00000340: 42a1 443c 8265 1fbd d0f2 35bd 0d10 11bd
00000350: f68c 06bd 7fbb d5bc 6f49 4dbb 24a3 9abd
00000360: 0474 943c 1e7a 63bd ad05 e4bc 5db7 6fbd
00000370: bdb3 063d c4ad 93ba da96 efbc 1ddb 2cbd
00000380: 7b6c 4ebc 0169 02bc 047b 533c 4f56 0d3b
00000390: df89 7c3c 1330 833a 8e4c fcbb c806 30bd
000003a0: 4959 093b d3cc 55bd c132 fb39 df72 873c
000003b0: a4ce fcbc f74a b7bc 51a4 023d d9c0 1e3d
000003c0: 49e1 efba 31e6 153d 49bd 80bd b4da b93c
000003d0: a386 1e3d a3eb 51bc 875f f3bc 73ae 0b3d
000003e0: 42cb 293c 5cdd c03c dee1 8bbb 355c 9abd
000003f0: 1e14 6cbc 1877 2fbc 4a4e 633c 7f78 c43c

fc2.bias f4 [300]
-0.11817537 -0.042901017 -0.9368112 -0.02949101 -0.77550673 -0.5848041 -0.09147824 0.22680293
0.23545729 -0.103755705 -0.10360557 -0.10883063 -0.10030885 -0.08841037 0.5077344 -0.12896584
0.013499954 -0.71865875 -0.71055543 -0.07873624 -0.4571801 -0.11450511 -0.6408473 -0.09556955
-0.08264396 -0.07019211 -0.07677329 -0.112304956 -0.07216152 -0.13907897 -0.5690871 -0.103661016
-0.08183092 -0.104197696 -0.11421564 -0.094341725 -0.12893647 -0.060934402 -0.08022778 -0.14758913
-1.577904 0.101824075 -0.097987 -0.0607608 -0.07849241 0.4684418 -0.047755312 -0.05485015
-0.09105072 -0.12984255 -0.16014498 -0.092249215 0.4366736 -0.07390444 -0.03351597 2.8585432
-0.097666204 -0.12124601 -0.071851 -0.066578 -0.057002798 -0.14875984 -0.1380746 0.12828025
0.033713937 -0.080192305 -0.10763072 1.0305791 0.19722499 0.4718591 -0.09962272 -0.12114396
-0.12728053 0.14079817 -0.10083375 -0.07596033 -0.14489326 -0.045519408 -0.040790405 0.51647717
-0.062216785 -0.09285457 0.17153054 -0.2754767 -0.7465407 -0.10058837 -0.031201972 -0.09501982
-0.11359782 0.21962151 -0.06931093 -0.10659171 -0.081053436 -0.018878631 1.3648937 0.6572129
-0.09323303 -0.087584555 1.0569724 -0.07629831 1.6278776 -0.12349705 -0.11497593 0.42658794
-0.7884953 0.832636 -0.10887723 -0.053970464 -0.10942861 -0.1158892 1.1715996 1.0810273
-0.06883316 -0.12853466 -0.47146595 -0.130986 -0.091907635 -0.10945924 -0.10238316 -0.07893852
-0.08319178 -0.5081455 1.1225945 0.3111734 -0.114265546 -0.046005227 -0.17221639 -0.01546372
-0.11601962 -0.08606275 -0.08939593 -0.14038329 1.6064669 -0.081506394 0.38408816 -0.12729321
-0.119337045 -0.07742851 -0.46390355 0.6257337 -0.119018696 -0.09080931 -0.13424511 -0.10226092
-0.5043357 -0.06486145 -0.11730532 -0.47258756 -0.06455783 -0.12487112 -0.5720792 -0.07894862
-0.062306724 -0.018833343 -0.10432864 0.88832134 -0.0755373 -0.08906651 -0.07108512 0.03669662
0.7627872 -0.13308989 -0.06570707 -0.13686605 -0.058487948 -0.39757487 -0.09842663 0.06960447
-0.7203867 -0.99552226 -0.08815689 -0.10178936 -0.12377261 -0.11489272 1.5853918 -0.058544125
-0.12012734 -1.0444869 -0.10087768 -0.7377835 -0.059474964 -0.036748428 0.62351924 -0.5574527
-0.04215299 -0.079538725 -0.10997941 0.55627644 1.5652745 -0.11871742 -0.10487361 -0.07943285
-0.10439764 -0.06008648 -0.12332704 0.30271977 -0.10318035 -0.11225424 -0.44675365 -0.10512968
1.1124653 -0.15201594 -0.045841422 0.14141625 -0.09859686 -0.07658909 -0.13320407 -0.070616804
-0.057311613 -0.103937134 -0.043153714 -0.044418734 -0.0971644 0.13906595 -1.2864727 -0.61239636
-0.09959794 -0.09945473 -0.1409242 0.5852415 -0.38353798 -1.1746227 -0.11134202 -0.06753034
0.5034047 -0.05984532 -0.11268319 0.49062803 -0.06759482 -0.10087161 -0.0599459 -0.109163955
-0.08664174 -0.10019393 -0.0966378 0.56698245 -0.096542716 -0.057842642 -0.09683764 -0.07681588
0.3376387 1.112426 -0.08823441 -0.09831907 -0.07757012 -0.11973734 -0.08922168 -0.07312928
-0.093110725 -0.40680137 -0.13083212 -0.06332033 -0.12119397 -0.06076158 -0.29945323 0.8310419
00000000: ee05 f2bd fab8 2fbd dcd2 6fbf 2197 f1bc
00000010: 9c87 46bf b9b5 15bf f258 bbbd 073f 683e
00000020: b71b 713e df7d d4bd 282f d4bd 98e2 debd
00000030: ba6e cdbd 7f10 b5bd e2fa 013f 9f0f 04be
00000040: e92e 5d3c 05fa 37bf f6e6 35bf 7740 a1bd
00000050: 8313 eabe a881 eabd 920e 24bf f8b9 c3bd
00000060: 3d41 a9bd e2c0 8fbd 513b 9dbd 2400 e6bd
00000070: 6bc9 93bd b86a 0ebe b1af 11bf 3a4c d4bd
00000080: f896 a7bd 9a65 d5bd e4e9 e9bd 3c36 c1bd
00000090: ec07 04be 5a96 79bd 764e a4bd 9b21 17be
000000a0: c2f8 c9bf 2489 d03d 69ad c8bd 51e0 78bd
000000b0: a1c0 a0bd 9bd7 ef3e 139b 43bd 8daa 60bd
000000c0: cd78 babd 72f5 04be 0cfd 23be 28ed bcbd
000000d0: af93 df3e 365b 97bd 0b48 09bd 5ff2 3640
000000e0: 3805 c8bd d44f f8bd 9e26 93bd 0c5a 88bd
000000f0: c47b 69bd 8054 18be 6e63 0dbe e65b 033e
00000100: a017 0a3d dd3b a4bd 7f6d dcbd 04ea 833f
00000110: 59f5 493e 8497 f13e ff06 ccbd 531a f8bd
00000120: d455 02be 652d 103e ed81 cebd 1791 9bbd
00000130: e65e 14be 8f72 3abd d713 27bd d937 043f
00000140: 07d7 7ebd 892a bebd b4a5 2f3e 480b 8dbe
00000150: 4b1d 3fbf 4601 cebd 479b ffbc c099 c2bd
00000160: f9a5 e8bd 76e4 603e e4f2 8dbd c14c dabd
00000170: 58ff a5bd 5ca7 9abc d6b4 ae3f 1b3f 283f
00000180: f5f0 bebd 885f b3bd df4a 873f 4a42 9cbd
00000190: 4b5e d03f 05ec fcbd 8078 ebbd bc69 da3e
000001a0: d4da 49bf a227 553f 06fb debd 2210 5dbd
000001b0: 1b1c e0bd 5157 edbd faf6 953f 1a5f 8a3f
000001c0: 66f8 8cbd 979e 03be fc63 f1be 3221 06be
000001d0: 123a bcbd 2b2c e0bd 43ae d1bd 85aa a1bd
000001e0: 7460 aabd d315 02bf 2db1 8f3f 1f52 9f3e
000001f0: 0e04 eabd fa6f 3cbd 7e59 30be 8b5b 7dbc
00000200: b29b edbd ab41 b0bd 3715 b7bd a3c0 0fbe
00000210: b5a0 cd3f d3ec a6bd 34a7 c43e 2759 02be
00000220: fb66 f4bd d792 9ebd c484 edbe 1530 203f
00000230: 13c0 f3bd 3bfa b9bd 8d77 09be 2c6e d1bd
00000240: 251c 01bf 14d6 84bd c63d f0bd fff6 f1be
00000250: e536 84bd 6ebc ffbd c873 12bf d0af a1bd
00000260: 5635 7fbd 6248 9abc 41aa d5bd 0769 633f
00000270: 4db3 9abd 8168 b6bd 1395 91bd 324f 163d
00000280: 0646 433f b748 08be 6e91 86bd 9d26 0cbe
00000290: 0f91 6fbd ef8e cbbe e793 c9bd ca8c 8e3d
000002a0: 436b 38bf 8cda 7ebf 998b b4bd f176 d0bd
000002b0: 7f7c fdbd e04c ebbd 1eee ca3f f7cb 6fbd
000002c0: 5305 f6bd bfb1 85bf f598 cebd 61df 3cbf
000002d0: 059c 73bd 8585 16bd f59e 1f3f 38b5 0ebf
000002e0: 9da8 2cbd 33e5 a2bd e33c e1bd 2268 0e3f
000002f0: ea5a c83f 1e22 f3bd fac7 d6bd b1ad a2bd
00000300: 6ece d5bd 3e1d 76bd e392 fcbd 16fe 9a3e
00000310: 3850 d3bd 8de5 e5bd e5bc e4be 3b4e d7bd
00000320: 4365 8e3f 11aa 1bbe 37c4 3bbd 6ccf 103e
00000330: 27ed c9bd beda 9cbd a666 08be 8b9f 90bd
00000340: 95bf 6abd fedc d4bd f3c1 30bd 6bf0 35bd
00000350: 21fe c6bd 4e67 0e3e 23ab a4bf 02c6 1cbf
00000360: 01fa cbbd ecae cbbd 6f4e 10be 63d2 153f
00000370: 175f c4be 095a 96bf 4907 e4bd 594d 8abd
00000380: 21df 003f 5e20 75bd 72c6 e6bd 9933 fb3e
00000390: 276f 8abd c695 cebd d589 75bd 5a91 dfbd
000003a0: 3971 b1bd 7a32 cdbd 0aea c5bd c325 113f
000003b0: 30b8 c5bd 68ec 6cbd d052 c6bd a551 9dbd
000003c0: fbde ac3e fa63 8e3f 3eb4 b4bd 825b c9bd
000003d0: 15dd 9ebd da38 f5bd dbb9 b6bd cec4 95bd
000003e0: d6b0 bebd 4548 d0be dbf8 05be 17ae 81bd
000003f0: 8b34 f8bd 22e1 78bd ef51 99be 29bf 543f
