DRLND_deep_reinforcement_learning_nanodegree/p3_collab_compet/checkpoint_critic_b.pth (torch_old, 185334 bytes, 5 tensors)

fcs1.weight f4 [256, 48]
000000 bb 14 8b 3f 6e 11 4e bd fa 31 d3 bd df 18 37 3e
       1.0865701 -0.05030959 -0.10312267 0.17880581
000010 5e 6f 37 3e ee 85 0d bf 6a 45 f4 bd 9c 3d 56 3e
       0.17913577 -0.55282485 -0.11927302 0.2092194
000020 fe 01 2a 3f fb 18 6a 3d 22 da 49 be 0b 02 0f 3e
       0.6640929 0.05715273 -0.19712117 0.13965623
000030 25 b9 a5 3c 29 eb 33 bf 7f b8 b9 bd 95 8c d2 3d
       0.020229885 -0.702807 -0.09068393 0.1028072
000040 50 6f 81 3f 77 33 66 3d f9 5f 2f 3d 6f c6 f2 bb
       1.0112095 0.056201424 0.042816136 -0.007408909
000050 1a 4c 7e be 5d 77 a2 be 4b 40 a9 3d 7e aa c6 bd
       -0.24833718 -0.31731692 0.08264216 -0.097004876
000060 65 56 7e 3e bf 90 89 be d8 e1 bb bd c5 e9 36 3e
       0.24837644 -0.26868245 -0.09173936 0.17862613
000070 2b 59 7f be 4d db 1d bf 94 32 03 be de 99 59 3e
       -0.24936359 -0.6166275 -0.12812263 0.21250102
000080 c9 00 54 3e aa 93 8a be 69 57 37 3d 56 a6 65 bc
       0.20703425 -0.27065784 0.044761095 -0.014016708
000090 59 b5 8d bd 5a 44 2d bf b7 b1 c2 3c 47 c1 2a 3d
       -0.06919355 -0.6768242 0.023766382 0.04168823
0000a0 d8 8d dd 3e 36 9d 03 be cf 53 3f 3d 3e fc a8 be
       0.4327228 -0.1285294 0.046710785 -0.33004946
0000b0 a1 78 52 3e e0 09 a3 be 34 9b 5b 3d 56 a4 81 be
       0.20553829 -0.31843472 0.05361481 -0.2532069
0000c0 75 f2 7e 3f 39 8d d3 3d ef 32 55 3d a0 1e 64 3e
       0.9958871 0.103296705 0.052050527 0.22277308
0000d0 be 56 36 be 41 6b ad 3e f3 20 a3 3c 06 31 97 3e
       -0.17806527 0.3387089 0.019913172 0.2952959
0000e0 e8 6a 80 3f b8 62 3f 3e 3e b4 4f 3d 35 2b 2f bd
       1.0032625 0.18690002 0.050709 -0.042765815
0000f0 63 b5 f4 be 50 13 ef be 14 61 2f 3d 62 83 cb bc
       -0.47794637 -0.46694422 0.04281719 -0.024842922
000100 d8 a7 6c 3f f0 dd c3 3e 64 60 13 3d a6 8b 84 3e
       0.9244361 0.38255262 0.035980597 0.25887793
000110 60 79 35 bf 59 ee cb bf 05 fc 8d 3c 70 56 34 3e
       -0.7088833 -1.5932113 0.017332086 0.17611098
000120 b3 10 da be 49 e7 96 3f c8 8a d9 ba 43 72 81 bd
       -0.42590865 1.1789333 -0.0016597146 -0.06320622
000130 30 4a c6 3d 74 69 b9 3e 35 48 45 bd bb f8 96 bd
       0.09682119 0.36213267 -0.048164565 -0.0737166
000140 25 50 26 be 9e e5 66 3f 4b 6c 11 bd d1 31 61 bd
       -0.1624151 0.9019412 -0.035503667 -0.05497915
000150 ec f6 d5 3e 74 b9 d9 be 0f 5b 74 3b 92 9c c2 bd
       0.4178995 -0.42524302 0.003728572 -0.0950252
000160 81 40 b3 3e 60 b8 19 3f 49 fa 20 3b ee 52 d8 bb
       0.3501015 0.6004696 0.0024563244 -0.006601683
000170 5f 0c 37 3f 1e dd c3 bf 10 a1 95 bc 16 8e 90 3c
       0.7150325 -1.5301855 -0.018265277 0.017645877
000180 14 35 a7 3e 83 f2 4e 3f 08 a1 b3 bc f0 0a 84 bc
       0.32657683 0.80838794 -0.021927372 -0.016118497
000190 f9 7f a1 be e3 92 03 bd 68 92 13 bd 15 80 a0 3d
       -0.31542948 -0.032122504 -0.036028296 0.0783693
0001a0 b0 20 1c 3f 4c 9e 80 3f 12 cd 9f bd 97 43 4e 3f
       0.6098738 1.0048308 -0.07802786 0.80571884
0001b0 e3 26 d8 be f4 32 1e bd 70 8f ac 3c cc cc 48 3f
       -0.42217168 -0.03862281 0.02106449 0.78437495
0001c0 e7 c0 69 3f 63 5b 69 3f 9a d3 3e bd 21 27 cb bd
       0.9130997 0.9115507 -0.046588518 -0.099195726
0001d0 e5 f3 04 bf 7b c6 04 3e 6d 08 33 3d a6 16 6a 3c
       -0.51934654 0.1296634 0.043709207 0.014287626
0001e0 62 6b 39 3e e4 bf 2a 3f ee a0 42 bd b1 7d 58 bc
       0.1810737 0.6669905 -0.047516756 -0.013213561
0001f0 f5 09 a4 3e 4c 42 92 bc c4 fd 08 3d 3d f8 b9 bd
       0.32038847 -0.017853878 0.033445135 -0.09080551
000200 44 39 87 3d 89 1a 15 3f ce 2d 83 bc a0 26 8d 3d
       0.066027194 0.58243614 -0.016013052 0.06892133
000210 75 e9 e4 3e 46 ff 6f bd 13 e5 f4 bc 8b 42 9e 3d
       0.44709364 -0.058593057 -0.029894387 0.07727536
000220 32 7c fa 3d f9 4c 1f 3f 54 1e 86 bc 46 88 8a 3d
       0.122307196 0.62226826 -0.016371883 0.06764273
000230 99 36 0a 3f 99 76 2a 3e 61 03 93 3b 11 8a 07 3e
       0.5398956 0.16646804 0.004486487 0.13236262
000240 1d 67 8b be 9f ab 72 bc eb 6c fd 3c 45 fc 32 bd
       -0.27227107 -0.0148114255 0.030935725 -0.043697614
000250 8e 08 03 3c 3a 90 1f 3f d4 02 ca bb 22 d9 a3 bc
       0.007997645 0.6232945 -0.006164888 -0.020000998
000260 ce 51 04 be 65 24 73 be d9 e7 8b bb 21 14 04 bd
       -0.12921831 -0.23744352 -0.0042695818 -0.03224576
000270 25 0f fa 3d d0 0a 9c 3e f9 fc 60 3d 2c d3 14 be
       0.1220992 0.30477 0.054928754 -0.1453368
000280 29 9d 2e 3d c7 4a 60 be 87 14 4e 3d 1c 2a 17 bd
       0.04263035 -0.21903525 0.050312545 -0.036905393
000290 1e a4 20 3f 6d f4 a0 bf 3e 6c 30 bc e1 13 0c 3c
       0.6275042 -1.2574593 -0.010767994 0.008549661
0002a0 51 7f 04 3f ed 1b 60 be 2e 16 2f bc 05 7a 26 3c
       0.5175677 -0.21885653 -0.01068644 0.010160928
0002b0 e5 f5 26 bd f3 3f 08 3f da a7 ca 3c 1f cc 72 3d
       -0.040761847 0.5322258 0.024738241 0.059276696
0002c0 fb 88 19 3f 32 44 1f be e3 5f b4 3d 68 5b a9 3d
       0.5997464 -0.15553358 0.088073514 0.082693875
0002d0 22 d1 f6 bd 8e b9 ad 3e e5 7f 98 bc cc f0 24 3d
       -0.12051608 0.3393063 -0.018615672 0.040268704
0002e0 99 1a 4d 3f 55 d1 bc be c1 e5 7c 3d 58 fa 21 bd
       0.8011871 -0.36878458 0.061742548 -0.039545387
0002f0 29 2b 19 bf fd 9c a3 bf a6 4d 48 3d a5 b8 69 bd
       -0.5983148 -1.2782284 0.048902176 -0.057060856
000300 fe 21 96 3e bc 36 21 3e 02 6a c8 3a c3 64 a9 bd
       0.2932281 0.15743536 0.0015290382 -0.08271172
000310 b7 64 6e 3e f6 47 48 be 11 fb 92 bd 5e 6e dc bd
       0.23280607 -0.19558701 -0.07176793 -0.10763238
000320 62 64 2e 3e 66 8c 56 3e 32 fb 84 bc 66 78 98 bd
       0.1703048 0.20951995 -0.01623306 -0.07444839
000330 9b 03 6b 3e 9a db 16 bd 4e 7c 60 bb ba 2f 6d 3c
       0.22950594 -0.036830522 -0.003425378 0.014476711
000340 f3 01 13 3e 2a 45 98 3e 38 08 3d bd 97 64 4d bc
       0.14356212 0.29740268 -0.046150416 -0.0125361895
000350 3e 70 c7 3e 74 92 69 bf 3a 66 02 bb 10 ac bf bb
       0.38952821 -0.91239095 -0.0019897358 -0.005849369
000360 b1 21 f2 3e fc a5 34 3e a6 18 a7 ba 0a a0 e8 bb
       0.4729133 0.17641443 -0.0012748435 -0.0070991563
000370 f6 d1 81 be 24 39 06 be f7 9a 2b 3b 37 63 f1 3b
       -0.253555 -0.13107735 0.0026184896 0.0073665637
000380 18 40 fa 3e bf 59 65 3e 9c 6b e3 bd e3 2b 10 3e
       0.48877025 0.22397517 -0.11104509 0.14079241
000390 db f8 13 be 4b 7e f9 bd 6b ee 94 bc 70 d9 74 3e
       -0.144504 -0.121822916 -0.018180093 0.23911071
0003a0 4f c1 2f 3f d0 d9 98 3e be 10 36 3d 00 50 4c 3f
       0.6865434 0.29853678 0.04444956 0.7980957
0003b0 7f 1c bc be 01 9b 7a bf 83 81 d5 3d 86 6e 3d 3f
       -0.3674049 -0.9789277 0.10425093 0.7399677
0003c0 70 59 0e 3e 8d 76 da 3e 60 48 14 be 31 d4 70 be
       0.13901305 0.42668572 -0.14480734 -0.23518445
0003d0 e1 22 86 3e c9 7f 78 bf d9 29 07 be 40 30 3d be
       0.26198485 -0.97069985 -0.13199557 -0.18475437
0003e0 10 7d d8 3e 7a 4b ce 3e 53 51 f8 bb 76 be 8a be
       0.42282915 0.4029196 -0.007578054 -0.27098435
0003f0 29 ab ba bd 68 fe 95 bf d2 af 00 3c eb 55 75 be
       -0.091146775 -1.1718264 0.007854419 -0.23958556

fcs1.bias f4 [256]
000000 88 37 45 bf df d1 84 bf f1 70 1c bf c6 68 cc bd
       -0.7703786 -1.0376548 -0.61109835 -0.099809214
000010 8b 61 02 be 82 fa 23 bf 39 36 11 bf 6d 60 3d 3f
       -0.12732522 -0.6405412 -0.5672336 0.7397526
000020 75 af 1d bf 00 58 10 bf 36 23 3f bf bc 71 89 bf
       -0.6159585 -0.5638428 -0.746631 -1.0737834
000030 4e e9 d9 bd 26 d3 63 bf 34 b1 88 bf e6 81 14 bf
       -0.106402025 -0.8899406 -1.0679078 -0.5801071
000040 37 49 06 bf e5 5d 4b bf 50 f0 52 3f 76 a4 8b bd
       -0.52455467 -0.79440147 0.8239794 -0.06818478
000050 f0 62 0d bf 2a 87 75 be b4 41 b0 3d 98 65 64 be
       -0.5522909 -0.23977342 0.08606282 -0.2230438
000060 b2 e8 96 be 01 72 d8 3d 43 57 05 3f 0b cb ad be
       -0.29474407 0.105686195 0.52086276 -0.33943972
000070 52 ce b9 bb 16 9b dc bd 71 81 48 bf 3b a3 12 bf
       -0.0056703473 -0.10771768 -0.7832251 -0.5728032
000080 b1 49 57 be 32 2a 56 bf 52 e4 6d be 1b d1 14 bf
       -0.21024205 -0.83658135 -0.23231629 -0.5813157
000090 f6 f4 3b bf d2 bf d4 3e 3b ac 68 be 81 39 28 bf
       -0.73420656 0.41552597 -0.2272195 -0.65712744
0000a0 38 4e 95 be ac 44 8b be 91 13 1d bf 79 8a 1b be
       -0.2916124 -0.2720083 -0.6135798 -0.15189542
0000b0 36 21 47 bf 9a d0 a4 bf e0 44 a5 be 65 72 4d bf
       -0.7778505 -1.287616 -0.3227911 -0.8025268
0000c0 6d 4f eb bd d0 a4 dc be 5a 23 96 bd 50 cd 5d be
       -0.11489759 -0.43094492 -0.073309615 -0.21660352
0000d0 aa 98 44 bf 3a b7 14 bf 73 07 53 bf fb 80 9c bd
       -0.76795447 -0.5809208 -0.8243324 -0.076417886
0000e0 b4 5e 09 bf 71 c0 38 bf 64 b5 d7 be 3b 15 ba be
       -0.5366013 -0.7216864 -0.42130578 -0.36344323
0000f0 d9 e9 1e 3d 68 4d 9d bf 8a 81 4d bf 28 bb 4d bf
       0.038797233 -1.2289248 -0.80275786 -0.803637
000100 d0 2c eb 3e 46 39 7a bf 35 a4 f2 be 3f ee 06 bf
       0.45932627 -0.9774364 -0.47390905 -0.52707285
000110 d1 d2 43 bf bc a0 2a 3d 32 b4 f3 be f0 eb f5 be
       -0.76493555 0.041657194 -0.47598416 -0.4803157
000120 48 9e 12 be e0 bc d3 be 40 4c 7b bf b5 97 e2 be
       -0.14318192 -0.41355038 -0.98163223 -0.44256368
000130 3b 7c 40 bf 95 79 82 be 27 bd 52 bf 42 2f 71 bf
       -0.7518956 -0.25483385 -0.82319874 -0.94212735
000140 eb 64 1c 3e 8e bc 81 3e 20 29 19 bf 97 15 2c bf
       0.15272872 0.25339168 -0.59828377 -0.67220443
000150 4a de d0 bd 8e a0 1f bf 82 be 19 bf 0d 5e 8b bd
       -0.10198648 -0.6235436 -0.60056317 -0.06805048
000160 31 3d db be 57 d8 46 bf c5 b7 cb be 0b c3 24 bf
       -0.42820123 -0.7767386 -0.39788643 -0.6436011
000170 10 af c4 be e6 20 0f bf 18 20 cb be d4 f2 0a bf
       -0.38414812 -0.55909574 -0.39672923 -0.54276776
000180 7c 15 c9 bd 13 3b c8 3e 05 4c 1c bf a0 49 c1 3d
       -0.09818551 0.3910757 -0.61053497 0.09437871
000190 e9 a4 1e be 1a 96 08 bf 0d 7d 45 bf 11 4d 10 bf
       -0.15492596 -0.53354037 -0.7714394 -0.56367594
0001a0 5d b7 82 be 5d d1 c8 be dd 05 88 be e0 8d d9 bd
       -0.2553052 -0.39222232 -0.26566973 -0.10622764
0001b0 a2 16 23 bf 33 a1 7e bf 27 2e 89 bf 12 88 29 bf
       -0.6370641 -0.9946472 -1.071721 -0.6622325
0001c0 5d 9e 07 be 79 a9 4d bf 42 f9 8a bf 6e 0d 41 bf
       -0.13244005 -0.8033672 -1.0857317 -0.7541112
0001d0 9d e2 40 bf b4 51 3b be b1 20 76 bf 7f 52 1e bf
       -0.75345784 -0.18292886 -0.96143633 -0.6184463
0001e0 e6 2e 5b bf 55 12 b5 be 62 52 c5 be fe 04 41 bf
       -0.85618436 -0.3536555 -0.38539416 -0.7539824
0001f0 6b 85 25 bf 5b a1 46 3e 0a 89 23 bf 2c 86 1f bf
       -0.64656705 0.1939749 -0.6388098 -0.62314105
000200 59 fa e9 be ff 1f 91 be 5c 42 42 bf ac 4f 1f bf
       -0.45698813 -0.28344724 -0.75882506 -0.62230945
000210 39 76 15 bf 63 c5 a4 be 28 cc f7 be 28 fc 88 bd
       -0.5838352 -0.32181844 -0.48397946 -0.0668872
000220 9f 73 58 bf 70 cc 70 bf aa cf 99 3e 3b 27 2f bf
       -0.84551424 -0.94061947 0.30041248 -0.68419236
000230 72 bf 67 be 84 89 66 bf 56 3f 6c bf d4 c4 1e 3f
       -0.22631624 -0.9005358 -0.9228414 0.62019086
000240 4d ec 2d bf c8 5a 36 bf d6 9f 0a bf ea 59 bc be
       -0.6793869 -0.7123227 -0.5415014 -0.3678735
000250 95 d3 df be b4 2b 20 3f c9 93 0d bf 79 f9 29 3e
       -0.43716112 0.62566686 -0.5530363 0.16599073
000260 5c f7 49 bf bd c2 5c bd 27 b4 8b bf 34 78 6b bf
       -0.78893065 -0.053896654 -1.0914353 -0.9198029
000270 86 e4 12 bf c7 92 c4 be 60 5b 2f bf 95 e4 17 bf
       -0.5737995 -0.38393232 -0.684988 -0.59333163
000280 cb c7 8f bd 86 dc 91 3e 44 8a 3d be 9c db 75 3e
       -0.07020529 0.2848856 -0.18509775 0.24009556
000290 45 2f f8 be 0a fe 34 be 24 40 1d bf c0 6d 03 bf
       -0.48473564 -0.17675033 -0.61425996 -0.5133934
0002a0 1d 58 84 bf c4 6f be be 96 ae c4 3d 2e 4a c6 be
       -1.033939 -0.37194645 0.09603612 -0.3872847
0002b0 34 83 cf be 2b c3 3b bf f6 06 c2 be 5e 50 c6 be
       -0.40529788 -0.7334468 -0.37895936 -0.3873319
0002c0 53 64 04 bf 4c 2f d9 be 79 28 11 bf 75 82 01 bd
       -0.5171558 -0.42418897 -0.5670238 -0.031618554
0002d0 80 3e 7f 3f 88 d0 b8 be c1 8e c9 be 98 48 00 bf
       0.9970474 -0.36096597 -0.39366725 -0.5011077
0002e0 2f db 5e bd 6d 23 e2 be d8 87 55 be a4 0c bc be
       -0.05440825 -0.44167653 -0.20852602 -0.36728394
0002f0 ff 19 56 3f 00 62 67 bf 2d 8d 94 3e 12 d9 1d bf
       0.83633417 -0.9038391 0.2901396 -0.6165935
000300 0a 0c 36 bf 16 a0 df bc 4b 10 20 bf 68 9b e7 be
       -0.7111212 -0.027298015 -0.6252486 -0.45235753
000310 da 34 1c bf a7 2f 69 bf bf a4 38 bf 79 68 f3 be
       -0.61018145 -0.91088337 -0.7212638 -0.47540644
000320 f4 b6 6a be 28 f9 ed bd a7 0b 9d bf e4 f6 dd be
       -0.22921354 -0.116197884 -1.2269181 -0.43352425
000330 42 9b 30 bf 60 08 7a bd cd cf 32 bf ff 34 b8 3e
       -0.68986905 -0.061043143 -0.6984833 0.35977933
000340 58 66 a0 3e 02 ff 05 bf c8 77 2a bf 08 73 62 bf
       0.31328082 -0.52342236 -0.6658902 -0.88456774
000350 99 93 a4 be eb ce 40 bf 14 5d 71 bf e6 f4 28 3e
       -0.32143858 -0.7531573 -0.9428265 0.16499671
000360 e8 dc 15 bf 55 a4 7f bd ec e5 58 bf b4 ef 52 bf
       -0.585402 -0.06241258 -0.8472583 -0.8239701
000370 42 57 a3 3e e1 ac 3f bf 68 3c b1 be 06 c0 4a bf
       0.3190251 -0.7487317 -0.346164 -0.79199255
000380 ed 65 13 3e 6f 1a 6b bf e4 0e 68 bf ad 83 e0 be
       0.1439435 -0.9183721 -0.9064772 -0.4385046
000390 80 bd ad be eb be 66 bf 2a bd 3c bf 76 72 10 bf
       -0.3393364 -0.9013507 -0.7372614 -0.56424654
0003a0 f7 a4 28 bf a1 55 70 bf 4f 32 53 bf 73 ff d5 be
       -0.65876716 -0.9388066 -0.8249864 -0.41796455
0003b0 87 0c c2 bc 8a f1 9b 3d d1 1b 96 3d cd 4b 20 3e
       -0.023687614 0.07614429 0.07329524 0.15653916
0003c0 53 2f 8b bf b4 89 1a bf 5d 03 1e bf 16 c3 20 bf
       -1.0873817 -0.6036637 -0.6172388 -0.6279768
0003d0 fe f5 d2 be 04 d3 06 bf 89 32 1e bf ab fe 85 bf
       -0.41203302 -0.52665734 -0.6179586 -1.0468343
0003e0 98 3b c4 3f e1 3c f9 3d b7 d4 97 bf eb c3 21 bf
       1.5330687 0.12169815 -1.186179 -0.6318957
0003f0 2d 92 11 bf 12 34 27 bf 27 32 c8 be 67 80 c1 be
       -0.5686367 -0.6531383 -0.39100763 -0.37793276

fc2.weight f4 [128, 260]
000000 79 3b 0e bd 01 1f e8 3c 52 10 b9 bc a5 1a 87 bd
       -0.034724686 0.028335096 -0.02259079 -0.06596879
000010 40 13 d9 bc 9e e3 8e bc 47 f5 ab bc 2d cf 14 be
       -0.026498437 -0.01744252 -0.02099098 -0.14532156
000020 a0 48 6c bd b7 47 b4 bd 96 9c 70 bd e2 93 a7 bc
       -0.057686448 -0.08802741 -0.058743082 -0.020456258
000030 e2 ba df bb 82 9b cd bc 6d a8 81 bd b4 47 95 3c
       -0.006827698 -0.025098566 -0.06330953 0.018222667
000040 27 6a a3 3c 2e 44 e7 3c d5 f7 a9 bd 28 bf 0d 3c
       0.019948078 0.028230753 -0.08299223 0.008651532
000050 5c c0 00 bb d6 f5 1e bd eb 43 80 bc 65 83 24 bd
       -0.0019645905 -0.038808666 -0.015657386 -0.04016437
000060 65 b3 0b 3d af 65 c6 bd dc 07 ac bd aa df 23 bc
       0.03410663 -0.09687363 -0.083999366 -0.010002056
000070 b8 80 dd bd 13 99 af bd 5d e6 10 3d 6f d4 49 bd
       -0.10815567 -0.085741185 0.03537594 -0.049274858
000080 34 bd b4 bc c0 e9 03 bd 37 1e ca bc c3 27 81 bd
       -0.022062875 -0.032205343 -0.02467261 -0.06306412
000090 ab 92 f8 bc 2f 60 d0 bc d2 d5 c9 3c 20 f0 40 ba
       -0.030343374 -0.025436489 0.02463809 -0.000736
0000a0 2a c7 ac bd ff 6c b6 bc 02 ec b0 bd 86 59 16 be
       -0.08436425 -0.02226877 -0.08638765 -0.14682588
0000b0 17 54 1b bc e4 9a cc bc ed 80 ed 3c dd 0e 75 3d
       -0.009480498 -0.024976201 0.02899214 0.059828628
0000c0 e6 eb bb bd f8 aa 3a bd 3a 03 7c bc 9a eb 55 3d
       -0.091758534 -0.045573205 -0.015381629 0.05222664
0000d0 88 ca e0 bc f4 73 0d bb 44 da c8 ba 40 33 8a bd
       -0.027440324 -0.0021584006 -0.0015323837 -0.067480564
0000e0 18 d5 f5 bd 2a f9 a0 bc ea 35 2a 3d 96 70 93 3c
       -0.12003535 -0.01965006 0.041555323 0.017998021
0000f0 99 fe 4c bd 1a 47 35 bd c8 ed 90 bd 36 35 a7 bc
       -0.05004749 -0.04425726 -0.07076603 -0.020411115
000100 39 ad 09 3d 4c 0f 83 bd f7 66 64 3d cf 4a bd bd
       0.033612464 -0.06399402 0.055762257 -0.09242784
000110 2d eb aa bd 6c 27 87 bd fb 72 a5 bd d2 32 9b bd
       -0.083456375 -0.06599316 -0.080785714 -0.075780526
000120 ac 69 63 3b 65 a0 3c 3b 3c 8c a9 bd 8c ee 08 3c
       0.0034700437 0.0028782126 -0.08278701 0.008357655
000130 fd bf b3 bc c8 80 e4 bc 83 ad 25 bd 5e 95 fe 3c
       -0.021942133 -0.027893439 -0.040448677 0.031077083
000140 8a bf bc bb 5f 50 b0 bd 8b 22 55 3a c2 3b bb bc
       -0.005760138 -0.086090796 0.00081304525 -0.022855643
000150 fc f5 e3 bd 30 eb a3 bd e5 03 1b 3d 6d 03 70 bd
       -0.11130902 -0.08003843 0.03784551 -0.058597017
000160 55 7e 72 3d 2c c5 d9 3b 65 32 59 bc 8f 4d 83 bd
       0.05920251 0.006645819 -0.013256644 -0.064112775
000170 9c 15 ed bc 59 e8 1f 3c 7b b4 4d bd d9 ea 81 3c
       -0.028940968 0.009759986 -0.050220948 0.015859054
000180 1c 6c 8a bc 16 49 06 be 21 b5 81 bc a4 cc b0 bd
       -0.016897254 -0.13113818 -0.01583344 -0.08632782
000190 cb cd c8 bd 62 fd 80 3c 35 ad d0 bc 98 68 bc bd
       -0.09804877 0.015745822 -0.025473217 -0.09199637
0001a0 a2 c7 a5 3c cd 2a a9 bd c8 9e c9 bd 72 14 4c bd
       0.020236794 -0.08260117 -0.09844738 -0.049824186
0001b0 c9 33 7e bd c4 1b c4 bd 95 dd 62 bd c0 f4 a5 bc
       -0.062061105 -0.095756084 -0.0553871 -0.020258307
0001c0 f5 3f a6 bc c0 c2 a6 bd 69 ca b8 3c 39 a9 53 bd
       -0.020294169 -0.08142614 0.022557454 -0.051675055
0001d0 1b ab 67 3d 32 3f 2e 3c 3e 99 fe bb 1b c7 ec bd
       0.056559663 0.010635184 -0.0077697327 -0.11561414
0001e0 87 4a f3 3c ed ef 65 bc 68 fc 90 3c 59 40 8c bd
       0.029698623 -0.014034254 0.017698482 -0.06848211
0001f0 3b 83 b2 bd 85 f0 c1 3c 2d 60 67 3d 7c 03 8c bd
       -0.087164365 0.023674259 0.056488205 -0.06836602
000200 64 db cf 3b 7a 43 e8 bd 35 4b e1 bc 9e 4f ea bd
       0.006343292 -0.11340995 -0.027501682 -0.11440967
000210 4d 10 59 3d e2 3c 3d 3c 9a 13 a1 3c 9d 97 8a 3c
       0.05299406 0.01155016 0.019662667 0.016917998
000220 18 46 f4 bd 83 83 8b bc 07 7b 84 3c 48 7e e1 bb
       -0.11927432 -0.017030483 0.016171945 -0.006881509
000230 e1 71 8d bc c3 91 97 bd 7f 11 a7 3a c9 8c 98 bd
       -0.017266216 -0.07400849 0.0012746303 -0.07448728
000240 3a fc 1f bd e3 b6 58 3d f9 84 12 bd ad 8a 8b bd
       -0.0390589 0.05290879 -0.035771344 -0.0681356
000250 22 d3 41 3d 86 7f fc ba 3c 16 25 3d d8 16 a6 bd
       0.047320493 -0.0019264079 0.040304407 -0.08109826
000260 70 c4 b2 bd 97 a4 87 3a ae 8d 8e 3d a4 d2 0b be
       -0.08728874 0.0010348734 0.06960617 -0.13654572
000270 7e 41 40 3d 7a 72 65 bd 3e 96 9f bd 72 22 71 bd
       0.04693746 -0.056017376 -0.07792328 -0.05887074
000280 06 6d 8e bc d5 a4 2f bc 4a 78 05 bd 2f f6 01 3c
       -0.01738597 -0.010720451 -0.03258542 0.00793223
000290 e9 5b 21 3a c0 67 7f bc 96 2e 8c bd 2b 5b 18 3d
       0.0006155358 -0.015588701 -0.06844823 0.03719632
0002a0 bb 13 96 3d 2c f9 8d 3c 66 88 13 be a6 a8 48 3d
       0.07327982 0.017330728 -0.144075 0.04898896
0002b0 6d 36 c5 bc 17 e7 a2 3c 0a ca 06 bd c2 7b 60 3b
       -0.024073804 0.019885583 -0.032907523 0.0034253453
0002c0 e3 69 a8 bd b2 b6 1a bd 9d 47 ba bb 07 28 b0 bd
       -0.08223321 -0.037771888 -0.0056848065 -0.086013846
0002d0 d3 26 36 bd b5 cd de 3c df 33 bc bd 5e a1 3b bd
       -0.04447062 0.027197698 -0.09189581 -0.04580819
0002e0 f9 b8 48 3c 9a b6 03 be b7 4d 9e bc 2a 40 83 bd
       0.012251132 -0.12862626 -0.019324167 -0.06408723
0002f0 83 22 0f bd d3 09 0a 3d 31 58 95 bd 78 91 9f bd
       -0.034945022 0.033700775 -0.07292212 -0.07791418
000300 3f ba 95 ba ac 18 be bc 48 35 4a bc c3 de 25 bd
       -0.0011423304 -0.023205124 -0.012341805 -0.040495645
000310 48 8c 9f bd fd e2 a5 bc bb cd 27 bd ae 6e a3 bd
       -0.077904284 -0.020249838 -0.040967684 -0.07980095
000320 b1 a8 b3 bd 36 3b 7c bd 76 e0 9b bd ea 8e 8d bd
       -0.0877241 -0.061579905 -0.07611172 -0.06912024
000330 09 df 10 3b b4 27 05 ba 1b 09 30 bd 0e 0c fe bb
       0.0022105596 -0.00050794636 -0.042977434 -0.007752902
000340 b8 d0 1c bd fd 98 36 3d 58 80 bf bc f2 1a 63 bd
       -0.038284987 0.044579495 -0.023376629 -0.05544562
000350 d3 21 40 3d e7 c9 87 bc 37 b6 64 bd a8 bd ba bd
       0.046907257 -0.016575767 -0.055837836 -0.09118205
000360 ab d8 6c bd 74 3b ab bd c2 8b 12 3d cc 13 6f bd
       -0.05782382 -0.08360949 0.035777815 -0.05836849
000370 e4 56 54 bd c6 8a 0c 3c 6e 8e ad bd 04 79 2d be
       -0.051840678 0.008578008 -0.08474432 -0.16940695
000380 b0 11 54 bd 33 c7 f1 bc 2b 69 3d bd 0b 8e ae bd
       -0.05177468 -0.02951393 -0.046242874 -0.08523186
000390 0b 2e c8 bd c7 a0 51 bd 80 20 c7 bd 79 a1 f7 bc
       -0.09774407 -0.05117872 -0.09722996 -0.030228363
0003a0 b3 b3 39 3d 53 c2 8d bd 1c 31 4b 3d 04 c3 87 3c
       0.04533739 -0.0692183 0.04960738 0.016572483
0003b0 7b 1c 9a bd f2 96 75 bc fa 0d 48 3d 2d f6 e2 bc
       -0.075249635 -0.014989601 0.048841454 -0.027705276
0003c0 3b 0e 7a bc f7 92 e7 bd af c8 fe bc 8c c0 47 3c
       -0.015262182 -0.11307328 -0.031101553 0.012191903
0003d0 c8 82 1a 3d cd e7 67 b9 55 5b af bc 65 e7 b6 bd
       0.03772238 -0.00022116229 -0.021405855 -0.08930854
0003e0 82 d9 01 be 34 08 4b bd a7 49 4e 3d 12 46 86 bd
       -0.12680629 -0.04956837 0.05036321 -0.065563336
0003f0 71 69 f6 3c 9d 3f e0 3c 73 f4 ad 3c 8c 55 b3 bc
       0.030079575 0.027374083 0.021234727 -0.021891378

fc2.bias f4 [128]
000000 8a 76 a1 bd 78 4c 13 be 77 12 e8 bd 37 73 ca bd
       -0.07883938 -0.1438464 -0.11331647 -0.09885257
000010 04 3c 8a bd 05 08 1d be 1d 31 2a be 4a a0 80 bc
       -0.06749728 -0.1533509 -0.16620298 -0.015701432
000020 3d b5 b8 bd 79 24 24 be 59 89 af bd 02 d8 90 3f
       -0.090189435 -0.16029538 -0.08571119 1.131592
000030 f4 a8 19 be 6d bc f2 bd 23 08 fe bd 70 c9 a6 bd
       -0.15005857 -0.118523456 -0.12403896 -0.0814389
000040 2d 20 4b bc 0c e2 bb bc 76 0d ba bd 06 95 cc bc
       -0.012397808 -0.022934936 -0.09084599 -0.024973404
000050 80 77 51 bf 62 81 d7 bd a9 f9 08 be ae c2 a1 bd
       -0.8182297 -0.10522725 -0.13376488 -0.0789846
000060 ff c0 66 bd 0a f7 0d be d0 d9 bb bd f8 0b 22 be
       -0.0563364 -0.13863769 -0.09172404 -0.15824878
000070 06 a5 3b bd 6f 71 72 bd 60 da b3 bd 1b f4 08 be
       -0.045811675 -0.05919021 -0.08781886 -0.13374369
000080 dc 3a b0 bd 88 56 3e 3f 2c 66 81 bd 43 bd 57 be
       -0.086049765 0.74350786 -0.06318316 -0.21068291
000090 36 67 8b bc c7 69 ea bd cf ed 11 be 69 b7 56 be
       -0.017016988 -0.11445957 -0.14250873 -0.20968403
0000a0 15 61 a7 bd c7 fb a9 bd 15 1f ae bd 0b 9d 3c bd
       -0.08172814 -0.08299976 -0.08502022 -0.046048205
0000b0 1d f3 f8 bd 86 12 13 bf 68 02 2b be 08 5e cf bd
       -0.12155745 -0.5745014 -0.16700137 -0.10125357
0000c0 08 d3 92 bd a6 09 24 be f4 fc 4b bd 4f 02 57 be
       -0.07169157 -0.16019306 -0.04980178 -0.20996974
0000d0 75 3e ba bd 45 11 f1 bc 96 3c 1b bd 27 2a 1c be
       -0.09093944 -0.02942718 -0.037899576 -0.15250455
0000e0 f2 ef ae bd f0 02 6e be f9 f9 6c bd 2f c4 de bd
       -0.0854186 -0.23243308 -0.05785558 -0.10877263
0000f0 8a c4 8d 3f 1a 1c 9e bd e9 9f 9b bd bc 72 db bc
       1.1075604 -0.07720204 -0.0759886 -0.026788108
000100 67 f7 0b be dc e4 11 be 79 f5 3f be dd 42 43 be
       -0.13668595 -0.14247459 -0.18745984 -0.19068475
000110 34 e6 0e be 59 1f a5 bd ff 70 47 be 10 61 d2 bd
       -0.13955003 -0.0806262 -0.19476698 -0.102724195
000120 bc 28 9c bd 95 70 fd bd 97 4a 01 be b2 cf 19 be
       -0.07624957 -0.12374989 -0.1262611 -0.15020636
000130 1c cf ab bd c3 ee f2 bd ab c8 24 3f 03 e3 4c bd
       -0.08389112 -0.118619464 0.64368695 -0.050021183
000140 4a 8a 4a bd 5e 34 68 bd f3 e6 f5 bd 8b 2a a5 bd
       -0.04944829 -0.056690566 -0.12006941 -0.08064755
000150 00 61 a4 bd af 08 ca bd e7 38 4b bc 9a 7a 82 bd
       -0.08026314 -0.098649375 -0.012403703 -0.06371041
000160 50 21 ba 3f cc c1 68 3e 60 8b af bd 1c 91 a0 bd
       1.4541416 0.22730178 -0.085715055 -0.078401774
000170 cf 7f 07 be 0b 8c 25 be f9 09 88 be 87 1a 9a bd
       -0.13232349 -0.16166703 -0.2657011 -0.07524591
000180 41 3f d8 bd ca a1 24 bd 7c 46 04 be 89 97 01 be
       -0.1055894 -0.040193357 -0.12917513 -0.12655462
000190 b9 2e 29 be 84 fb 65 bd 36 6d 17 be d8 81 1c be
       -0.1652173 -0.056148067 -0.14787754 -0.15283906
0001a0 40 42 ec bd ff 07 ce bc 17 76 10 be a3 59 03 be
       -0.11536074 -0.025150297 -0.14107548 -0.12827162
0001b0 7c 73 3a be 4f 05 a4 3e 46 4d ca bc 12 c9 03 3e
       -0.18208116 0.320353 -0.02469505 0.12869671
0001c0 bc 5b e5 bd f5 27 1c be a9 77 37 3e 7c 04 fd bd
       -0.111991376 -0.15249617 0.1791674 -0.12354371
0001d0 7a 91 fd be de 15 1a be 03 d8 a5 bd 9d 3a d8 bc
       -0.49525052 -0.15047404 -0.080978416 -0.026395136
0001e0 3e bf 3b bd ee 38 27 be 88 b9 82 bd c2 ab 8f bd
       -0.04583668 -0.1633031 -0.063830435 -0.07015182
0001f0 5a 5c aa bd 43 32 07 be 1f aa 0a be 72 e0 df bd
       -0.08318396 -0.13202767 -0.13541459 -0.109314814

fc3.weight f4 [1, 128]
000000 b2 5f 1f 3c 63 5f 15 bc e4 d3 10 bc 06 93 7b bc
       0.009727405 -0.00911698 -0.008839581 -0.015354877
000010 78 a7 04 bb ad 68 93 3c 4b cc e9 bc a5 07 36 bb
       -0.002024142 0.01799425 -0.028539797 -0.0027775553
000020 6f 0e ab b9 12 58 0a bc a5 18 5a 3c 23 45 19 bc
       -0.00032626415 -0.008443849 0.01331154 -0.009354862
000030 b5 b9 db 3c f8 8f 00 3d 56 db 04 3d 42 3a ff bb
       0.02682195 0.0313873 0.032435738 -0.0077889273
000040 46 63 03 3a 6b 93 dd 3c 34 6b 80 3c 08 8e d1 3c
       0.00050120463 0.027047833 0.015676118 0.025580421
000050 62 47 85 bc 94 aa c4 bc 75 5a 6a bb 73 00 f6 3c
       -0.01626939 -0.02400712 -0.0035759483 0.030029511
000060 2e 53 cd 3c d6 b7 ac 3b 30 e7 f8 3b 46 41 86 3a
       0.025064077 0.0052709384 0.007595919 0.0010242842
000070 5b 41 d8 bc b0 ab c3 bc 16 31 86 bc 40 d0 e3 3c
       -0.026398351 -0.023885578 -0.016380828 0.027809262
000080 22 e8 ba bc bd 03 36 3c 73 b9 ed b8 c7 31 a6 38
       -0.022815768 0.01110929 -0.00011335583 7.9247686e-05
000090 c0 25 00 bc f5 2c bb 3c 00 8d b4 3b 37 da e4 3b
       -0.0078215 0.022848586 0.0055099726 0.006984021
0000a0 32 ac e2 3b 74 06 d5 bc 6b d4 17 3c 98 32 a4 3c
       0.0069175 -0.026004054 0.009266953 0.020043656
0000b0 e5 49 80 bc 30 89 58 3c ee 98 21 3b 70 aa 1d 3c
       -0.015660236 0.013216302 0.0024657804 0.009623155
0000c0 18 34 d1 3c 17 62 06 3c 4d dc c4 3c d2 61 b7 3c
       0.025537536 0.008202097 0.024030829 0.022385512
0000d0 9f 9c 32 3c a6 60 9a 3b bd a0 cc 3c b0 70 d3 bb
       0.010901599 0.0047112284 0.02497899 -0.0064526424
0000e0 a3 59 c8 bc 66 d7 5b 3b f1 41 7b 3c 1d 3e a7 3c
       -0.024456805 0.0033545136 0.015335546 0.02041536
0000f0 23 c4 7c 3c 9b ef c2 bc ef 88 f8 3c 94 c9 1d bc
       0.015427622 -0.023795893 0.030338733 -0.0096305795
000100 e3 32 72 bc 00 27 6c 3c 51 c0 b9 bb 43 5e 57 bc
       -0.01478264 0.014413595 -0.005668678 -0.013145032
000110 e3 01 ea bc 5a 89 a0 bb 8b aa d8 3c 65 9c c3 bc
       -0.028565353 -0.004899186 0.026448509 -0.023878286
000120 53 e7 c4 3b b4 94 d3 3b 5f 08 80 3c 43 ba ae bc
       0.0060090213 0.006456936 0.015628992 -0.02132905
000130 ef d3 80 bc 6a 1b 60 3c b9 7f 14 bc f1 f3 f8 3c
       -0.015726058 0.013678411 -0.009063655 0.030389758
000140 ba 2a ae bc a1 02 72 bb f9 0c ac 3c 23 4c 54 3c
       -0.021260608 -0.0036927836 0.02100228 0.0129576055
000150 7a 13 bc 3c 0d 12 8e 3c 28 3a d7 bc ab 99 67 3c
       0.022958506 0.017342592 -0.026272848 0.014135758
000160 9c eb de bc 26 a4 18 bc 55 a6 18 3a ac 02 30 bb
       -0.027211957 -0.00931648 0.0005823125 -0.0026857061
000170 0f 4e fa 3b a7 32 4f bc 66 57 66 bc ce cd 58 bc
       0.0076387 -0.012646354 -0.014058923 -0.013232661
000180 fc da d2 3b 12 f3 bc 3c 84 a2 b6 39 46 f7 d5 3c
       0.0064347964 0.023065124 0.0003483483 0.026118886
000190 8b f9 cb bc 72 cb fb 3c 6b 93 ad 3c b2 fe 91 bc
       -0.024899265 0.030736659 0.021188458 -0.017821644
0001a0 25 2e 8b 3c 0a 27 f6 3c b6 29 db 3c 57 fd 99 3c
       0.016989777 0.030047912 0.026753288 0.01879756
0001b0 68 18 05 bb 21 53 07 bc 33 bc 8f 3c fd 53 8e bc
       -0.0020308737 -0.008259566 0.017545795 -0.017374033
0001c0 be 1e ac bc 75 3b e6 3c 8b 22 b3 3c ca 99 77 3c
       -0.021010753 0.028104523 0.021867057 0.01511235
0001d0 7b b9 11 bc e1 ab a9 bc df 88 28 ba 88 e1 90 bc
       -0.00889432 -0.020711841 -0.0006429087 -0.017685667
0001e0 6d e3 96 b9 5a 43 d9 3a d4 96 fe ba 3a ad 2f bc
       -0.00028779675 0.0016575858 -0.0019423612 -0.010722453
0001f0 74 59 a6 3c 03 4d 92 bc 99 ea a0 bc ff bc 5a 3c
       0.020306326 -0.017858988 -0.019643115 0.013350724
