DRLND_deep_reinforcement_learning_nanodegree/p3_collab_compet/checkpoint_actor_b.pth (torch_old, 183804 bytes, 6 tensors)

fc1.weight f4 [256, 48]
0	0x3ef12191	0.47095922
1	0xbf12ffc3	-0.5742151
2	0x3c48e595	0.012261768
3	0xbd5c39e4	-0.053766146
4	0x3d68dd61	0.05685175
5	0xbf9f3d96	-1.244067
6	0x3c8dde1c	0.017317824
7	0xb9dcfbee	-0.00042149372
8	0x3f0fe1d3	0.56203955
9	0xbf03705f	-0.5134334
10	0x3cdb06f7	0.02673672
11	0x3cdad798	0.026714131
12	0x3cdd1e2c	0.026991926
13	0xbfac63e5	-1.3467985
14	0x3db55f75	0.088560976
15	0x3df0873e	0.117445454
16	0x3ef59579	0.479656
17	0xbf12565e	-0.57163036
18	0xbe2f1430	-0.17097545
19	0xbe9882d8	-0.29787326
20	0x3e1fe533	0.15614776
21	0xbf7a2015	-0.97705203
22	0xbe0798df	-0.1324191
23	0xbe693c49	-0.22776903
24	0x3e656f0d	0.22405644
25	0xbbbf88cd	-0.0058451653
26	0x3e1a7d25	0.15086801
27	0x3d90bfcd	0.07067833
28	0xbd725c28	-0.05916992
29	0xbfa602e8	-1.2969637
30	0x3e7b907a	0.24566832
31	0x3d9c098d	0.07619009
32	0x3e9b9fd1	0.30395368
33	0x3dcb8c2c	0.09938845
34	0x3dfe0ecd	0.12405167
35	0x3e5dbc6c	0.21653908
36	0xbd403b8d	-0.046931792
37	0xbfac2b2e	-1.3450677
38	0x3dbac728	0.09120017
39	0x3e86f3d5	0.26357904
40	0x3ea989f2	0.33113056
41	0x3e3771be	0.17914483
42	0xbda38256	-0.07983844
43	0x3c2e6c5b	0.010645951
44	0xbe168239	-0.14698114
45	0xbf78d82c	-0.9720485
46	0xbd07ef6e	-0.033187322
47	0x3d2fc4d9	0.042912338
48	0x3e43a34f	0.19105266
49	0xbb0e3fca	-0.0021705502
50	0xbdc13c4e	-0.0943533
51	0xbea666a5	-0.32500187
52	0x3e56fe70	0.20995498
53	0xbdfaf9b2	-0.12254657
54	0xbd7b6eaa	-0.061384834
55	0xbe9a2ad2	-0.30110794
56	0x3e700ab3	0.23441581
57	0xbd0a97db	-0.033836227
58	0xbde5ede6	-0.11227016
59	0xbef2d660	-0.4742918
60	0xbe45083b	-0.19241421
61	0xbe3aa5a3	-0.18227248
62	0xbcbd13dc	-0.023080759
63	0xbedeec80	-0.4353981
64	0x3e4e5ecc	0.2015335
65	0xbd15d4c7	-0.036579873
66	0x3cefe3a5	0.029283354
67	0xbf10294a	-0.56313
68	0xbef107e7	-0.47076342
69	0xbee0c06d	-0.4389681
70	0x3c73fa59	0.0148912305
71	0xbf1ba370	-0.6079626
72	0xbf1ac8fd	-0.60462934
73	0xbf9c8f0d	-1.2231156
74	0x3d308b8b	0.04310183
75	0xbaf1b88e	-0.0018441842
76	0xbe83ca9c	-0.25740516
77	0xbe02fc24	-0.12791497
78	0x3d20ad4b	0.039227765
79	0xbd524e9d	-0.051344503
80	0xbf0fa679	-0.5611339
81	0xbf9eecb1	-1.2415982
82	0xbd685163	-0.05671824
83	0x3c8d4f09	0.017249601
84	0x3e3fd1da	0.18732396
85	0xbe94b49c	-0.29044044
86	0xbdab32c0	-0.08359289
87	0xbd45e189	-0.04831079
88	0xbf047f08	-0.51756334
89	0xbf724f06	-0.9465183
90	0xbe5ddcc5	-0.21666248
91	0xbe1e6208	-0.15467083
92	0x3ebc2a28	0.36750913
93	0xbed412cc	-0.4142059
94	0xbe932e14	-0.28746092
95	0xbdeb51ea	-0.11490233
96	0x3e8179b4	0.25288165
97	0xbe6ff340	-0.23432636
98	0xbd47d6ca	-0.048788823
99	0x3ee7cd4f	0.45273826
100	0xbe9957ee	-0.29949898
101	0xbf26ab4a	-0.65105116
102	0xbd9cd9b4	-0.07658711
103	0x3f0ba966	0.54555357
104	0x3eb001ff	0.34376523
105	0xbe4a6fa0	-0.19769144
106	0x3d5f1e30	0.05447215
107	0x3e4c5c11	0.19956996
108	0xbe1ab0f6	-0.15106568
109	0xbf3e1333	-0.74248046
110	0x3cc2940e	0.023752239
111	0x3df0a4ad	0.117501594
112	0x3ebe7e52	0.3720575
113	0xbe0e457b	-0.13893692
114	0x3d851554	0.06498209
115	0x3edc6861	0.43048385
116	0x3d96f5fb	0.07371136
117	0xbf4ec4d9	-0.80769116
118	0x3d49dc32	0.04928226
119	0x3ee3fe5e	0.44530004
120	0x3edf9ab1	0.43672708
121	0xbecd88d7	-0.40143463
122	0xbe8a8707	-0.27056143
123	0xbee5e9b6	-0.4490487
124	0x3e872113	0.2639242
125	0xbf26d67c	-0.6517103
126	0xbe4f4256	-0.20240149
127	0xbef1e7e8	-0.47247243
128	0x3f1067fd	0.56408674
129	0xbe891ea6	-0.26781195
130	0x3d6b4fee	0.057449274
131	0xbcd46356	-0.025926273
132	0x3dd81337	0.1055054
133	0xbf39c38d	-0.7256401
134	0x3df429df	0.11922049
135	0xbdfea253	-0.12433305
136	0x3f19f06d	0.60132486
137	0xbe9c104c	-0.30481184
138	0xbe44389b	-0.19162218
139	0x3eb76f13	0.3582693
140	0xbdb70a51	-0.089375146
141	0xbf5778c1	-0.8416863
142	0xbdae2631	-0.08503378
143	0x3ea72e3d	0.32652465
144	0x3dd14ab1	0.102193244
145	0x3d7c3e3b	0.061582785
146	0xbbd1e252	-0.0064051533
147	0x3de76b07	0.11299711
148	0x3e8bd58c	0.2731136
149	0x3eea2c19	0.4573677
150	0x3d295886	0.04134419
151	0x3d41df5b	0.04733215
152	0x3c9a70cb	0.018852612
153	0xbe163387	-0.14668094
154	0x3bc05d7c	0.005870519
155	0xbd0eed31	-0.034894172
156	0xbf92b1ae	-1.1460474
157	0x3eb2219e	0.34791273
158	0xbc87b090	-0.016563684
159	0xbc47dd20	-0.012198716
160	0x3e47320d	0.19452687
161	0x3cd6f8f2	0.026241753
162	0x3d127908	0.035759956
163	0xbe257e43	-0.16161446
164	0xc02f65e0	-2.740593
165	0xbdfd9f3c	-0.12383887
166	0xbd6ef0e5	-0.058335204
167	0xbe1002e2	-0.140636
168	0x3e1d5614	0.15364867
169	0x3e27ac5a	0.1637434
170	0xbc457186	-0.012050992
171	0xbdb90b06	-0.09035306
172	0xbebe34b9	-0.371496
173	0x3ed6cf3d	0.41954985
174	0x3c7cd244	0.015430991
175	0xbdbe9462	-0.093056455
176	0x3e72f86e	0.23727581
177	0x3d54803c	0.051880106
178	0xbcb707a3	-0.022342509
179	0x3e1e00a8	0.15429938
180	0x3f969848	1.1765223
181	0x3e9b5523	0.30338392
182	0x3c449976	0.011999479
183	0x3db64c06	0.08901219
184	0x3eb15e6e	0.34642357
185	0x3e620a46	0.22074232
186	0x3cabcf42	0.020972852
187	0x3dcb20df	0.09918379
188	0x40333115	2.7998707
189	0xbc548dad	-0.012973231
190	0xbd812931	-0.06306685
191	0x3db1433c	0.08655402
192	0x3c3b8a74	0.011446584
193	0xbeaba557	-0.33524582
194	0x3d082a8c	0.0332437
195	0xbec331a5	-0.38123813
196	0x3c2248b3	0.009905028
197	0xbda1724d	-0.07883129
198	0x3dccc27b	0.09998032
199	0xbed0888e	-0.40729183
200	0x3dbc1ddc	0.09185383
201	0xbebcd372	-0.3688007
202	0xbdefc6f8	-0.11707872
203	0xbe690ec5	-0.2275954
204	0xbe0c43dc	-0.13697761
205	0xbe19cb5f	-0.15018986
206	0xbe3cb108	-0.18426907
207	0xbe3f9cf1	-0.18712212
208	0x3e13051d	0.1435742
209	0xbe83960a	-0.25700408
210	0xbe0aa186	-0.13538179
211	0x3cd183f8	0.025575623
212	0xbedf5f5d	-0.43627444
213	0xbeb66891	-0.35626653
214	0xbdbe6514	-0.09296623
215	0xbd265ec6	-0.040617727
216	0x3ece0b10	0.40242815
217	0x3f9fc32b	1.2481436
218	0xbe0cf053	-0.13763551
219	0x3e93296c	0.2874254
220	0xbda4e891	-0.08052171
221	0xbd2b5ff3	-0.04183955
222	0xbda0045a	-0.0781333
223	0x3ed0c13b	0.40772423
224	0x3ec85892	0.39130074
225	0x3f98acf6	1.1927783
226	0xbd504f91	-0.05085713
227	0xbc3c91d8	-0.011509381
228	0x3e057126	0.13031444
229	0xbe65cbf6	-0.22441086
230	0x3b547ffa	0.0032424913
231	0xbd969ee6	-0.07354526
232	0x3efdc69f	0.49565598
233	0x3f8c1a1b	1.0945467
234	0x3d127c9c	0.035763368
235	0xbedefb3a	-0.43551046
236	0x3efd15d8	0.49430728
237	0xbec37834	-0.38177645
238	0x3dc8be3d	0.0980191
239	0xbefa739f	-0.48916337
240	0x3f2269e3	0.6344282
241	0xbe488e24	-0.19585472
242	0x3c3accf9	0.011401408
243	0xbc21022a	-0.009827176
244	0xbe0481de	-0.12940165
245	0xbf707bd6	-0.9393896
246	0x3cea0cde	0.028570589
247	0xbc390f77	-0.011295191
248	0x3f3f23d5	0.7466405
249	0xbe39c08f	-0.18139862
250	0x3d1d3844	0.038383737
251	0x3dce02a4	0.100590974
252	0xbd154f6a	-0.03645269
253	0xbf801e7c	-1.0009303
254	0x3c932925	0.017963955
255	0x3dc5a0f3	0.09649839

fc1.bias f4 [256]
0	0xbe905a7d	-0.28194037
1	0x3e97fc00	0.29684448
2	0xbf199429	-0.599917
3	0xbec82758	-0.39092517
4	0xbf0131eb	-0.50466794
5	0xbeb6617c	-0.3562125
6	0xbe9d539d	-0.30727854
7	0xbe18f88d	-0.14938565
8	0xbea1d80e	-0.3161015
9	0xbe64d161	-0.22345497
10	0xbeadf120	-0.33973026
11	0xbe767ea8	-0.24071753
12	0xbe8bfe35	-0.27342382
13	0x3e8b1156	0.27161664
14	0xbf379898	-0.71717215
15	0xbecefaa5	-0.40425602
16	0xbe88b715	-0.2670218
17	0xbf38cd03	-0.72187823
18	0xbf07e90d	-0.5308998
19	0x3e47f4dd	0.19527002
20	0x3e913e53	0.28367862
21	0xbf1563e8	-0.5835557
22	0xbeb9f276	-0.36317796
23	0xbeec515d	-0.46155825
24	0x3e573ab8	0.21018493
25	0xbf1d8e28	-0.6154504
26	0x3d539f52	0.05166561
27	0xbe2d1453	-0.16902284
28	0xbebc890e	-0.36823314
29	0xbf141148	-0.5783887
30	0xbe690f0d	-0.22759648
31	0xbe62ed5f	-0.22160862
32	0xbe3a2de8	-0.18181574
33	0xbebc2a81	-0.36751178
34	0xbf215e10	-0.63034153
35	0xbf40b1f7	-0.7527155
36	0xbf1a2646	-0.6021465
37	0x3ec10465	0.37698665
38	0xbecc372e	-0.3988585
39	0xbf197ae4	-0.5995314
40	0xbefba7cd	-0.4915146
41	0xbee825df	-0.45341393
42	0xbf2e4e09	-0.6808782
43	0xbeaa6340	-0.33278847
44	0xbf170ea0	-0.5900669
45	0xbf21b605	-0.63168365
46	0xbe8eaa31	-0.2786422
47	0xbf31977c	-0.6937177
48	0xbee3b6e3	-0.4447547
49	0xbeda43bf	-0.4262981
50	0xbf1b6642	-0.6070291
51	0xbe11fc5d	-0.14256425
52	0xbe94c07a	-0.29053098
53	0xbec63aad	-0.3871664
54	0xbf1a9471	-0.60382754
55	0xbf066fff	-0.5251464
56	0xbede123b	-0.43373284
57	0xbeb4afff	-0.35290524
58	0xbef7acc3	-0.48373994
59	0xbf063906	-0.5243076
60	0xbeab39e1	-0.33442596
61	0xbf03668d	-0.51328355
62	0xbf060741	-0.5235482
63	0x3e0c4dee	0.13701603
64	0x3ee99a03	0.45625314
65	0xbee00f7d	-0.43761817
66	0xbf0121f5	-0.5044244
67	0xbed8b570	-0.42325926
68	0x3e1e76f3	0.15475063
69	0xbbc869bf	-0.0061161215
70	0xbe96512d	-0.29358807
71	0xbf60a58e	-0.87752616
72	0xbee4d786	-0.4469568
73	0xbe55a4c4	-0.20863634
74	0x3f59d920	0.8509693
75	0xbf0b30a8	-0.5437112
76	0xbf3e3070	-0.7429266
77	0xbf0a2733	-0.53966063
78	0xbed8ae0f	-0.42320296
79	0xbcfcf034	-0.030876257
80	0xbf00e6f2	-0.50352395
81	0xbea76ddd	-0.32701007
82	0xbed2d764	-0.41179955
83	0xbec59295	-0.38588396
84	0xbeca9b77	-0.39571735
85	0xbf55ca61	-0.8351193
86	0xbee52628	-0.44755673
87	0xbeb703a7	-0.35744974
88	0xbe4efac7	-0.20212851
89	0xbf0a579b	-0.54039925
90	0xbf3daf17	-0.7409529
91	0x3eb65f1e	0.35619444
92	0xbe8500b1	-0.2597709
93	0xbf027732	-0.5096313
94	0xbf4a6dd1	-0.79073817
95	0xbf08545f	-0.5325374
96	0xbe23bccc	-0.15989989
97	0x3f3198d3	0.69373816
98	0xbe6f00ae	-0.23340103
99	0xbe2bec6d	-0.16789408
100	0xbf2aae00	-0.6667175
101	0xbf060011	-0.5234385
102	0xbebc24b2	-0.36746746
103	0xbf3493c9	-0.70538
104	0xbf41549b	-0.7551972
105	0xbeac6857	-0.33673355
106	0xbf11d89e	-0.56971157
107	0xbeda721e	-0.4266519
108	0x3e30b71a	0.17257348
109	0xbf27498e	-0.6534661
110	0xbf2fef0e	-0.68724144
111	0xbdbd5a47	-0.09245735
112	0xbee12436	-0.4397294
113	0xbf00318a	-0.5007559
114	0xbefb8633	-0.49125823
115	0xbf0babb9	-0.545589
116	0xbf311b8c	-0.6918266
117	0x3d652529	0.05594364
118	0xbf20dfa6	-0.6284126
119	0x3ea4cdbe	0.3218822
120	0xbed770ad	-0.42078152
121	0xbec7a50d	-0.3899311
122	0xbcbaf5be	-0.022822257
123	0x3ed1ab21	0.40950873
124	0xbeef8d73	-0.46787605
125	0xbee09abd	-0.43868056
126	0xbe890b43	-0.26766405
127	0xbe8a1f0f	-0.2697682
128	0xbec22484	-0.37918484
129	0x3ed9b542	0.425211
130	0xbe82412c	-0.25440347
131	0xbef1e325	-0.4724361
132	0xbf29d3e0	-0.6633892
133	0xbf356940	-0.70863724
134	0xbef06f78	-0.46960044
135	0xbd340c19	-0.04395685
136	0xbd099f08	-0.03359893
137	0xbefe04df	-0.4961309
138	0xbf10c469	-0.565497
139	0xbf226920	-0.6344166
140	0xbf04e616	-0.51913583
141	0xbe830e43	-0.25596818
142	0xbef904b1	-0.48636392
143	0xbf171fb3	-0.59032744
144	0xbe6329cc	-0.22183913
145	0xbeb17fa6	-0.346677
146	0xbe88d64b	-0.26725993
147	0xbe4cc48d	-0.19996853
148	0xbf0361bb	-0.51321
149	0xbebb14b5	-0.36539236
150	0xbe90fed8	-0.2831943
151	0xbf338071	-0.7011786
152	0xbf021cb5	-0.50825053
153	0xbe973003	-0.29528818
154	0xbf04e50a	-0.51911986
155	0xbef5167c	-0.47868717
156	0xbeee217a	-0.46509916
157	0xbeceaf59	-0.40368155
158	0xbeeb65a6	-0.4597599
159	0xbf1d6665	-0.61484367
160	0xbf2238f4	-0.63368154
161	0xbea04552	-0.31302887
162	0xbf269dfc	-0.65084815
163	0xbf3627b0	-0.7115431
164	0xbe999246	-0.2999441
165	0xbdae8269	-0.085209675
166	0xbf31ccd3	-0.6945316
167	0xbe04f3dc	-0.1298365
168	0xbf1c0e07	-0.60958904
169	0xbf256e9c	-0.646219
170	0xbef244cc	-0.47318113
171	0xbefa7bfb	-0.48922715
172	0xbf1c6143	-0.6108591
173	0xbef587a5	-0.4795505
174	0xbef44650	-0.47709894
175	0xbe47cbd0	-0.19511342
176	0xbf07ef70	-0.5309973
177	0xbf1131dd	-0.5671671
178	0xbec12212	-0.37721306
179	0xbe30af03	-0.17254262
180	0xbecaf141	-0.39637187
181	0x3f0078f5	0.50184566
182	0xbf1ceeaf	-0.613017
183	0xbf20b199	-0.6277099
184	0xbd993a9a	-0.074818805
185	0xbee14371	-0.43996766
186	0x3daf231a	0.08551617
187	0xbee8b50f	-0.45450637
188	0xbf14b2df	-0.58085436
189	0xbeb87a85	-0.36030975
190	0xbeb0324a	-0.34413368
191	0xbe369480	-0.17830086
192	0xbf04ad97	-0.5182738
193	0xbea3d4f1	-0.319984
194	0xbe82e608	-0.25566125
195	0xbee72cab	-0.45151266
196	0xbf385d81	-0.72017676
197	0xbec1bda5	-0.3784
198	0xbefbd816	-0.49188298
199	0xbf45869c	-0.7715852
200	0xbec75298	-0.38930202
201	0xbe85b62e	-0.26115555
202	0xbe9f3960	-0.3109846
203	0xbec1c0e9	-0.3784249
204	0xbe9c1c7c	-0.30490482
205	0xbf0a7a24	-0.5409262
206	0xbe8a5d90	-0.27024508
207	0xbf19e154	-0.6010945
208	0xbefc7b1c	-0.49312675
209	0xbeead8da	-0.4586857
210	0xbf33b9b7	-0.70205253
211	0xbf60462a	-0.8760706
212	0xbeeeacc9	-0.466162
213	0xbc4b7be8	-0.012419678
214	0xbe987fcc	-0.29785
215	0xbeadeb3d	-0.33968535
216	0xbf33cab1	-0.7023116
217	0xbe28eca0	-0.16496515
218	0xbf269f90	-0.65087223
219	0xbe199902	-0.14999774
220	0x3e978c8f	0.29599425
221	0xbf17b7ba	-0.5926472
222	0xbf120c2d	-0.5704983
223	0xbef40f75	-0.47668043
224	0xbea11ab0	-0.31465673
225	0x3da482d8	0.08032769
226	0xbf0fe92b	-0.5621516
227	0xbf1399b6	-0.5765642
228	0xbed320ca	-0.41235954
229	0x3f461503	0.7737581
230	0xbeda7e88	-0.4267466
231	0xbef7c808	-0.483948
232	0xbf0a000d	-0.5390633
233	0xbeba6f0b	-0.36412844
234	0xbec456e4	-0.38347542
235	0x3f69fa1b	0.91397256
236	0xbe86fa7a	-0.26362973
237	0xbea37519	-0.31925276
238	0xbe89b778	-0.26897788
239	0xbf02e35e	-0.51128185
240	0xbf1c03c1	-0.6094323
241	0xbea9ab75	-0.33138624
242	0xbf00b189	-0.502709
243	0xbc2b530e	-0.0104568135
244	0xbf0af1d7	-0.5427527
245	0xbee59595	-0.44840685
246	0x3cabfe31	0.020995231
247	0xbf1b113c	-0.6057317
248	0xbf024a0f	-0.50894254
249	0xbea2e308	-0.31813836
250	0xbee42f0e	-0.4456715
251	0xbf2032f0	-0.62577724
252	0xbf0b5e72	-0.5444099
253	0xbd1f38b9	-0.038872454
254	0x3e4e0f22	0.2012296
255	0xbeef098d	-0.46686974

fc2.weight f4 [128, 256]
0	0x3e4b9211	0.19879939
1	0xbe24dcd6	-0.16099867
2	0x3e41a00c	0.1890871
3	0xbe07578a	-0.13216987
4	0xbe8f3359	-0.27968863
5	0xbdf87fbb	-0.12133738
6	0xbe822f64	-0.2542678
7	0xbe63a4bd	-0.22230811
8	0x3aaa6359	0.0012999579
9	0xbeb1379b	-0.34612736
10	0xbe633437	-0.22187887
11	0xbc2f1fdd	-0.010688749
12	0xbe9a8180	-0.30176926
13	0xbe53cfa3	-0.20684676
14	0x3dddc7c8	0.10829121
15	0xbd48c26d	-0.049013544
16	0xbe61965d	-0.22030015
17	0xbd92a3cb	-0.07160147
18	0xbe79205a	-0.24328747
19	0xbbd94d2e	-0.006631515
20	0xbe8098fb	-0.25116715
21	0xbed762f9	-0.42067698
22	0xbe4531b6	-0.19257244
23	0x3db1f9ac	0.08690199
24	0xbf0131b4	-0.50466466
25	0xbe04d50a	-0.12971893
26	0xbea8575b	-0.32879147
27	0x3d922ec9	0.0713783
28	0xbdc81aa1	-0.09770704
29	0xbe649655	-0.22322972
30	0xbea7d121	-0.3277674
31	0xbe80b7d0	-0.25140238
32	0xbd8f0509	-0.06983382
33	0x3db4ba21	0.08824564
34	0xbe79bff1	-0.24389626
35	0xbe0668f4	-0.13125974
36	0xbe72544d	-0.2366497
37	0xbe27ece2	-0.16398957
38	0xbe1f9a2c	-0.15586156
39	0xbc44fd88	-0.012023337
40	0x3d9a4e77	0.07534497
41	0x3e018a26	0.12650356
42	0xbddcd2a7	-0.10782366
43	0xbeb757d0	-0.35809183
44	0xbe2bb832	-0.16769484
45	0x3e17970a	0.1480371
46	0xbe42cec9	-0.19024195
47	0x3e39766b	0.18111579
48	0xbeb0b85b	-0.34515652
49	0x3d7d2195	0.061799604
50	0x3d120d7a	0.035657384
51	0xbe3007f8	-0.1719054
52	0x3e447c27	0.19187985
53	0xbeb25947	-0.34833738
54	0xbe412207	-0.18860637
55	0xbe52c407	-0.20582591
56	0xbe07ddad	-0.13268156
57	0x3da69fbc	0.08135936
58	0xbe49a920	-0.19693422
59	0xbdabe314	-0.08392921
60	0xbd0a22b7	-0.033724513
61	0xbad5ee25	-0.0016321583
62	0x3d30a875	0.043129403
63	0xbee08527	-0.43851587
64	0xbd1a7091	-0.037705008
65	0xbdee10d8	-0.116243064
66	0xbcf42b41	-0.029805781
67	0xbe708923	-0.23489814
68	0xbee21994	-0.4416014
69	0xbec32630	-0.38115072
70	0xbe373205	-0.17890175
71	0xbe822cc1	-0.2542477
72	0x3e0a1b6c	0.13487023
73	0xbee1c5b9	-0.44096163
74	0x3d771555	0.06032308
75	0xbe23f8db	-0.160129
76	0x3d86cc82	0.065819755
77	0x3bf830d4	0.00757418
78	0x3d0e4d44	0.034741655
79	0xbea41655	-0.32048288
80	0xbe2eb503	-0.17061238
81	0x3e15eadd	0.14640374
82	0xbe725d4f	-0.23668407
83	0x3cc94170	0.024567336
84	0x3dec60d1	0.11541904
85	0xbc60e04b	-0.013725351
86	0x3e547e1f	0.20751236
87	0xbd18a72b	-0.0372688
88	0xbdb0d2de	-0.0863397
89	0x3e466810	0.19375634
90	0xbeeb2374	-0.45925486
91	0xbe4f2baf	-0.20231508
92	0xbdbf161c	-0.09330389
93	0x3da90797	0.08253401
94	0xbd940f07	-0.07229429
95	0xbe09be4b	-0.13451497
96	0xbe406d54	-0.18791705
97	0xbea6c3c8	-0.32571244
98	0x3e08d68f	0.13363098
99	0x3c8f3959	0.0174834
100	0xbe1d17ef	-0.15341161
101	0xbdf090f9	-0.11746401
102	0xbda86fce	-0.0822445
103	0xbea8747e	-0.32901376
104	0xbec43aca	-0.38326102
105	0x3d29cae7	0.04145327
106	0xbd48acbb	-0.048992854
107	0xbe6496c9	-0.22323145
108	0xbe6f3aca	-0.2336227
109	0xbee7a15a	-0.4524029
110	0x3de31303	0.110876106
111	0xbe631bce	-0.22178575
112	0xbe640a1e	-0.22269484
113	0xbe691555	-0.22762044
114	0xbe8efebf	-0.2792873
115	0xbe4bf56e	-0.19917843
116	0xbdd3bcda	-0.10338755
117	0xbd65b233	-0.056078147
118	0xbe7a0d88	-0.24419224
119	0xbe266fcd	-0.16253586
120	0xbd1607ae	-0.036628418
121	0x3da84416	0.08216111
122	0xbec2357e	-0.37931436
123	0xbea1d196	-0.31605214
124	0xbdafffc4	-0.08593705
125	0xbde998b9	-0.11406083
126	0xbe3ea8a1	-0.18619014
127	0xbbd1ce0e	-0.0064027375
128	0xbe89acf1	-0.26889756
129	0xbe22145d	-0.1582808
130	0x3dc6e4fa	0.097116426
131	0xbe4acc6f	-0.19804548
132	0xbe64cf28	-0.22344649
133	0xbe5ca98c	-0.21549052
134	0xbe1d4661	-0.15358879
135	0xbe8487ac	-0.2588476
136	0xbedc6228	-0.43043637
137	0x3df6365a	0.120220855
138	0xbe4af489	-0.19819845
139	0xbd478e93	-0.048719954
140	0xbe5ee990	-0.21768785
141	0x3e6dcb3b	0.23222058
142	0x3e39ed18	0.1815685
143	0xbeca73d4	-0.39541495
144	0x3e6c1b47	0.2305728
145	0x3c53c882	0.012926223
146	0xbda67f3f	-0.08129739
147	0xbe87e65b	-0.26542935
148	0x3bc58ed7	0.0060289907
149	0xbec45eea	-0.38353664
150	0xbe42bc36	-0.1901711
151	0xbddef479	-0.10886473
152	0xbe532126	-0.20618114
153	0x3e8107bc	0.25201213
154	0x3db19014	0.08670059
155	0x3d2ae726	0.041724347
156	0xbe711641	-0.23543645
157	0xbe68f684	-0.22750288
158	0x3dc1629f	0.094426386
159	0xbe98ff0c	-0.29882085
160	0xbe9dead4	-0.30843222
161	0xbe002992	-0.12515858
162	0xb957cb56	-0.00020579746
163	0xbe2910b3	-0.16510276
164	0xbe4b8ec0	-0.19878674
165	0xbd917712	-0.07102789
166	0x3cb995c3	0.02265442
167	0x3e36369e	0.17794272
168	0xbe841849	-0.25799778
169	0xbe3f3ba1	-0.1867509
170	0xbe6fe747	-0.23428069
171	0xbe75e7e9	-0.24014248
172	0xbdee13b2	-0.1162485
173	0xbe8997c5	-0.26873603
174	0xbcfa34a8	-0.030542687
175	0x3d7f5175	0.062333543
176	0xbe05a83d	-0.13052459
177	0xbb5c1017	-0.0033578926
178	0xbe1d3500	-0.15352249
179	0xbbf3873f	-0.007431894
180	0xbe9a2268	-0.30104375
181	0x3e6678ac	0.2250697
182	0x3e1d014c	0.15332526
183	0x3cff8794	0.031192578
184	0xbea36ee2	-0.31920534
185	0xbdbafa89	-0.09129817
186	0xbdbdef64	-0.09274176
187	0x3d13793e	0.036004297
188	0xbe8c360e	-0.2738499
189	0x3de2910f	0.11062824
190	0x3d38587c	0.04500626
191	0xbd5c0e11	-0.053724352
192	0xbd99f697	-0.075177364
193	0xbeafc6b1	-0.34331277
194	0x3e561936	0.20908055
195	0x3de9c7ab	0.11415037
196	0xbed08fc0	-0.40734673
197	0xbe3de1a9	-0.18543114
198	0x3e0bae39	0.1364068
199	0xbe538a77	-0.20658289
200	0xbdeba1b8	-0.11505455
201	0xbce03e5a	-0.027373482
202	0xbd01ab82	-0.031657703
203	0xbd646315	-0.055758554
204	0x3bf4c149	0.0074693304
205	0x3ddc6176	0.10760777
206	0xbda0854a	-0.07837923
207	0x3d73547f	0.059406754
208	0xbe5113fe	-0.20417783
209	0xbd82c24e	-0.06384717
210	0x3e89472e	0.26812118
211	0x3e4fa59f	0.20278023
212	0xbd52bf25	-0.05145182
213	0xbd97ef05	-0.07418636
214	0x3cd46b98	0.025930211
215	0x3c4d533a	0.01253205
216	0x3d84af08	0.06478697
217	0xbcffbd68	-0.031218246
218	0xbd8d77ba	-0.06907602
219	0xbf12cc3e	-0.573429
220	0xbc2561d0	-0.010094121
221	0xbe3ab59f	-0.18233345
222	0xbd449d8e	-0.04800182
223	0x3e08c0a1	0.13354732
224	0x3df77b3d	0.12084053
225	0xbe980b91	-0.29696324
226	0x3e486588	0.19569981
227	0xbe827998	-0.25483394
228	0xbe663c38	-0.22483909
229	0xbe295fc6	-0.16540441
230	0x3e7eb37f	0.2487316
231	0x3e161c84	0.14659315
232	0xbc34c035	-0.011032154
233	0x3dfdf303	0.123998664
234	0x3c989b69	0.018628793
235	0xbe9b2bc5	-0.3030683
236	0xbde881d5	-0.113528885
237	0xbe49615b	-0.19666044
238	0xbe53066f	-0.20607923
239	0x3e6608ef	0.22464345
240	0x3defc5b8	0.11707634
241	0xbe2371c1	-0.15961362
242	0xbdaf8799	-0.08570785
243	0xbe07e510	-0.13270974
244	0x3e129512	0.14314678
245	0xbc8cc22a	-0.017182428
246	0x3e58e609	0.21181501
247	0xbd6ecbf7	-0.058299985
248	0xbe11e936	-0.14249119
249	0x3df9b3e2	0.12192513
250	0xbe985495	-0.2975203
251	0xbbb41637	-0.0054958123
252	0xbd12cace	-0.03583794
253	0xbe138cbd	-0.14409156
254	0xbe1d397e	-0.15353963
255	0x3e17400d	0.14770527

fc2.bias f4 [128]
0	0xbe674bdf	-0.22587536
1	0x3e647822	0.22311452
2	0xbc738acb	-0.014864634
3	0xbf2a2070	-0.66455746
4	0xbf2df877	-0.6795725
5	0xbea49cca	-0.3215087
6	0xbe97c8f2	-0.29645497
7	0xbe87aa4d	-0.26497117
8	0x3e1d17b7	0.15341078
9	0xbe79b6e1	-0.24386169
10	0xbf21131e	-0.62919796
11	0xbd2a5cf6	-0.04159256
12	0xbf46763d	-0.7752417
13	0xbef62ab2	-0.4807945
14	0xbea4b631	-0.3217025
15	0xbf15345e	-0.5828303
16	0x3c7fd662	0.015615078
17	0xbf0d480f	-0.5518808
18	0xbe0f4542	-0.13991264
19	0x3d58ef31	0.052962486
20	0xbe91c9b9	-0.28474215
21	0xbdd84774	-0.105605036
22	0xbe07ae72	-0.1325014
23	0xbdcbc4e8	-0.09949666
24	0xbe94a9c0	-0.2903576
25	0xbe93455e	-0.2876386
26	0x3eaeebaf	0.34164187
27	0xbecfc4b5	-0.40579763
28	0xbed29819	-0.41131666
29	0xbdac96cb	-0.08427199
30	0xbe3b3624	-0.18282372
31	0xbe81eefa	-0.25377637
32	0xbe202e49	-0.15642656
33	0xbea229a1	-0.31672385
34	0xbe683656	-0.22676978
35	0xbe22c373	-0.1589487
36	0xbdd36255	-0.1032149
37	0xbccd7ab2	-0.02508292
38	0xbf042335	-0.5161622
39	0xbdf28ce6	-0.118432805
40	0xbe16ea63	-0.14737849
41	0xbde89415	-0.113563694
42	0x3e12f7e4	0.14352375
43	0xbe6354ea	-0.22200361
44	0xbea1451a	-0.31498033
45	0xbe8eb8a0	-0.27875233
46	0xbf1d5582	-0.614586
47	0xbe110869	-0.14163364
48	0xbe8d67df	-0.2761831
49	0xbed4efc7	-0.41589186
50	0xbe330c52	-0.17485169
51	0xbb63ebc8	-0.0034777988
52	0xbe18ac6d	-0.14909525
53	0x3dcb13e5	0.09915904
54	0xbd9409d9	-0.07228441
55	0xbeb409c3	-0.35163698
56	0xbf130ab4	-0.57438207
57	0xbeb0bda2	-0.34519678
58	0xbe9c1bd6	-0.30489987
59	0xbd26c767	-0.04071751
60	0xbd5d60fc	-0.05404757
61	0xbdb80d6f	-0.08986937
62	0xbf0af8ed	-0.5428608
63	0x3e8240b1	0.2543998
64	0xbe312591	-0.17299487
65	0xbeacfec4	-0.3378812
66	0xbe6491fb	-0.22321312
67	0xbe3b00c0	-0.18262005
68	0x3d4a91c6	0.049455427
69	0xbe759889	-0.23983969
70	0x3b6bd61f	0.003598578
71	0xbc8be1dc	-0.017075472
72	0xbedbdc83	-0.42941675
73	0xbd5a97e9	-0.05336753
74	0xbeacff73	-0.33788642
75	0xbdb7126b	-0.0893906
76	0xbeb44274	-0.3520695
77	0xbe8b83b7	-0.27248928
78	0xbdb9adc2	-0.09066345
79	0xbf2052c8	-0.62626314
80	0x3e3e2216	0.1856769
81	0xbe5b8611	-0.21437861
82	0xbeda8430	-0.42678976
83	0xbdbc742a	-0.09201844
84	0xbe9a78f4	-0.30170405
85	0xbf0769a1	-0.5289555
86	0xbef74f05	-0.48302475
87	0xbf0b009e	-0.54297817
88	0xbf00779d	-0.50182515
89	0xbf53a6af	-0.82676214
90	0x3c90f2c8	0.017693892
91	0xbeef6171	-0.4675403
92	0xbf278b39	-0.6544681
93	0xbe333a7a	-0.17502776
94	0xbe68e970	-0.227453
95	0xbdfe678b	-0.12422093
96	0xbf322a11	-0.6959544
97	0x3e1cb1ba	0.15302172
98	0xbeaddf73	-0.3395954
99	0xbdf24c79	-0.11830992
100	0xbd7ee9b9	-0.062234614
101	0x3c9521ee	0.018204655
102	0xbeb5b48e	-0.35489315
103	0xbedc4daf	-0.43028018
104	0xbea0c3ad	-0.3139929
105	0xbd414fdb	-0.047195297
106	0xbe4c954f	-0.19978832
107	0xbe5290bc	-0.20563024
108	0xbdf23230	-0.11825979
109	0xbe2463ca	-0.16053692
110	0xbc36be42	-0.011153759
111	0xbe809131	-0.25110772
112	0xbf0da7d4	-0.5533421
113	0xbe5b244f	-0.2140057
114	0xbea86ad7	-0.32894012
115	0xbd838c04	-0.0642319
116	0xbea644c6	-0.32474345
117	0x3bc27fe4	0.005935656
118	0xbf222120	-0.63331795
119	0x3e2a9a62	0.16660455
120	0xbd062862	-0.032753356
121	0xbe08ad91	-0.1334746
122	0xbec61804	-0.38690197
123	0xbef16ef5	-0.47154966
124	0xbe7f1d92	-0.24913624
125	0xbf0fae03	-0.56124896
126	0xbd5b8f52	-0.053603478
127	0xbe112d9b	-0.14177553

fc3.weight f4 [2, 128]
0	0x3dab9e92	0.08379854
1	0x3dc680cc	0.09692535
2	0xbc029629	-0.007970371
3	0xbe295714	-0.16537124
4	0xbbca3940	-0.0061713755
5	0xbba7fa1c	-0.005126251
6	0xbdbc0a2e	-0.09181629
7	0xbd02d0e3	-0.03193749
8	0x3d8fd0c3	0.0702224
9	0xbcbfb815	-0.023403207
10	0x3edc9829	0.4308484
11	0x3c7fa2d3	0.015602785
12	0xbe69033f	-0.22755145
13	0x3c2c4a82	0.010515811
14	0x3c6fb91f	0.014631539
15	0xbd980129	-0.07422096
16	0x3c364ae8	0.0111262575
17	0xbeaee65f	-0.34160134
18	0xbe41c6c4	-0.1892348
19	0xbd990f25	-0.07473592
20	0x3e00c948	0.12576783
21	0xbd18a8fe	-0.03727054
22	0xbc400605	-0.011720185
23	0xbe3737d6	-0.17892393
24	0x3da7f7a7	0.08201533
25	0xbdc554d5	-0.09635321
26	0x3d730f32	0.059340663
27	0xbc0da12a	-0.008644382
28	0xbe7a66ff	-0.24453352
29	0xbca4b8f8	-0.020107731
30	0x3f0baa96	0.5455717
31	0x3e192357	0.14954887
32	0x3c93c68c	0.01803901
33	0x3e6ce734	0.23135072
34	0x3e03629d	0.12830587
35	0x3d591516	0.052998625
36	0xba98e42e	-0.0011664683
37	0xbc3deeee	-0.01159261
38	0xbe997ed2	-0.2997957
39	0x3daead77	0.085291795
40	0xba09fa27	-0.0005263411
41	0xbc0c1084	-0.0085488595
42	0x3d26e00f	0.040741023
43	0xbc4e7e7a	-0.012603397
44	0xbea2a412	-0.317658
45	0xbe1e70c9	-0.15472712
46	0x3d8af527	0.0678504
47	0xba8a047a	-0.0010529899
48	0xbe766cea	-0.24064985
49	0xbd5f4b14	-0.05451496
50	0x3d112fac	0.035445854
51	0xbc705a73	-0.014670002
52	0x3cc44c33	0.023962116
53	0x3e7c701e	0.24652144
54	0xbd180db1	-0.037122432
55	0x3ce55204	0.02799321
56	0xbe339432	-0.17537001
57	0xbdd4d2e3	-0.10391786
58	0x3da6e965	0.08149985
59	0xbcfe627c	-0.03105282
60	0x3cb28645	0.02179254
61	0xbe214e4c	-0.15752524
62	0xbda04d0b	-0.07827195
63	0xbec7cf19	-0.3902519
64	0x3c77be63	0.015121075
65	0xbeee25ba	-0.46513158
66	0xbd3dccf4	-0.046338037
67	0x3e02ae55	0.12761815
68	0xbebded47	-0.3709509
69	0xbdde9a91	-0.10869325
70	0xb9e21fb1	-0.0004312969
71	0x3db99e24	0.09063366
72	0xbe2c8443	-0.16847329
73	0x3e82236d	0.25417653
74	0x3cccece3	0.0250153
75	0xbd5a38f8	-0.053276986
76	0x3d9821ba	0.07428308
77	0x3e361fb0	0.17785525
78	0x3cb921f2	0.022599194
79	0x3db4913e	0.08816765
80	0xbf0adbe7	-0.54241794
81	0xbbbec425	-0.005821722
82	0xbe544295	-0.20728524
83	0xbca24575	-0.01980851
84	0xbe2f9438	-0.17146385
85	0xbddcf1b9	-0.107882924
86	0xbe7991a5	-0.24371965
87	0x3b083742	0.002078489
88	0x3edeada2	0.43491846
89	0xbba88e94	-0.0051439498
90	0x3e00f6d5	0.12594159
91	0x3e675f91	0.2259505
92	0xbe08b7fd	-0.13351436
93	0x3e67dad0	0.22642064
94	0xbe7e45f8	-0.24831378
95	0xbc91649b	-0.017748168
96	0xbebb230f	-0.36550185
97	0x3d933a55	0.0718886
98	0xbd063ee8	-0.032774836
99	0x3e96b4be	0.2943477
100	0xbc909f27	-0.017654015
101	0xbee33712	-0.44377953
102	0xbf00b3aa	-0.50274146
103	0x3f062ba5	0.52410346
104	0x3c363dfd	0.011123178
105	0xbcd2080f	-0.025638608
106	0xbe406020	-0.18786669
107	0x3e69a0db	0.22815268
108	0x3d968e1b	0.07351323
109	0x3aa83304	0.0012832587
110	0xb848ae39	-4.7845973e-05
111	0x3e2d8cc3	0.16948228
112	0x3de4e622	0.11176707
113	0xbd2d77e1	-0.042350654
114	0x3e84e1ec	0.25953615
115	0x3de9378f	0.1138755
116	0x3da363e5	0.07978038
117	0xbc356959	-0.01107248
118	0x3ef2d6ff	0.47429654
119	0x3f00fd57	0.50386566
120	0xbd0944f2	-0.033513017
121	0xbc3d007c	-0.01153576
122	0x3e84baf5	0.25923887
123	0x3e1d634b	0.15369909
124	0xbdb46f37	-0.08810275
125	0x3ebfbb2d	0.3744749
126	0xbcef2857	-0.02919404
127	0xbd0beea7	-0.034163143
128	0xbd9ef874	-0.077622324
129	0xbd310f48	-0.043227464
130	0xbdfd4a70	-0.123677135
131	0xbeb3d99c	-0.3512696
132	0xbdd0d895	-0.1019756
133	0x3e03330f	0.12812446
134	0xbef31e93	-0.47484264
135	0xbe74a1eb	-0.23889892
136	0xbf650ca4	-0.89472413
137	0x3b4d679c	0.0031342274
138	0x3ecd64f0	0.40116072
139	0x3db17067	0.08664017
140	0xbe0692ab	-0.13141887
141	0xbc08c2a8	-0.008347191
142	0x3ed6a6c6	0.41924113
143	0xbed6f1aa	-0.4198125
144	0xbdecdcb6	-0.11565535
145	0xbf3b9e5a	-0.732885
146	0xbea5abff	-0.32357785
147	0xbd46e08e	-0.048553996
148	0x3de0616f	0.10956084
149	0xbd49cc2c	-0.04926698
150	0xbdbda649	-0.09260232
151	0x3d8e5d59	0.069513984
152	0x3f16f840	0.5897255
153	0xbe36430e	-0.17799017
154	0x3daa1d56	0.08306377
155	0xbe229691	-0.15877749
156	0x3e71dbff	0.23619078
157	0xbc5d7154	-0.013515789
158	0x3e7d4162	0.24731973
159	0xbe18d19a	-0.14923707
160	0x3de8d100	0.113679886
161	0x3deb75a4	0.114970475
162	0x3ed0dcc9	0.40793446
163	0x3e797684	0.24361616
164	0xbc413734	-0.011792947
165	0xbc45cf99	-0.012073421
166	0x3dffa3e8	0.124824345
167	0x3e28351d	0.16426511
168	0x3efa8c4c	0.48935163
169	0xbee3f17e	-0.4452018
170	0x3f0acc98	0.54218435
171	0x3ea988d7	0.33112213
172	0x3d8b5495	0.06803242
173	0xbe87b92d	-0.26508465
174	0x3f1e561b	0.61850137
175	0x3bba654c	0.005688345
176	0x3e8b6c4e	0.27231067
177	0xbd15f546	-0.036610864
178	0x3eb42f2f	0.35192248
179	0xbb2b1078	-0.0026102345
180	0xbe5d5903	-0.21615987
181	0x3e5f9ad6	0.21836409
182	0xba140594	-0.0005646583
183	0x3ed363e7	0.41287157
184	0xbeac1afb	-0.33614334
185	0x3e19e586	0.15028962
186	0xbd267c77	-0.040646043
187	0xbc99f731	-0.018794628
188	0xbf193286	-0.5984272
189	0xbdb74036	-0.08947794
190	0x3ea01e95	0.31273332
191	0xbea04dd2	-0.31309372
192	0xbe28f3ca	-0.16499248
193	0xbe486262	-0.1956878
194	0xbf0f1c6d	-0.5590275
195	0xbe93470e	-0.28765148
196	0xbebf7d3c	-0.37400234
197	0xbec6900d	-0.38781777
198	0xbc13c505	-0.009019141
199	0xbdfdf183	-0.1239958
200	0xbe4898e1	-0.19589569
201	0xbe55ff4d	-0.20898171
202	0xbdc7b64e	-0.09751569
203	0xbe24d4c0	-0.16096783
204	0x3ef76da0	0.48325825
205	0x3e30ff79	0.17284955
206	0xba0618e4	-0.00051154033
207	0xbdf8c3aa	-0.12146695
208	0xbe14d65f	-0.14534901
209	0xbdf78fa2	-0.12087943
210	0x3e419632	0.18904951
211	0xbc92f409	-0.01793863
212	0x3e69b67e	0.22823521
213	0xbe8e915c	-0.27845275
214	0xbec33a35	-0.38130346
215	0x3e23d1fe	0.15998074
216	0xbecb5bbf	-0.39718434
217	0xbe94a3fb	-0.29031357
218	0x3e1a5ca5	0.15074404
219	0x3ec3dea1	0.3825579
220	0xbd05ab66	-0.03263416
221	0x3e1fe105	0.15613182
222	0xbf121d43	-0.570759
223	0xbd2626e1	-0.04056442
224	0xbe9c91bc	-0.30579937
225	0xbf1cafc2	-0.61205685
226	0x3e46b58b	0.1940519
227	0x3e2780c4	0.16357714
228	0xbc67af83	-0.014140966
229	0x3e86bd83	0.2631646
230	0xbc8c2b57	-0.01711051
231	0xbe66cdad	-0.22539397
232	0xbe472335	-0.19447024
233	0xbc1d69fa	-0.009607786
234	0x3e80fb00	0.25191498
235	0xbe793cc6	-0.2433959
236	0x3d8ed69f	0.069745295
237	0xbe2a74bd	-0.16646095
238	0xbca37489	-0.01995303
239	0x3f16a71a	0.58848727
240	0xbebc51ee	-0.36781257
241	0xbd9b47d3	-0.07582059
242	0xbd2dd8b2	-0.042442985
243	0xbe4cc346	-0.19996366
244	0x3efc8d33	0.49326476
245	0xbc931df3	-0.017958617
246	0xbe0ba489	-0.13636984
247	0xbe987bc9	-0.2978194
248	0x3f03d2ec	0.51493716
249	0xbed9436b	-0.42434248
250	0x3e0d0662	0.13771966
251	0xbee95590	-0.45573092
252	0xbe117732	-0.14205626
253	0xbdf7fc42	-0.12108661
254	0xbc3caf22	-0.011516364
255	0xbe02a262	-0.12757257

fc3.bias f4 [2]
0	0x3e6e3db9	0.23265733
1	0x3dcc30b7	0.09970229
