DRLND_deep_reinforcement_learning_nanodegree/p3_collab_compet/checkpoint_actor_a.pth (torch_old, 183796 bytes, 6 tensors)

fc1.weight f4 [256, 48]
0.3010089 0.66718334 0.04486502 0.14557776 -0.23631465 -0.99274766 0.04992089 0.1989238
0.34403083 1.1361878 -0.16966131 0.16561933 -0.298773 -1.3528992 -0.10783868 0.2563506
0.48545742 1.264888 -0.08177257 -0.05652906 -0.3284401 -1.3252201 -0.043215837 0.013573299
0.27967796 -0.4695305 -0.07637112 -0.066807345 0.23399606 -1.0456427 0.018426357 -0.061295014
0.4397254 -0.3220791 0.038504884 0.14542793 0.2788332 -1.3511667 0.005653545 0.19246982
0.36182976 -0.21879679 -0.06359366 0.027431253 0.33760735 -1.3202168 -0.016942456 0.0596991
0.29289827 0.018535813 -0.4010112 -0.36234465 0.6604774 -1.1760712 -0.3680436 -0.3384522
0.28083995 0.08362322 -0.2834489 -0.09062003 0.2689701 -0.78326905 -0.19425724 -0.05173095
0.25757483 0.34802413 0.046778224 0.2160756 -0.21218699 0.23647644 0.032386653 0.17124422
0.18172394 -0.47030732 -0.1786923 0.24116264 -0.7079286 -1.1814396 -0.18256643 0.19166301
0.2960248 -0.2348008 -0.2308073 0.90572804 -0.27406117 -0.8914363 -0.2576823 0.8401713
0.37395892 -0.12266065 0.103536926 -1.0068468 0.10892977 0.26124066 0.032735016 -0.9670656
0.49065983 0.2697738 0.012889756 -0.40447116 -0.33269784 -0.62781465 -0.014907755 -0.3116541
0.2426975 -0.29601145 0.0023733024 -0.07779177 0.116139986 0.024692535 -0.028347535 -0.15985592
0.28340104 -0.10430135 0.06676138 0.6471348 0.16868256 0.1884154 0.051061198 0.66194874
0.6581004 -0.07972515 -0.09002169 -0.28594998 0.29712394 -0.6284743 -0.021867013 -0.3093743
0.28367695 -0.46707946 0.03267521 -0.30832267 -0.16170067 0.041532367 0.09444608 -0.40673053
0.29739377 -0.694938 -0.27229702 -0.7406602 -0.1843463 0.15442194 -0.16570662 -0.7724077
0.70775294 0.3095461 -0.13504599 0.20554106 -0.16731048 -0.1433432 -0.08729722 0.13987668
0.6400004 0.5153603 -0.31901616 0.36577317 -0.20284522 -0.18990219 -0.34144992 0.3884692
0.65403694 0.68902457 -0.13752098 0.44549027 -0.19771397 -0.1663857 -0.23161557 0.46647024
0.5078869 -0.0076767523 -0.1135908 -0.20994082 0.06892113 -0.18116213 -0.08610924 -0.21264419
0.4988077 0.11584915 -0.09855699 -0.08381144 0.23332138 -0.2344311 -0.06421471 -0.1490977
0.3909974 0.23704313 -0.10070805 0.2608848 0.25699934 -0.0555174 -0.18474847 0.24825513
0.25824893 -0.14525531 0.23056072 -0.036365606 -0.1749128 -0.574376 0.29729402 -0.06241863
0.3347852 0.019283671 -0.13382608 0.23349686 -0.03569253 -0.88877684 -0.201017 0.27396846
0.3033791 0.30301854 -0.19267784 0.21200465 -0.09342394 -1.1035497 -0.1502624 0.14580986
0.0064706253 -0.47454137 -0.07519371 -0.40726957 0.10429673 -0.53738445 -0.015690915 -0.2869722
0.031443845 -0.47848848 -0.17672731 0.096521825 0.0290289 -0.9629942 -0.122628696 0.03448884
0.010727293 -0.33984798 -0.03098799 0.34775388 0.15145119 -1.1290582 0.03126974 0.29409888
0.45233622 -0.68331075 -0.10730321 -0.17375411 0.086996585 -0.70100516 -0.09013386 -0.17522216
0.55320626 -0.5593518 -0.024495983 -0.3000367 -0.013193765 -0.9421786 -0.04491588 -0.3041302
00000000: d71d 9a3e 87cc 2a3f 62c4 373d 5612 153e
00000010: 78fc 71be b624 7ebf d979 4c3d aeb2 4b3e
00000020: cf24 b03e 9a6e 913f b2bb 2dbe 1d98 293e
00000030: c6f8 98be cd2b adbf 87da dcbd 6340 833e
00000040: e08d f83e dae7 a13f 6178 a7bd 048b 67bd
00000050: 4d29 a8be d0a0 a9bf 1703 31bd 8b62 5e3c
00000060: f331 8f3e 4d66 f0be 7668 9cbd 4ad2 88bd
00000070: aa9c 6f3e 9fd7 85bf dff2 963c 7b10 7bbd
00000080: b023 e13e 8de7 a4be 4cb7 1d3d 0feb 143e
00000090: 3ac3 8e3e 08f3 acbf 5f41 b93b cf16 453e
000000a0: c041 b93e 440c 60be 653d 82bd 82b7 e03c
000000b0: dfda ac3e ddfc a8bf e8ca 8abc 0b87 743d
000000c0: c3f6 953e 6bd8 973c 5751 cdbe 3d85 b9be
000000d0: 0c15 293f 8089 96bf 3670 bcbe 9b49 adbe
000000e0: 41ca 8f3e a742 ab3d 3720 91be ff96 b9bd
000000f0: 73b6 893e 5284 48bf 5feb 46be d5e3 53bd
00000100: d9e0 833e 3830 b23e 869a 3f3d ec42 5d3e
00000110: 8c47 59be e126 723e dea7 043d a55a 2f3e
00000120: d715 3a3e 1fcc f0be 1dfb 36be 57f3 763e
00000130: cf3a 35bf 6a39 97bf b2f2 3abe 4f43 443e
00000140: 9090 973e 9f6f 70be c058 6cbe cbdd 673f
00000150: bf51 8cbe 2b35 64bf efee 83be 7715 573f
00000160: 8b77 bf3e 8235 fbbd 2b0b d43d 5be0 80bf
00000170: 9216 df3d 56c1 853e 2715 063d 9c91 77bf
00000180: c437 fb3e cb1f 8a3e 8e2f 533c d816 cfbe
00000190: 5f57 aabe 76b8 20bf a83f 74bc 2091 9fbe
000001a0: b285 783e d08e 97be 6889 1b3b 4b51 9fbd
000001b0: cdda ed3d 0048 ca3c 1739 e8bc 45b1 23be
000001c0: f119 913e f29b d5bd 31ba 883d a0aa 253f
000001d0: 1fbb 2c3e f7ef 403e 8c25 513d 7975 293f
000001e0: 4579 283f f046 a3bd 4b5d b8bd 0968 92be
000001f0: a120 983e b1e3 20bf 7322 b3bc 4f66 9ebe
00000200: 1b3e 913e 0a25 efbe 71d6 053d 78dc 9dbe
00000210: dc94 25be d81d 2a3d f26c c13d fc3e d0be
00000220: ff43 983e 75e7 31bf 846a 8bbe e89b 3dbf
00000230: 47c5 3cbe c920 1e3e ffae 29be 83bc 45bf
00000240: 4c2f 353f d47c 9e3e 7f49 0abe 5b79 523e
00000250: 7053 2bbe 8fc8 12be e3c8 b2bd d53b 0f3e
00000260: 11d7 233f a7ee 033f 1656 a3be 9f46 bb3e
00000270: a8b6 4fbe b875 42be 86d2 aebe 6fe5 c63e
00000280: f76e 273f ea63 303f 4dd2 0cbe 4d17 e43e
00000290: 8875 4abe 0361 2abe a22c 6dbe 30d5 ee3e
000002a0: e004 023f 448d fbbb 4ba2 e8bd bafa 56be
000002b0: 8526 8d3d 9182 39be 0b5a b0bd 66bf 59be
000002c0: b963 ff3e 5242 ed3d 3fd8 c9bd 55a5 abbd
000002d0: cdeb 6e3e b50e 70be 0083 83bd 11ad 18be
000002e0: d030 c83e 6fbb 723e 0640 cebd b192 853e
000002f0: 6b95 833e 3766 63bd b42e 3dbe 9836 7e3e
00000300: 3439 843e cfbd 14be 1c18 6c3e 1af4 14bd
00000310: 571c 33be 4e0a 13bf ec36 983e adaa 7fbd
00000320: f768 ab3e caf8 9d3c b409 09be cd19 6f3e
00000330: 5532 12bd e186 63bf 67d7 4dbe 9845 8c3e
00000340: 8154 9b3e 3f25 9b3e 574d 45be bf17 593e
00000350: 0d55 bfbd 1e41 8dbf 63de 19be 2e4f 153e
00000360: 8a07 d43b 16f7 f2be 29ff 99bd a385 d0be
00000370: 8699 d53d 0792 09bf 3c8a 80bc 05ee 92be
00000380: 43cb 003d 71fc f4be 01f8 34be 3cad c53d
00000390: 04ce ed3c ca86 76bf c124 fbbd 2b44 0d3d
000003a0: 87c1 2f3c 8e00 aebe 86da fdbc cc0c b23e
000003b0: 0516 1b3e fb84 90bf b314 003d 2194 963e
000003c0: 9d98 e73e 74ed 2ebf c9c1 dbbd 99ec 31be
000003d0: 442b b23d 1375 33bf 1a98 b8bd 706d 33be
000003e0: ed9e 0d3f ae31 0fbf cdab c8bc 699e 99be
000003f0: a92a 58bc 9e32 71bf b7f9 37bd f4b6 9bbe

fc1.bias f4 [256]
-0.35758424 -0.45203918 -0.42197922 -0.54934037 -0.3871279 -0.4741393 -0.4416068 -0.22402674
0.090921156 -0.1729432 -0.62457633 0.14128847 0.41447273 -0.32591918 -0.5507244 0.19476005
-0.34879416 -0.42453232 -0.35942605 -0.15334012 -0.12295331 -0.57435906 -0.550775 -0.43306383
-0.32910216 -0.26801297 0.15777384 -0.083822966 -0.52035236 -0.50831884 -0.3129499 -0.28168884
-0.18280895 0.37303913 -0.073591314 -0.5119952 0.106036305 -0.44234595 -0.7800479 -0.37885088
-0.39536795 -0.3102406 -0.364031 -0.10117951 0.42065996 -0.3783051 -0.41798827 -0.5927109
-0.29741126 0.06611162 -0.5333683 0.10535415 -0.14326619 -0.3022895 -0.6405295 -0.3528893
-0.22383757 -0.527747 -0.35439026 -0.40289682 0.37876865 -0.3393445 -0.6083295 -0.22550675
-0.082878835 -0.3417422 -0.22954543 -0.4390842 0.022133633 -0.009177428 -0.077064455 -0.54290575
-0.1630278 -0.4699094 -0.08330661 -0.5475638 0.39516115 -0.4449018 -0.37808886 -0.39067423
-0.2706383 -0.2925553 -0.48392805 -0.47473186 0.07787983 -0.39203575 -0.1653084 -0.16850428
-0.2750849 -0.27700725 -0.16774085 -0.2985173 -0.21744183 0.06199264 -0.17991416 -0.2555609
-0.22837932 -0.43874606 -0.16758564 -0.50127983 -0.42568588 -0.5673009 -0.40181175 0.24277353
-0.4251727 -0.48541895 -0.46440074 -0.7930354 -0.21086918 -0.19184293 -0.58948547 -0.15124105
-0.023807878 -0.4115712 -0.4551574 -0.018197121 -0.40789917 0.3837792 -0.5908783 -0.5469728
-0.1733253 -0.18097328 -0.5069231 -0.39508 -0.28835818 -0.23696668 -0.43661246 -0.19889796
-0.31836015 -0.21928398 -0.41991845 -0.10371064 -0.28666463 -0.6923096 -0.50065976 -0.52593434
-0.37721032 -0.33456996 -0.27219552 -0.591357 -0.47973877 -0.49748063 0.11123644 -0.37481716
-0.21987663 0.022414882 -0.30240667 -0.24202476 -0.2512716 -0.058160625 -0.32237646 -0.51924
-0.2199578 -0.45601955 -0.17705835 -0.599493 -0.43089136 0.040872306 -0.5065991 -0.13644674
-0.50280017 -0.45965782 -0.7051441 -0.53207606 -0.31631443 -0.2706831 -0.41096303 -0.27436522
-0.17011815 -0.44909114 0.016826117 -0.3731758 -0.32078022 -0.3264754 -0.33394164 -0.30642503
-0.0873667 -0.5115297 -0.20547944 -0.4978235 0.14079554 -0.37680784 0.44030288 -0.41377932
-0.5718919 -0.4992637 -0.06507238 0.42269486 -0.22483845 -0.49724722 -0.24165289 0.49328962
-0.056698494 0.14910081 -0.3626989 -0.25542486 -0.51532596 -0.67867 -0.41493285 -0.55389595
0.34301335 -0.44879115 -0.30725074 -0.27870142 -0.39913642 -0.17885022 -0.38902304 -0.48954743
-0.5407983 -0.32881352 0.4112291 -0.6274414 0.19206959 -0.02290203 -0.040631466 -0.41974175
-0.71646917 -0.43196663 -0.5341175 -0.8724434 0.33035043 -0.44259337 -0.80491954 -0.4434183
-0.06622698 -0.3575188 -0.3029309 -0.39163736 -0.2928025 -0.7139856 -0.33092436 0.14840896
0.09586404 -0.29907045 0.27747554 -0.2178892 -0.34278855 -0.4258333 0.28654188 -0.31642932
0.1713385 -0.11752981 -0.24023606 -0.4953237 -0.19375737 -0.48466507 -0.29709473 -0.5821461
-0.04517538 0.2541647 -0.5716081 -0.39367148 -0.33119434 0.16700582 -0.013874704 -0.290521
00000000: 4815 b7be ae71 e7be a90d d8be 92a1 0cbf
00000010: a135 c6be 63c2 f2be 491a e2be 4467 65be
00000020: df34 ba3d 0618 31be 3ce4 1fbf edad 103e
00000030: c535 d43e e1de a6be 46fc 0cbf 2e6f 473e
00000040: 2695 b2be 4d5c d9be b106 b8be 3105 1dbe
00000050: f2ce fbbd 3209 13bf 97ff 0cbf 8bba ddbe
00000060: 1480 a8be ff38 89be 778f 213e 60ab abbd
00000070: d035 05bf 2f21 02bf f83a a0be 8539 90be
00000080: 4532 3bbe fcfe be3e 0bb7 96bd 1e12 03bf
00000090: 9029 d93d 2b7b e2be 38b1 47bf bef8 c1be
000000a0: ab6d cabe dbd7 9ebe 4562 babe 3437 cfbd
000000b0: be60 d73e 35b1 c1be 8f02 d6be e7bb 17bf
000000c0: 4a46 98be 8765 873d d38a 08bf ebc3 d73d
000000d0: 5fb4 12be b0c5 9abe bef9 23bf e8ad b4be
000000e0: ad35 65be 6d1a 07bf a472 b5be 7e48 cebe
000000f0: f7ed c13e 90be adbe 7bbb 1bbf 3eeb 66be
00000100: 61bc a9bd d5f8 aebe f50d 6bbe a5cf e0be
00000110: 9851 b53c ec5c 16bc f8d3 9dbd dffb 0abf
00000120: c2f0 26be f797 f0be a89c aabd 242d 0cbf
00000130: 9052 ca3e 2bca e3be dd94 c1be 7406 c8be
00000140: 1a91 8abe cfc9 95be 6bc5 f7be 0e10 f3be
00000150: 767f 9f3d e9b8 c8be 9b46 29be 638c 2cbe
00000160: eed7 8cbe e5d3 8dbe 42c4 2bbe 42d7 98be
00000170: 12a9 5ebe ffeb 7d3d 6b3b 38be e1d8 82be
00000180: 45dc 69be 53a3 e0be 929b 2bbe e053 00bf
00000190: 80f3 d9be a23a 11bf 45ba cdbe a099 783e
000001a0: 3cb0 d9be d588 f8be efc5 edbe 5e04 4bbf
000001b0: 17ee 57be 7972 44be 85e8 16bf efde 1abe
000001c0: bd08 c3bc 76b9 d2be 640a e9be 2112 95bc
000001d0: 29d8 d0be b57e c43e cd43 17bf 6906 0cbf
000001e0: 307c 31be 0f51 39be b6c5 01bf ed47 cabe
000001f0: afa3 93be 65a7 72be ab8b dfbe e8ab 4bbe
00000200: 1a00 a3be fb8b 60be 8dff d6be 3e66 d4bd
00000210: b5c5 92be 343b 31bf 3d2b 00bf a2a3 06bf
00000220: b621 c1be c14c abbe 365d 8bbe 2c63 17bf
00000230: 52a0 f5be c8b5 febe eecf e33d 09e8 bfbe
00000240: 5727 61be 6a9f b73c 0cd5 9abe 57d5 77be
00000250: aca6 80be d639 6ebd 870e a5be eaec 04bf
00000260: 9e3c 61be 657b e9be c94e 35be 6078 19bf
00000270: cb9d dcbe b869 273d 7bb0 01bf b2b8 0bbe
00000280: 83b7 00bf 4558 ebbe 5384 34bf 2336 08bf
00000290: f7f3 a1be fa96 8abe bf69 d2be 9979 8cbe
000002a0: 7433 2ebe 46ef e5be edd6 893c e610 bfbe
000002b0: 4e3d a4be c927 a7be 66fa aabe bee3 9cbe
000002c0: 50ed b2bd 9cf3 02bf 3469 52be b9e2 febe
000002d0: b52c 103e f5ec c0be 616f e13e e2da d3be
000002e0: 8267 12bf 7e9f ffbe ab44 85bd 766b d83e
000002f0: 0d3c 66be 3097 febe db73 77be 7590 fc3e
00000300: ae3c 68bd e2ad 183e acb3 b9be 0cc7 82be
00000310: 67ec 03bf 51bd 2dbf 1472 d4be 20cc 0dbf
00000320: 729f af3e f4c7 e5be f84f 9dbe f4b1 8ebe
00000330: 9c5b ccbe 8324 37be 072e c7be f6a5 fabe
00000340: c271 0abf 3f5a a8be 9f8c d23e 00a0 20bf
00000350: e4ad 443e 0a9d bbbc 2e6d 26bd 64e8 d6be
00000360: 866a 37bf bb2a ddbe edbb 08bf 7358 5fbf
00000370: b123 a93e 999b e2be 350f 4ebf b907 e3be
00000380: 03a2 87bd b40c b7be c219 9bbe b184 c8be
00000390: 36ea 95be c3c7 36bf eb6e a9be 85f8 173e
000003a0: 5e54 c43d c31f 99be 4611 8e3e 591e 5fbe
000003b0: fb81 afbe d306 dabe 9eb5 923e 0603 a2be
000003c0: 5c73 2f3e 78b3 f0bd 7100 76be 119b fdbe
000003d0: 5568 46be 0526 f8be cd1c 98be 8707 15bf
000003e0: d209 39bd e021 823e e954 12bf 4f8f c9be
000003f0: 4e92 a9be 9303 2b3e ba52 63bc 2bbf 94be

fc2.weight f4 [128, 256]
-0.20706373 -0.1886896 -0.057405263 0.08129593 -0.46746552 -0.30518585 -0.12384021 -0.034190327
-0.2396495 -0.22384247 0.5036197 0.07936796 -0.37030882 -0.14066213 0.24262004 -0.02361073
-0.100808956 -0.43942943 -0.3571824 -0.25139114 -0.076346256 -0.21148454 0.017222067 -0.0038832303
-0.4339366 0.09119186 0.022681644 -0.084728874 0.12855491 -0.19457364 -0.43666378 -0.2133753
-0.34741998 -0.1882919 -0.05032028 -0.02430287 0.093947746 -0.41337496 -0.16138786 -0.15076378
-0.18102662 -0.37345034 -0.05027992 -0.23178954 -0.83112603 -0.52504057 -0.25431874 0.18985572
0.20028348 -0.12363373 -0.26966605 -0.24020341 0.24570885 -0.11111246 -0.08501023 -0.5142707
-0.20263617 0.033283256 -0.048590746 -0.53111994 -0.31088445 -0.4157287 0.05771365 -0.476711
-0.20750435 0.11380037 -0.267414 -0.38587725 0.23008294 -0.35459292 -0.3064596 0.12706879
-0.45095828 0.052120317 -0.49494705 0.16437346 0.07221605 -0.38230404 -0.22185893 0.08895587
-0.17740549 -0.10906598 0.05741363 0.050345045 -0.20285757 -0.26603276 -0.0102332365 0.12062837
-0.010299073 0.08097458 -0.47851178 -0.1689447 0.14902546 -0.574953 -0.28489885 0.08448613
-0.027891487 0.22528674 -0.28434655 0.040406942 0.15059613 -0.091409616 -0.32496014 -0.42516318
-0.33093223 -0.28773 -0.5320481 -0.22484043 -0.38985494 -0.5393185 0.13634716 -0.19167021
0.07523436 -0.52608126 0.31293482 -0.438777 0.022038167 -0.21573503 -0.46897048 -0.029428275
0.030201813 -0.121579766 0.16147445 0.07546125 -0.35239658 -0.4973867 -0.2335041 -0.23491149
-0.43751815 0.41484967 0.05776469 -0.13063882 -0.36355352 -0.37823752 -0.037644707 -0.509669
-0.2807215 -0.37788853 0.013058172 -0.3084422 -0.012456888 0.15932243 -0.120685354 -0.34811485
-0.46755642 0.25180086 -0.5377039 0.033224147 0.054079052 -0.146382 0.22848584 0.06132782
-0.18616363 0.06235087 0.15612222 0.31917065 0.040466975 0.19224057 0.01090292 -0.8134862
-0.30564 -0.075479396 -0.20596118 -0.36907193 -0.071363576 -0.61128664 -0.0027286399 -0.3759122
-0.2879574 -0.34166083 -0.035713468 0.02577171 -0.09706721 -0.36457658 -0.4238364 0.07377188
0.05312243 -0.65606993 -0.56069875 -0.038496457 -0.4018288 0.2530769 -0.1834483 0.17176741
-0.11875011 0.25567338 0.12088821 -0.022226978 0.28688386 -0.12076474 0.3316612 0.07627681
-0.09604586 -0.10461158 -0.08360296 -0.39871147 -0.12153743 -0.016197886 0.32392335 -0.1261261
-0.06051517 0.008562006 -0.5083222 0.20269749 -0.23638317 -0.065576725 -0.21626998 0.12896244
0.036764182 -0.14921021 -0.5557719 -0.43144482 -0.22983667 -0.23788403 -0.33530566 -0.40515858
-0.116707034 -0.27684116 -0.17497298 -0.5189404 -0.10108056 -0.04682472 0.036927056 0.18207085
-0.2993462 0.34218046 -0.16790876 -0.3230401 -0.50639695 -0.6508701 -0.5633521 0.0004512549
0.15474568 -0.17437911 -0.27272636 -0.28611878 0.35067463 -0.509424 -0.18700936 -0.09405571
0.13850018 -0.05607193 0.10370731 -0.2041068 -0.77957374 -0.3716019 -0.1458207 -0.55023
0.05570047 -0.6884578 -0.10709966 -0.49413645 -0.19807202 0.17793451 -0.26703125 0.071558945
00000000: 8408 54be d937 41be c821 6bbd 7b7e a63d
00000010: a457 efbe 5241 9cbe f09f fdbd 280b 0cbd
00000020: ae66 75be f636 65be 38ed 003f ab8b a23d
00000030: 1e99 bdbe bc09 10be 6371 783e 4a6b c1bc
00000040: ed74 cebd e5fc e0be 9de0 b6be 57b6 80be
00000050: 6d5b 9cbd 678f 58be 4b15 8d3c cb7d 7ebb
00000060: f02c debe ccc2 ba3d dbce b93c 5586 adbd
00000070: e6a3 033e 503e 47be 6592 dfbe 0e7f 5abe
00000080: 08e1 b1be 98cf 40be a31c 4ebd d016 c7bc
00000090: ad67 c03d e2a5 d3be dc42 25be d261 1abe
000000a0: 0b5f 39be e234 bfbe 51f2 4dbd 3d5a 6dbe
000000b0: adc4 54bf 0f69 06bf 1136 82be 8a69 423e
000000c0: 1d17 4d3e ae33 fdbd ab11 8abe e2f7 75be
000000d0: 1a9b 7b3e ee8e e3bd d819 aebd 3fa7 03bf
000000e0: db7f 4fbe 0654 083d 1707 47bd 7af7 07bf
000000f0: 3f2c 9fbe 64da d4be 2665 6c3d 7713 f4be
00000100: 057c 54be 2b10 e93d 7dea 88be b491 c5be
00000110: dd9a 6b3e 348d b5be 46e8 9cbe 521e 023e
00000120: 01e4 e6be 1d7c 553d b369 fdbe 8451 283e
00000130: 02e6 933d 5bbd c3be fd2e 63be 7f2e b63d
00000140: c9a9 35be fc5d dfbd 8e2a 6b3d 9b36 4e3d
00000150: e5b9 4fbe 7235 88be 4ea9 27bc 020c f73d
00000160: 71bd 28bc 00d6 a53d 7fff f4be d7ff 2cbe
00000170: 219a 183e 1f30 13bf 43de 91be 1007 ad3d
00000180: b07c e4bc 91b1 663e df95 91be c081 253d
00000190: df35 1a3e f734 bbbd 2d61 a6be fdae d9be
000001a0: f36f a9be 5951 93be 4e34 08bf 923c 66be
000001b0: 119b c7be c710 0abf 979e 0b3e 3245 44be
000001c0: 7914 9a3d 43ad 06bf fe38 a03e 61a7 e0be
000001d0: 6389 b43c a5e9 5cbe e61c f0be 9113 f1bc
000001e0: cb69 f73c d0fe f8bd 8f59 253e 6e8b 9a3d
000001f0: 536d b4be 78a9 febe b31b 6fbe a38c 70be
00000200: 6102 e0be 2d67 d43e ab9a 6c3d 2fc6 05be
00000210: b023 babe 59a8 c1be 5631 1abd ab79 02bf
00000220: baba 8fbe 9b7a c1be f1f1 553c 23ec 9dbe
00000230: fa17 4cbc 6b25 233e e229 f7bd 1c3c b2be
00000240: 8e63 efbe 0bec 803e f6a6 09bf 0b16 083d
00000250: ff81 5d3d 2ae5 15be 31f8 693e e132 7b3d
00000260: aea1 3ebe a063 7f3d 81de 1f3e 566a a33e
00000270: b3c0 253d b6da 443e 29a2 323c a240 50bf
00000280: d97c 9cbe f194 9abd 7de7 52be fff6 bcbe
00000290: 1127 92bd 487d 1cbf fbd2 32bb 9077 c0be
000002a0: 276f 93be 2bee aebe 4948 12bd 311f d33c
000002b0: 2ccb c6bd c8a9 babe 1601 d9be b615 973d
000002c0: e896 593d 33f4 27bf f489 0fbf 76ae 1dbd
000002d0: 81bc cdbe 4c93 813e dfd9 3bbe cce3 2f3e
000002e0: 4233 f3bd 9fe7 823e 3d94 f73d 5a15 b6bc
000002f0: 71e2 923e 8153 f7bd 7fcf a93e 0437 9c3d
00000300: b1b3 c4bd 993e d6bd 0738 abbd e923 ccbe
00000310: 9ee8 f8bd 6eb1 84bc 48d9 a53e 3327 01be
00000320: c1de 77bd a847 0c3c 6721 02bf ee8f 4f3e
00000330: 6e0e 72be 174d 86bd e175 5dbe bb0e 043e
00000340: 0a96 163d 90ca 18be 1147 0ebf 56e6 dcbe
00000350: 4e5a 6bbe df97 73be 2fad abbe f270 cfbe
00000360: 1904 efbd 20be 8dbe 1e2c 33be 47d9 04bf
00000370: 5303 cfbd 47cb 3fbd d340 173d c870 3a3e
00000380: e843 99be 4732 af3e 46f0 2bbe 8365 a5be
00000390: 3ba3 01bf 6c9f 26bf d837 10bf 6896 ec39
000003a0: a775 1e3e 7090 32be caa2 8bbe 297e 92be
000003b0: a08b b33e 9c69 02bf 627f 3fbe 48a0 c0bd
000003c0: fed2 0d3e aeab 65bd 8064 d43d 5f01 51be
000003d0: 2592 47bf 9b42 bebe 0652 15be e0db 0cbf
000003e0: 2d26 643d c53e 30bf 1157 dbbd 74ff fcbe
000003f0: 64d3 4abe 7734 363e 52b8 88be 7f8d 923d

fc2.bias f4 [128]
-0.109590024 -0.18808518 -0.5898989 -0.15397725 0.057626072 0.09596036 -0.12193513 -0.21712743
-0.44152987 -0.8118901 -0.058030676 -0.16622186 -0.39114574 -0.482487 -0.025173675 -0.22230797
-0.23910427 -0.059111062 0.028065022 -0.36280355 -0.3166701 -0.034815505 -0.2223144 0.1040184
-0.09447056 -0.17924461 -0.063360706 -0.04281311 -0.09160284 -0.13704878 -0.07410235 -0.48250696
-0.038271923 -0.3666633 -0.066587664 -0.6715602 -0.557309 -0.33233842 -0.5667215 -0.0058960724
0.1158133 -0.55515224 -0.51112926 -0.11081297 -0.102126904 -0.13879718 -0.4821824 -0.030737575
-0.10685569 -0.09966848 0.14313696 -0.5512354 -0.20953146 -0.6214143 -0.52609867 -0.22415799
-0.12824555 -0.5523191 -0.14402427 -0.0022401502 -0.19799367 0.15582508 -0.10596031 -0.40578526
-0.11862322 -0.021852138 -0.64262027 -0.08279635 -0.01837484 -0.29969183 0.25889686 -0.031244442
0.516974 -0.24841182 0.09082081 -0.28957328 -0.07045167 -0.15706092 -0.5450146 -0.07532186
-0.5217612 -0.28404328 -0.14103138 -0.17321897 0.02564225 -0.24283688 0.035262942 -0.16854179
-0.44333765 0.058851767 -0.4919804 -0.15136243 -0.35005745 0.0028419644 -0.05424928 -0.09121936
-0.6006625 -0.6277386 0.20287424 0.023707809 -0.15560561 0.13068952 -0.048185464 -0.208036
-0.143019 0.06938924 -0.0013248513 -0.14805353 -0.24353188 -0.07862769 0.14604568 -0.2749886
-0.09695367 -0.11193871 -0.02838421 -0.017939754 -0.098302774 0.019669566 -0.11846115 -0.4335566
-0.090013266 -0.11159907 -0.0049707526 -0.320923 -0.8875287 -0.27411604 0.10292634 -0.19345906
00000000: bc70 e0bd 6799 40be 9d03 17bf 36ac 1dbe
00000010: 5109 6c3d dd86 c43d 20b9 f9bd a756 5ebe
00000020: 3410 e2be 08d8 4fbf 93b1 6dbd 1036 2abe
00000030: 4144 c8be 8908 f7be 0639 cebc b3a4 63be
00000040: c0d7 74be 711e 72bd 9ee8 e53c 63c1 b9be
00000050: 9522 a2be b49a 0ebd 63a6 63be 9907 d53d
00000060: c879 c1bd e68b 37be 42c3 81bd cd5c 2fbd
00000070: 459a bbbd 8456 0cbe f9c2 97bd 270b f7be
00000080: 05c3 1cbd 4bbb bbbe 1d5f 88bd 5feb 2bbf
00000090: cdab 0ebf 4328 aabe a914 11bf d733 c1bb
000000a0: 862f ed3d 751e 0ebf 5ed9 02bf e9f1 e2bd
000000b0: e927 d1bd d920 0ebe 9de0 f6be 5ecd fbbc
000000c0: 28d7 dabd fd1e ccbd 7f92 123e c31d 0dbf
000000d0: 6a8f 56be 0215 1fbf 67ae 06bf ac89 65be
000000e0: cd52 03be c964 0dbf 197b 13be 7ccf 12bb
000000f0: dabe 4abe 9c90 1f3e b801 d9bd 16c3 cfbe
00000100: bbf0 f2bd 4103 b3bc c382 24bf 2291 a9bd
00000110: d586 96bc 3571 99be 218e 843e 58f4 ffbc
00000120: 6858 043f ab5f 7ebe 4300 ba3d f342 94be
00000130: f748 90bd 94d4 20be 1486 0bbf 5942 9abd
00000140: 2492 05bf 1f6e 91be 886a 10be 5060 31be
00000150: b20f d23c 3baa 78be e06f 103d 3896 2cbe
00000160: 27fd e2be 8d0e 713d dbe4 fbbe c1fe 1abe
00000170: bb3a b3be 4040 3a3b 7e34 5ebd 37d1 babd
00000180: 05c5 19bf 7ab3 20bf 44be 4f3e e136 c23c
00000190: 1457 1fbe 79d3 053e 1f5e 45bd 6407 55be
000001a0: 9373 12be f21b 8e3d a2a6 adba 589b 17be
000001b0: 6c60 79be 8e07 a1bd 008d 153e 4ecb 8cbe
000001c0: a58f c6bd 1f40 e5bd 0186 e8bc 64f6 92bc
000001d0: f752 c9bd 1222 a13c c29b f2bd 21fb ddbe
000001e0: e058 b8bd 0e8e e4bd b2e1 a2bb 0550 a4be
000001f0: 1535 63bf f058 8cbe 0ccb d23d 221a 46be

fc3.weight f4 [2, 128]
-0.004142141 0.43362895 -0.028021429 -0.03927979 -0.6232688 -0.014548701 0.16809066 0.12757854
0.033350285 -0.2945369 -0.0017520738 0.0639549 0.1920831 0.23414613 0.09516209 0.063994154
-0.06914583 0.00016379173 0.0051351762 0.038571283 -0.015118618 0.01791023 -0.08679963 -0.089403585
-0.07662185 0.32120332 -0.19635916 0.27040988 0.40144983 0.012971389 -0.12546112 -0.1669805
0.22876227 -0.23945306 0.11535668 0.33316183 0.22101879 0.036383424 -0.37666315 0.012041415
0.29820687 -0.2537445 -0.32878554 0.041940738 0.16391946 0.0038421652 0.21664138 -0.599832
-0.03625756 -0.014488954 -0.15245132 -0.21048442 -0.18659878 0.14552109 -0.35992026 -0.08716907
-0.28477964 0.066450305 -0.22387753 0.016827656 0.18898366 0.020972118 0.08327458 -0.08053716
0.026162138 0.066170484 -0.06740278 -0.040843308 0.014195979 -0.11243041 -0.07696506 0.07114631
0.37496924 0.22902837 -0.24430163 -0.03918113 0.017272582 0.19164854 -0.15154502 0.16062647
-0.15543415 0.14370035 -0.040628955 0.0042335377 -0.19249097 0.07917588 0.036801517 0.12462137
0.3288712 0.21115875 0.2959805 -0.13037618 0.045649722 -0.15528484 0.008136656 -0.09645783
0.0019114814 -0.47039157 0.05585797 0.11042211 -0.38218448 0.36819604 0.02495755 0.066029005
-0.1475168 0.13932337 0.012950045 0.07405013 -0.20274203 -0.12734021 0.16397782 -0.13006338
-0.21055429 0.00856834 0.07967012 -0.2619428 -0.18352228 0.16863346 0.010067064 -0.040276114
-0.07444288 0.14728738 0.0938013 0.13785958 -0.26230764 -0.57343316 -0.244191 0.33005488
-0.6310804 -0.2758344 0.113396145 0.0015193037 0.033292342 0.33979723 0.24432535 -0.33019003
-0.42900413 0.3498987 -0.029294183 0.4690994 -0.20014878 0.37529197 -0.26512006 -0.43275565
0.3969476 -0.016494213 -0.062923424 0.38111675 -0.26715165 -0.02550157 0.2720768 -0.5170597
0.28897855 -0.51059604 0.21149558 0.049678862 -0.71799874 -0.0033764092 -0.49511898 0.33830506
0.32503903 0.44124568 -0.45419833 -0.22124301 -0.6476589 -0.12757656 0.27040312 0.027117273
-0.042834822 -0.25818712 0.30203128 -0.22829291 -0.5651103 -0.008231918 -0.07295534 0.07898362
-0.27884656 -0.0042594313 0.19123675 -0.656064 0.14028174 -0.44456127 -0.17861058 0.1521494
0.058445644 -0.10877652 0.019322116 -0.022384392 0.05470123 -0.804582 -0.22035544 0.20362175
0.015129871 -0.21492837 0.4276298 0.08221202 -0.020368801 0.35748523 0.4165548 -0.77723265
-0.24076359 -0.18239886 0.36918882 0.5065534 0.14729367 -0.715605 0.20005159 -0.59953237
0.19051293 0.07301658 0.071201876 0.040970437 0.61765003 -0.06957629 1.0789231 0.055824526
-0.3367203 -0.7760261 -0.7489135 0.5821407 0.19980063 0.38754684 -0.010336767 -0.08633668
0.68433636 -0.22006857 0.41242805 -0.2928976 -0.16640526 0.055542763 -0.5786093 0.21784024
0.100087605 -0.19747296 -0.01640048 -0.02800662 -0.18981965 -0.09790138 0.2958109 0.06781088
0.30257362 -0.02752984 -0.37438253 0.24344885 0.4070624 -0.09100325 -0.2649645 -0.20863137
-0.18838847 0.09611593 -0.24557766 0.32932442 0.2135539 -0.10582793 -0.22237796 0.4090794
00000000: ccba 87bb 9d04 de3e 328d e5bc d8e3 20bd
00000010: 8b8e 1fbf ad5d 6ebc f51f 2c3e f3a3 023e
00000020: 4f9a 083d 8acd 96be d7a5 e5ba c9fa 823d
00000030: 6fb1 443e 01c4 6f3e 58e4 c23d 5e0f 833d
00000040: 549c 8dbd 82bf 2b39 fb44 a83b ecfc 1d3d
00000050: 14b4 77bc 7ab8 923c 01c4 b1bd 3a19 b7bd
00000060: ebeb 9cbd c374 a43e 6012 49be 2a73 8a3e
00000070: d58a cd3e f385 543c e178 00be f0fc 2abe
00000080: a840 6a3e 2f33 75be 1f40 ec3d 3094 aa3e
00000090: c052 623e c906 153d fed9 c0be 5b49 453c
000000a0: 92ae 983e cdea 81be 9456 a8be 0dca 2b3d
000000b0: 81da 273e d6cc 7b3b 3dd7 5d3e 978e 19bf
000000c0: cf82 14bd 1463 6dbc 331c 1cbe 3a89 57be
000000d0: c013 3fbe 7b03 153e 7847 b8be b385 b2bd
000000e0: a3ce 91be 1917 883d 2740 65be 27da 893c
000000f0: ef84 413e b8cd ab3c dd8b aa3d abf0 a4bd
00000100: fb51 d63c 6484 873d 780a 8abd 504b 27bd
00000110: 4096 683c ea41 e6bd db9f 9dbd 28b5 913d
00000120: f8fb bf3e 6a86 6a3e 352a 7abe 647c 20bd
00000130: 3b7f 8d3c 843f 443e 9e2e 1bbe 447b 243e
00000140: 212a 1fbe 2f26 133e 8c6a 26bd 7db9 8a3b
00000150: 5a1c 45be f726 a23d 30bd 163d 7d39 ff3d
00000160: ce61 a83e 003a 583e c28a 973e 5581 05be
00000170: 34fb 3a3d fd02 1fbe 9c4f 053c af8b c5bd
00000180: ac8a fa3a 2ad7 f0be 54cb 643d fd24 e23d
00000190: afad c3be 3184 bc3e c773 cc3c 373a 873d
000001a0: a50e 17be c9aa 0e3e 6d2c 543c 98a7 973d
000001b0: 9b9b 4fbe 7965 02be cde9 273e 562f 05be
000001c0: 8b9b 57be 3962 0c3c 162a a33d 5e1d 86be
000001d0: 44ed 3bbe 40ae 2c3e 54f0 243c 91f8 24bd
000001e0: 8275 98bd 81d2 163e e51a c03d 102b 0d3e
000001f0: 304d 86be 84cc 12bf 350d 7abe f4fc a83e
00000200: 7c8e 21bf 2b3a 8dbe 3d3c e83d 5f23 c73a
00000210: 8d5d 083d e7f9 ad3e 6d30 7a3e ab0e a9be
00000220: 6ea6 dbbe ec25 b33e 5bfa efbc cc2d f03e
00000230: cdf3 4cbe 4526 c03e d1bd 87be 2692 ddbe
00000240: b73c cb3e df1e 87bc ffdd 80bd bc21 c33e
00000250: 1ac8 88be abe8 d0bc a64d 8b3e 065e 04bf
00000260: fff4 933e 6cb6 02bf 4c92 583e 107c 4b3d
00000270: c4ce 37bf bf46 5dbb 3c80 fdbe 5236 ad3e
00000280: 846b a63e f4ea e13e af8c e8be 878d 62be
00000290: f9cc 25bf 6ea3 02be 4772 8a3e 0b25 de3c
000002a0: 9173 2fbd 1a31 84be d8a3 9a3e 9ec5 69be
000002b0: 12ab 10bf 2bdf 06bc 9c69 95bd 2ac2 a13d
000002c0: fac4 8ebe b392 8bbb 91d3 433e cff3 27bf
000002d0: 04a6 0f3e 899d e3be b1e5 36be 0dcd 1b3e
000002e0: b364 6f3d 39c6 debd 6a49 9e3c 795f b7bc
000002f0: 660e 603d 16f9 4dbf dba4 61be 3882 503e
00000300: 47e3 773c 2f16 5cbe 4bf2 da3e c75e a83d
00000310: 79dc a6bc 4e08 b73e ac46 d53e b8f8 46bf
00000320: bb8a 76be c4c6 3abe 5106 bd3e 7cad 013f
00000330: 27d4 163e e431 37bf 53da 4c3e f47a 19bf
00000340: d215 433e b789 953d 4ad2 913d 9ed0 273d
00000350: 501e 1e3f 047e 8ebd 271a 8a3f 42a8 643d
00000360: 9a66 acbe a6a9 46bf ccb8 3fbf 2c07 153f
00000370: 8998 4c3e 8a6c c63e 8b5b 29bc 49d1 b0bd
00000380: ab30 2f3f a859 61be c529 d33e adf6 95be
00000390: 2466 2abe cf80 633d bd1f 14bf 8311 5f3e
000003a0: bbfa cc3d 5a36 4abe 4d5a 86bc 246e e5bc
000003b0: 1560 42be 8580 c8bd 8774 973e 6ee0 8a3d
000003c0: eeea 9a3e 4286 e1bc 11af bfbe a84a 793e
000003d0: 7c6a d03e e95f babd 6da9 87be 76a3 55be
000003e0: e8e8 40be 6ed8 c43d b678 7bbe 369d a83e
000003f0: e0ad 5a3e 50bc d8bd 0cb7 63be db72 d13e

fc3.bias f4 [2]
0.4383121 1.4310722
00000000: 726a e03e 602d b73f
