DRLND_deep_reinforcement_learning_nanodegree/p3_collab_compet/checkpoint_critic_a.pth (torch_old, 185338 bytes, 5 tensors)

fcs1.weight f4 [256, 48]
00000000: 90e1 113e 6ff3 3b3c 40f2 ef3a 389d acbb
00000010: 60d7 b33e d8d2 90bd 809c 6abc f7fb cd3c
00000020: 8226 cdbd 57d8 e4bb 0bf1 83bd 7286 f33c
00000030: a804 513e 7483 d1bd 1915 2c3d b967 e9bb
00000040: 9f76 913d 1049 5cbb eac4 cbbc b81e af3d
00000050: c465 253f 9008 5dbf cdf9 743c bbfc 85bb
00000060: be5e 2f3f 704d 453f 5008 163c 1080 57bc
00000070: f2cb d7be c1be 09be 590a dfbc 94c5 a93c
00000080: 4e90 363f bb2e 593f e5c9 493d 6eca 0ebd
00000090: e593 81be 334c 9cbd 7294 e73c 78c0 aa3c
000000a0: 1a01 403f 51a4 513f 5de9 693d 975e ae3d
000000b0: a65a 30bf ce51 5dbf 2e18 833d c2de 253e
000000c0: 0bc9 3c3f 23bf d93e 7480 30bd 34ed 853e
000000d0: 0e7e f83d ee79 4cbf 0812 9abd 490f ab3e
000000e0: 45e8 4a3f 6c7f 323f 7df7 5dbb 6c52 573e
000000f0: 8a00 843d d1e7 5dbf 16cb 38bc 6eac 693e
00000100: 99be 203f 4633 263f 9528 03be 7b3c a7bb
00000110: 3cac a83d d884 86bf 4e41 16be f4f6 b3bd
00000120: cf04 2fbd e4d3 a3bd 9534 2e3d 56c1 8d3e
00000130: 5471 4fbe cb7a 46bf 7438 82bb d55f 883e
00000140: 1525 2a3e d435 04be 107f 7ebd 69b0 cc3d
00000150: 15f9 febd d53a 53bf 109b bbbc b558 753d
00000160: 81eb 403e 1479 9ebd 2356 a0bd ec32 03bb
00000170: 6d14 9cbd 67e7 7cbf 7ac6 cabd 043c b63c
00000180: 318f f73e 23ac de3e a946 92bd e541 cbba
00000190: 4449 0cbe 3ca8 7abe 1e28 afbd 3856 be3d
000001a0: 0c60 363f 72ff 033f 22cb 2fbd 228e f63d
000001b0: 09ab b6be 9bcd 80be 2918 663d 82d7 ca3d
000001c0: 2279 723f 8779 093f 191e 40bd d885 eabb
000001d0: c2b5 37bf 2848 52be 85be 313d 23bf d93d
000001e0: b4b6 08bd b0b6 5f3e 282a bebd 937d 6ebd
000001f0: 305d 113e a80b 6cbe 0ad7 42bc e713 0bbe
00000200: 8851 c83d f80f ba3e 9066 ebbc 2752 763d
00000210: c36d c33e 2107 8bbe 2e8e 2ebd bc44 8c3d
00000220: d800 a73e e3aa e03e 76ff f03b d4c8 933d
00000230: 9bf8 3c3f b897 2cbe 9d1e e73c 552a 0c3e
00000240: 996b f43d 624a 913e d66a 563c 152a b23c
00000250: a61e 79bd 1f56 133f 42b9 c4bc d024 3a3d
00000260: 5aab 80bc c31e 5abc 3c56 f6bc 79a8 fd3b
00000270: 1fb9 903e f95f 8b3e 739c ee3c 8dc1 d7bd
00000280: 3976 413e 63b6 853d d40a 183d 73c8 c7bc
00000290: 756e 7a3f da0c fcbe 8049 c4bc 528e ac3c
000002a0: 22d7 d93e 8648 aabe 18cc 4dbc 0df0 afbc
000002b0: 6ad3 e53c b30b f83e bc4c bb3c 7e67 e23c
000002c0: 1714 f73e e660 18bf 85fe a73d b906 3c3d
000002d0: b1e9 8fbe bf0e 9d3e 7602 cabc f927 643b
000002e0: 4944 4c3f e12c ebbe 0739 423d a094 b2bb
000002f0: 6df5 72bf 5a57 03bf d4a0 0d3d fd23 bcbc
00000300: 03ae a7bd 10f1 e13f 7d7d 403d b70b a63c
00000310: 5c9a 07be 4efb 8bbd e976 d7bc dc67 98bb
00000320: 8e1f 183e 865e e93f bc5c a1bb 689c 5c3c
00000330: 3790 c33d 2818 29bf 4529 013c 67b1 d13d
00000340: b96b 713e 96e6 d73f 6039 95bd 875d 0d3d
00000350: 2364 233e 26ca 1bc0 0221 ebbc 83c1 283d
00000360: d1da 8e3e 9e63 af3f 39ef 44bd 070d bb3e
00000370: 7db5 e43d 90ba 7bbb c0fc 34bd 0975 c23e
00000380: 3d63 f83d bcf6 bf3f 8d25 7dbc b686 86bd
00000390: 7bd6 2bbc 23da 3ebf 158b 9e3d 7fa7 053d
000003a0: a7c9 c1bd c2ba b43f a489 42bc d1c2 c3be
000003b0: d6bc 0cbe 390c 20c0 9e4f 443d 6485 e1be
000003c0: 55cf 773f 6e63 70be 4599 e2bd 16c1 623e
000003d0: 4b10 063d 5e3a e9be 835c c8bd 9132 8b3e
000003e0: 7520 a93f 64dd 8ebe 45a1 8bbc 1ced cdbc
000003f0: 4dd0 02bd 04eb a3be 515c d3ba 0f2d cd3b
0.14246202 0.011471613 0.0018306449 -0.0052677654 0.35125256 -0.07071465 -0.014319539 0.02514456
-0.100171104 -0.0069837975 -0.0644246 0.029727194 0.20411932 -0.10230151 0.042012308 -0.0071229604
0.07102703 -0.0033612885 -0.02487417 0.08550781 0.6460841 -0.8634119 0.014952135 -0.0040889657
0.6850394 0.77071285 0.009157255 -0.013153091 -0.42147785 -0.13451673 -0.027226614 0.020724095
0.7131394 0.8483693 0.049264807 -0.03486102 -0.25308147 -0.07631721 0.028269026 0.02084373
0.7500168 0.8189135 0.05710732 0.08514135 -0.6888832 -0.8645295 0.06401096 0.16198257
0.7374427 0.42528638 -0.043091252 0.26157534 0.12133418 -0.7987355 -0.075229704 0.334101
0.79260665 0.6972568 -0.0033869438 0.21027535 0.06445415 -0.8668185 -0.011278888 0.22819683
0.6279083 0.6492199 -0.1280845 -0.0051036454 0.08235976 -1.0509291 -0.1467335 -0.08787337
-0.042729195 -0.07999399 0.042530615 0.27686566 -0.20258075 -0.7753112 -0.003974015 0.26635614
0.16615708 -0.12911159 -0.062132895 0.09994585 -0.124498524 -0.82511646 -0.022901088 0.05989905
0.18839838 -0.077379376 -0.07828929 -0.0020019365 -0.076210834 -0.9879059 -0.09901138 0.022245415
0.48351434 0.43490705 -0.071423836 -0.0015507309 -0.13699824 -0.24478239 -0.085525736 0.09293789
0.71240306 0.51561654 -0.042918332 0.120388284 -0.35677364 -0.25156865 0.056175385 0.09904386
0.94716084 0.5370106 -0.046903703 -0.0071570687 -0.71761715 -0.20535338 0.043394584 0.106321596
-0.033377364 0.21847034 -0.092853844 -0.058225226 0.14195704 -0.23051322 -0.01189209 -0.13581811
0.09781176 0.36340308 -0.028735429 0.06013694 0.3816968 -0.27153876 -0.042616062 0.068490475
0.3261783 0.43880376 0.007354672 0.07216039 0.7381684 -0.16854751 0.02821284 0.13688023
0.11934585 0.28377062 0.013086995 0.021748582 -0.060820244 0.57553285 -0.024014119 0.045445263
-0.015706707 -0.013312998 -0.030070417 0.007741031 0.28266236 0.2722166 0.029127335 -0.10534964
0.18892755 0.06528928 0.0371197 -0.024387574 0.97824794 -0.49228555 -0.023960829 0.021063957
0.42546946 -0.33258456 -0.012560867 -0.02147677 0.028054912 0.48446426 0.022863738 0.02763724
0.48257515 -0.59522855 0.082028426 0.04590485 -0.2810798 0.30675313 -0.024659377 0.0034813865
0.79791695 -0.45932677 0.047417667 -0.0054498464 -0.9490574 -0.5130516 0.034577206 -0.02296638
-0.08187487 1.7651691 0.046994675 0.020269258 -0.13242477 -0.06835042 -0.026301818 -0.004651053
0.14855787 1.8231971 -0.004924385 0.0134650245 0.09548991 -0.66052485 0.007883375 0.10238915
0.23576249 1.6867244 -0.07286334 0.034513023 0.15956168 -2.4342132 -0.028702263 0.041200172
0.2790132 1.3702276 -0.048079703 0.36533377 0.11167429 -0.003841076 -0.044186354 0.37979916
0.12128303 1.4997172 -0.015450847 -0.06568663 -0.010488148 -0.745516 0.077413715 0.03263044
-0.0946229 1.4119494 -0.011873636 -0.3823457 -0.1374391 -2.500746 0.04792749 -0.4404708
0.9680074 -0.2347543 -0.1106439 0.22143969 0.032730382 -0.45552343 -0.0978327 0.27187017
1.321303 -0.27903283 -0.017044673 -0.025137477 -0.031936932 -0.3201524 -0.0016125535 0.006261475

fcs1.bias f4 [256]
00000000: 2540 67be 92e8 60bf ca41 4dbf 5d4c d7be
00000010: a99b ba3e 2c40 f0be b843 babe 86c2 debe
00000020: a01e 3bbf 9d06 51bf 0ea1 66be 355c 18bf
00000030: 72ed 283e 1391 8e3e de10 1ebf ec32 81bf
00000040: 7f6e 77bf 059d 1b3f 9185 f4be 3bcb 17bf
00000050: 1398 b6be 4226 58bf cad7 dabd e8ad 92be
00000060: 7d39 123e 9735 a2be 8f83 9dbe ece5 9b3d
00000070: 5483 17bd 25f9 93bf 1dce 40bf 467b cabe
00000080: a5d3 3e3e c217 a4be 1164 aebe 2147 9abf
00000090: 1ebe 47bf 32ca 1dbe 9742 4bbd 0d4e 07bf
000000a0: 55ab 6bbf 4021 febe 814c 55bf 502a 7bbe
000000b0: cc11 47bf c584 87be 4a97 30bf 11aa 62bf
000000c0: 8c85 813d 5fb3 a4be 6f5b eabe 8519 e7be
000000d0: 5645 e8bb e872 043e b9ea 6bbf 8c8b 91bd
000000e0: 8728 1bbf 9d71 1b3e c5ce 4bbf dd1c 9fbe
000000f0: dc38 6cbe 9126 84be 7c1f aebe 5c94 1dbf
00000100: 8b83 11bf 8a54 24bf 8fd8 6e3e 7625 9fbe
00000110: da76 24bf ef41 31bf dc05 973c ab26 0ebf
00000120: 39f9 a2be 4622 c7be 427c 89be d059 f03e
00000130: b46c fbbe 3e28 a4be d98c 2abd 4c3a 83be
00000140: 697d 19bf c5d7 e03e 7e1f 15bf 8392 83bf
00000150: 49d1 26bf 7841 11be 9e2a 77bf 1723 b9be
00000160: ba37 17bf 4138 03be f8fa 8cbe e321 53bf
00000170: 3b5b bfbe 25fd a13e 644b a63e edfc 03be
00000180: b0ac 6abf caf3 943f 24b9 f6be 54cf 4fbf
00000190: eebb f2be f62a 8bbf a862 06bf 9b09 8bbe
000001a0: d1c6 54bf 7466 31bf a90f c1be 7bb5 e9be
000001b0: afae 5bbf 730f 17bd 3d78 4cbf 3942 8dbf
000001c0: 1fac 12be af2f 43bd d50c 3dbf bb98 25bf
000001d0: 82d0 79bf 44f2 7fbf d940 763c e3c1 6fbf
000001e0: bf75 2fbf 8e8f a33e 7e0b bdbe 0757 6abf
000001f0: df1d 26bf a68c 0cbf c4cc 04bf 63ee cbbe
00000200: fb7c b0be 41c2 2bbf 0416 8cbf b1c2 98bf
00000210: c004 70bf bbf2 cdbe 6003 10bf 9ace 9b3e
00000220: 7e0c 27be 04c6 31bf 7c4f 2dbe 8e20 84bf
00000230: 9159 19bf d28c f9be 9b1f 8bbf 5c53 50be
00000240: 36a8 4fbf a4d3 a8bf 78d9 1ebf 1c63 b1be
00000250: 595c 42be 6187 f8be dfc9 03bf f883 e9be
00000260: 76f9 69be 800b 93be 613a e9be 847b 88bf
00000270: 2b86 d6bc b3ea bfbe 123a cabe 8db5 5abf
00000280: 2495 31bf c356 1ebe d9d1 e3bf bf23 b7be
00000290: 0a2e bcbe 46c8 c3be 50d6 05bf d0dd f9be
000002a0: ff9c 23bf 5041 e5be 5f7e 89be 87e4 1ebf
000002b0: d272 debe 1d8f 13bf 2cbf 7fbf 9d51 c83d
000002c0: cb41 2abf 39f7 4fbf 460c 0cbf 7c74 e3be
000002d0: 4620 5fbe bf31 26bf 4515 92be 1334 a7be
000002e0: b39e 3fbf f29d 56bf 5afa babe 46cb 0ebe
000002f0: 407a 6dbe 0366 46bd e728 19be 45da 4cbf
00000300: 370f 93be a14d 42bf b737 15bf 86ab 38bf
00000310: 7d1b 41bf 9071 2abf 86de ccbe 3e7b 71bf
00000320: 8a47 d7be 651f 8e3f 7786 aa3d a6ef 1abf
00000330: 6e60 303e 596a d8be fc46 0ebf 4de9 44bf
00000340: 4bd9 8bbf 5734 f8be 5a24 4cbf a88c 52bf
00000350: f306 0abf 14a0 e5be aaa3 36bf 66d7 51be
00000360: ff68 3cbf 40e7 eabe 9d98 eabe 0e68 ccbe
00000370: 1a46 0bbe dace 39bf 3f2e 12bf dd13 11bf
00000380: 2140 023d 7179 e9be 9092 2fbf 81a2 89be
00000390: 1b9a 93be b7ad 38bf e217 2bbf 37d8 79be
000003a0: 2f0a f6be 692a 63bf ec76 dabe 234e 15bf
000003b0: 9253 33bf e77b f5bd 416d d3ba c72c 0bbf
000003c0: c569 68bf 29e2 5abf 0e30 2cbf 5638 15bf
000003d0: f1ae 94bf 139e 66bf a9fe bdbe debe 3dbf
000003e0: 51f6 19bf be2d 84bf f717 5cbf dddb 16be
000003f0: e809 d2be ea36 2dbf 99df a8be 5810 823e
-0.22583063 -0.87854874 -0.8017851 -0.42050448 0.36446884 -0.4692396 -0.3637979 -0.43507785
-0.73093605 -0.81650716 -0.22522375 -0.59515697 0.16496828 0.27845058 -0.6174449 -1.0093665
-0.9665298 0.6078647 -0.47758153 -0.5929448 -0.35662898 -0.84433377 -0.1068569 -0.28648305
0.14279743 -0.3168151 -0.30764434 0.076122135 -0.03699048 -1.1560408 -0.75314504 -0.39547175
0.18635423 -0.32049376 -0.3406072 -1.2052957 -0.7802447 -0.15409163 -0.049624052 -0.5285347
-0.92058307 -0.49634743 -0.8331986 -0.2452786 -0.7776153 -0.26468483 -0.6898085 -0.8854075
0.063243 -0.321681 -0.45772883 -0.45136657 -0.0070883436 0.12934458 -0.92155033 -0.071066946
-0.60608715 0.15180059 -0.7961238 -0.31076708 -0.23068565 -0.25810674 -0.34008396 -0.61554503
-0.56841344 -0.64191496 0.23324798 -0.31083268 -0.64243853 -0.6924123 0.018435411 -0.5552775
-0.31830767 -0.38893336 -0.26852614 0.46943521 -0.4910637 -0.32061952 -0.04163823 -0.25630414
-0.59956986 0.4391462 -0.5825118 -1.0279087 -0.65163094 -0.1418513 -0.96549404 -0.36159584
-0.59069407 -0.12814428 -0.27535224 -0.8247358 -0.3737429 0.31638446 0.32479393 -0.12889452
-0.9166975 1.1636899 -0.48188126 -0.8117573 -0.47409004 -1.0872486 -0.5249429 -0.27155766
-0.8311587 -0.69296956 -0.3770726 -0.4564627 -0.8581342 -0.036879968 -0.7987097 -1.1035835
-0.14323471 -0.047652896 -0.73847705 -0.64686173 -0.9758378 -0.99979043 0.015030109 -0.9365522
-0.6853904 0.3194546 -0.3692283 -0.91539043 -0.6488933 -0.5490211 -0.5187495 -0.39830312
-0.34470353 -0.6709328 -1.0944219 -1.1934415 -0.9375725 -0.4022425 -0.5625515 0.30431062
-0.16313359 -0.6944277 -0.16924852 -1.0322435 -0.5990229 -0.4874025 -1.086902 -0.20344299
-0.81116045 -1.3189588 -0.6205058 -0.34645927 -0.1898054 -0.48540786 -0.51479906 -0.45608497
-0.22849068 -0.2871971 -0.45552352 -1.0662694 -0.026187023 -0.3748375 -0.3949743 -0.85433275
-0.69368196 -0.15462784 -1.7798415 -0.3576946 -0.36753875 -0.38238734 -0.5228014 -0.48802042
-0.6391143 -0.44776392 -0.26854226 -0.62067455 -0.43446976 -0.5764025 -0.9990108 0.097811915
-0.6650664 -0.81236607 -0.5470623 -0.44424808 -0.21789655 -0.64919657 -0.28531852 -0.32656917
-0.7485153 -0.83834755 -0.36519128 -0.1394473 -0.23191166 -0.04843713 -0.1495701 -0.8002055
-0.28722546 -0.758997 -0.5828814 -0.72136724 -0.7543257 -0.6657953 -0.40013522 -0.9432868
-0.42046767 1.1103331 0.083264284 -0.60521924 0.17224285 -0.42268637 -0.55577064 -0.7691849
-1.0925688 -0.48477432 -0.7974297 -0.82245874 -0.53916854 -0.44848692 -0.7134348 -0.20492324
-0.7359771 -0.45879555 -0.4581956 -0.39923137 -0.1360096 -0.72581255 -0.57101816 -0.56670934
0.03179944 -0.45600465 -0.6858301 -0.26881793 -0.2882851 -0.7214007 -0.6683332 -0.24398886
-0.48054644 -0.8873659 -0.42668855 -0.5832235 -0.70049393 -0.11986523 -0.0016130583 -0.543652
-0.9078639 -0.85501343 -0.67260826 -0.58289087 -1.1615888 -0.9008495 -0.37108353 -0.74119365
-0.60141474 -1.032646 -0.8597407 -0.14732309 -0.41023183 -0.6766192 -0.3298309 0.25403094

fc2.weight f4 [128, 260]
00000000: 9693 dcbd 4132 033d f1c3 15bd 9b50 b3bd
00000010: 6a8a 88bd c012 5bbe f75e b0bd 6b8d 57be
00000020: 2cda 55be dade 123d 83b6 08be fa08 39bd
00000030: 71ac e33d 8090 32bc 5962 40be c702 d4bb
00000040: 4b8d d7bd e4bc 4cbc 8085 91be aaa3 ce3d
00000050: 1758 41be 5400 863d 3bf4 0fbe 0405 90bc
00000060: fe7d 81bd 1e69 acbe ce24 33be 8416 193d
00000070: 68df 02be a2ad 1d3c 5739 3bbd cc73 34be
00000080: 7c2b d23d 89bc 51be 92de f1bd bf4f 9038
00000090: 60cd f83d 3890 99bd b8ac 5bbe 7e40 96bd
000000a0: 9734 ccbd da52 a4bd 41b2 80bd c390 41be
000000b0: 24de 623b 2c31 47bc 9150 abbd e7c7 bc3c
000000c0: 3e3b f6bd 9a57 85be e121 1f3d 7208 41bd
000000d0: 5162 c83c 5501 bbbd 905a 21be 37b5 01bd
000000e0: ec30 5fbe f1ae 7dbe 05bc 05be 7633 7abe
000000f0: c465 ccbe 7439 11be 617f 4ebe f2fa cbbc
00000100: 7a43 aa3c 0739 01be 8d7e ecbe 342a dbbd
00000110: 1206 e73d 81d4 a8bd 101b d1bd f6e8 92be
00000120: 913b 58be 56d1 d23d 0ad0 3bbe fd35 05be
00000130: 7986 8bbe e54f 01bd 0279 2cbd 12c2 10be
00000140: 14c3 48bc cd67 db3d eccc 44be 653a adbe
00000150: e587 aabe 161d a8be 1b26 1abe 00e1 3abe
00000160: f455 78bc 58db b53d 27a4 a23d 904a e53b
00000170: 5fc1 2ebc a561 abbd 91db 14be 76d3 fdbc
00000180: 8d65 cabd 8056 d9bd d196 95bd 5a2f 09bd
00000190: a788 4ebe 03d1 e9bd f619 d3be 2586 4cbe
000001a0: 3bb6 78bd 344c 00bf 544b 22be b70a 5fbd
000001b0: e756 dd3c 4f72 1fbe dd30 7cbe 7df5 61bd
000001c0: c1ea 0bbe 6d87 b2be 374a 68bc b051 30bd
000001d0: 2cdb 1e3d 4843 93bd 7446 ebbc 68e9 813c
000001e0: c3c7 253d 01dc 35be 4e34 aebe 2c56 26be
000001f0: 3a3a d9bd 8f25 4fbb 5867 83bb df7b 1dbe
00000200: b398 b7bd 11d8 4cbe 056c 27be 914e a8bd
00000210: 1735 133d 76a8 8c3d a0a7 e6bd 1d92 f33c
00000220: a96d 273e 7b09 d33d 3b2f d4bc 1e92 ba3d
00000230: 15b1 12bd 2b19 85bd 0318 6dbd d4a1 06be
00000240: 36b9 59bd c20a 7d3b 16bd 76be f6e3 38be
00000250: 067f 54bc 740f 0a3d 69ad 77be e554 1dbd
00000260: 2799 ea3d 72fd 15be 16e0 abbc 627c 05be
00000270: af2b 7abe 71c3 a7bd df76 dbbd 410a 0dbe
00000280: 48ee 92bc 24ea 9cbd c78a b4bd 516a 7bbc
00000290: b60e 1bbd 6f05 69bd 42ae fbbd b881 de3c
000002a0: 4816 c6bd 22fc c13c 3185 15be 14b4 06bd
000002b0: 3fd3 cdbd 755b 49be c947 b6be 9302 1fbe
000002c0: 74dd 53be 109d a0be 27e0 243c 069d 47be
000002d0: 2160 3ebf 9a0b 6cbc e799 ddbd f276 5ebe
000002e0: da68 f4bc 8da2 a4bd 71ff f3bd 62ae 80bd
000002f0: d52a 1abd 020c dfbe 149d 67bd 6132 0fbd
00000300: 8a68 62bd 122a 93bd 780a 5fbd 9821 64be
00000310: 12c1 59be a827 943c 164b 5dbb 0453 9ebd
00000320: 5636 1ebe 8244 8fbe bc62 a1be 2ad6 123e
00000330: 0bbd 6fbd e4f8 bbbe 5483 d0bc d973 7bbe
00000340: b1aa 8c3d 2a53 2b3d 0b5e 66be 4f8c c03b
00000350: f789 3d3d f548 17be a916 99bc 793b 3bbe
00000360: 08f9 d23d 335a 0abd 3aaf 78bd 6fac 94bd
00000370: b4f7 1e3c ff39 b5bd dc72 09be efeb e5bd
00000380: 7962 abbe 060b 38be e8a5 61be 7a49 2abe
00000390: fcf6 cfbc b7d2 a8be e667 89be 5fdd 36be
000003a0: 8819 d63d 3f06 58be ac07 1ebe 3f75 ecbd
000003b0: f710 d6bd e166 a3bd de0b a63c 761d 773c
000003c0: a5b3 6a3c a33b 04be 192e 57bd 6def 1dbe
000003d0: 0f06 10be 99df 26be 3176 a03c 340a 32be
000003e0: 732e f5bd 80f7 95bd 60b7 87be cc02 adbd
000003f0: 569f 4fbe b67a db3d 0af4 933c a986 b2be
-0.10770337 0.032030348 -0.036563817 -0.08755609 -0.066670254 -0.21393871 -0.08611863 -0.2105004
-0.20884007 0.03585706 -0.13350873 -0.045174576 0.11116875 -0.010898709 -0.18787517 -0.0064700576
-0.10524996 -0.012496207 -0.28422165 0.1008981 -0.1888126 0.06543031 -0.1405801 -0.017580517
-0.06322859 -0.33673948 -0.17494509 0.03737499 -0.12780535 0.009623917 -0.04570898 -0.17622298
0.102622 -0.20482077 -0.1181003 6.881309e-05 0.12148547 -0.07498211 -0.21452606 -0.0733652
-0.09970968 -0.08023615 -0.06283999 -0.18902878 0.003461727 -0.01215772 -0.08364976 0.02304454
-0.12023018 -0.26043397 0.03885067 -0.047127195 0.024460943 -0.091311134 -0.15757203 -0.03166696
-0.21796006 -0.24773766 -0.13060005 -0.24433693 -0.3992139 -0.14182073 -0.20165779 -0.024899933
0.020784128 -0.1261941 -0.461903 -0.10701409 0.11280455 -0.08243657 -0.1021024 -0.2869336
-0.21116473 0.10293834 -0.1834108 -0.13008876 -0.27251032 -0.031570334 -0.04210759 -0.14136532
-0.0122535415 0.10713158 -0.19218796 -0.33833614 -0.33306804 -0.3283469 -0.15053599 -0.18249893
-0.015157212 0.08879727 0.07941466 0.006997414 -0.01066622 -0.083682336 -0.14536883 -0.030984621
-0.098826505 -0.10612202 -0.073041566 -0.033492424 -0.20169316 -0.11416819 -0.41230744 -0.19973047
-0.060720664 -0.50116277 -0.15849048 -0.054453578 0.027018977 -0.15570949 -0.24628015 -0.055165756
-0.1366377 -0.34868947 -0.01417785 -0.043046653 0.038783237 -0.07190567 -0.028720118 0.015858367
0.04047371 -0.17759706 -0.3402428 -0.1624381 -0.10606809 -0.003160808 -0.0040101223 -0.15379284
-0.08964672 -0.20004298 -0.163498 -0.0821811 0.035939302 0.06868069 -0.11262441 0.029732758
0.16350426 0.10304543 -0.025901427 0.09109901 -0.03581341 -0.06498941 -0.057884227 -0.1314767
-0.053155147 0.0038611148 -0.24095568 -0.1805571 -0.012969738 0.033706143 -0.24187244 -0.03841104
0.11454993 -0.14647463 -0.020980876 -0.1303573 -0.24430726 -0.08191574 -0.10716032 -0.13773443
-0.017935887 -0.07661846 -0.08815532 -0.015345172 -0.037855826 -0.056889948 -0.122890964 0.027161464
-0.096722186 0.023679797 -0.1460159 -0.03288658 -0.100500576 -0.19663794 -0.35601643 -0.15528326
-0.20689946 -0.3136983 0.010063208 -0.19493493 -0.7436543 -0.014407063 -0.1082037 -0.21725062
-0.029835153 -0.080388166 -0.11913956 -0.06283261 -0.037638504 -0.4356385 -0.056546286 -0.034960154
-0.055275477 -0.07185759 -0.054453343 -0.2227844 -0.21265057 0.018085316 -0.0033766679 -0.07730678
-0.15450415 -0.27981955 -0.3152064 0.1433951 -0.058529895 -0.36713326 -0.025453247 -0.24555911
0.06868494 0.04182736 -0.22496812 0.005876101 0.04627415 -0.14773925 -0.018687563 -0.18284406
0.10301405 -0.033777427 -0.060713984 -0.072594516 0.009702612 -0.088489525 -0.13422722 -0.112266414
-0.33473566 -0.17972955 -0.22035944 -0.16629592 -0.025386326 -0.32973263 -0.2683708 -0.17857884
0.104540884 -0.21096133 -0.15432614 -0.115458004 -0.104524545 -0.07978607 0.02026933 0.015082708
0.014325057 -0.12913375 -0.052534197 -0.15423365 -0.14064811 -0.16296233 0.019587608 -0.17386705
-0.1197175 -0.073225975 -0.26507092 -0.08447799 -0.20275626 0.10716765 0.018060703 -0.34868363

fc2.bias f4 [128]
00000000: 93e6 a4be f0a1 7cbe acb9 e9bd 0ef8 aebe
00000010: 5006 993f 2c88 e33e ce5e 32be 49e6 90bd
00000020: dcc5 a4bd bb51 76be 5589 f1bd 0296 b0be
00000030: a66b 15be 4a75 56be 8178 82be dbad c4bd
00000040: 1b6c 1bbe 4a88 12be fb93 38be 7a9f c5bd
00000050: 7333 26bf 4684 13be a336 28be a6d5 d8bd
00000060: d588 f1bd 884b 3abe 88b3 46bf e681 2dbe
00000070: 86f2 2abe ada4 4ebe e29a f9bd 9f34 183f
00000080: fbc3 13bf e363 fdbd 766b 1abe c083 60be
00000090: 50ce b1bd 1021 893d 6c6b e6bd b20f 84be
000000a0: 2f65 26be 809b 3fbe 8f6d a5bd 94e9 a8be
000000b0: bcc5 01be ab41 46be c17c a4be d874 1cbe
000000c0: 7cba eebd 3bad 16be 6d77 dcbd bb77 65be
000000d0: 517e 9bbb 65d1 01bf 6399 edbd 6428 25be
000000e0: 09df 2fbe d634 d9be 884e d8bd 0bfd 3dbe
000000f0: e0d9 2fbe 3838 d5bd fa0b 1fbe 4521 3537
00000100: fcd1 6dbd 8d94 dcbe 021c 07be 5770 3ebe
00000110: 3cfb 62be 3201 0abe eda8 99be fea8 2ebe
00000120: ec2c f6bd b867 0bbf 6645 b6be 5f8c 6abe
00000130: fbb0 aebd 824f 093d 9573 8bbf 9bab 253f
00000140: 0ed6 b8be ee70 9abd aec5 61be 4839 42be
00000150: 514e 4ebf 214d e33f c8d7 d8bd 5d4e 84bd
00000160: 9142 1ebf 7bb0 2abf 20dc edbd c231 1bbe
00000170: 5fe6 5ebe e563 87be 479a 36be eb07 42be
00000180: 54e3 43be 2779 a7bd 3f78 48be 47d0 adbe
00000190: 75eb 0fbf d46f b7bd d92a 6dbe 7ab7 72be
000001a0: 2bd1 5dbe 609a cabd 8f9f 2bbe 69ec 47be
000001b0: 7f89 80be d77e d1bd b276 4fbe 5b02 96be
000001c0: 90dc 23be a3d2 5ebe d0a8 d0bd 4115 4bbe
000001d0: 5c4a 13be 3675 41be 4ccb e7bd 32eb 19be
000001e0: 11eb 4fbd 675a 5ebe a2b0 35be 1404 25be
000001f0: 4d12 b1be 82cc e7be 429e adbe d359 61be
-0.32207164 -0.24671149 -0.11412367 -0.34173626 1.1955051 0.44439828 -0.17418978 -0.070751734
-0.08045551 -0.24054615 -0.11793772 -0.34489447 -0.14591846 -0.2094318 -0.25482562 -0.09603473
-0.15177958 -0.14309803 -0.180252 -0.09649558 -0.64922255 -0.14405927 -0.16427092 -0.10587625
-0.11793677 -0.18192875 -0.7761769 -0.16944084 -0.16694078 -0.20180006 -0.12187745 0.59455293
-0.5772092 -0.123725675 -0.15080056 -0.21925259 -0.08681929 0.06695759 -0.11250958 -0.25793225
-0.16249536 -0.18711662 -0.08077537 -0.32990706 -0.12673086 -0.19360988 -0.3212643 -0.15278947
-0.11656663 -0.1471452 -0.10764966 -0.22408955 -0.0047452827 -0.50710136 -0.11601522 -0.16128689
-0.17174925 -0.42423123 -0.10561854 -0.1855356 -0.17172956 -0.104111135 -0.15531912 1.0796187e-05
-0.058061585 -0.43082085 -0.13194278 -0.18597542 -0.22166151 -0.13477018 -0.30011693 -0.17056653
-0.12020287 -0.5445514 -0.35599822 -0.2290511 -0.0852985 0.03352309 -1.0894648 0.64714974
-0.3610081 -0.07541071 -0.22048065 -0.18967164 -0.8058825 1.7757913 -0.10588032 -0.06460259
-0.6182032 -0.6667554 -0.11614251 -0.151557 -0.21767567 -0.264434 -0.1783229 -0.18948333
-0.19129688 -0.08177405 -0.1957712 -0.33947966 -0.56218654 -0.089568764 -0.23160876 -0.23702803
-0.21661822 -0.09892726 -0.16760086 -0.19523777 -0.251049 -0.10229271 -0.20260122 -0.29298672
-0.16002107 -0.21760039 -0.101884484 -0.19832326 -0.14383835 -0.18892369 -0.11318073 -0.15031126
-0.050761286 -0.21714173 -0.17743161 -0.16114837 -0.34584275 -0.45273215 -0.33909804 -0.22006921

fc3.weight f4 [1, 128]
00000000: 0e10 483c 508a 05bc 0999 5abb 5fbc bcbc
00000010: c269 ccbb f7ce 413c 1679 8dbc 6c10 53bc
00000020: 78d6 1f3c 3eca 443c b029 4a3b 13aa dabb
00000030: 13a8 ebbb cb7a ec3b 8b8a 0a3c 025a 3d3d
00000040: afd3 12bc 4c08 803c 8cc2 c7bb 1eee b83c
00000050: 11dc 233c 3d58 573c ee3c d83b 2848 a03c
00000060: fb51 9bbc f410 a2bc a615 19bc 6632 cd38
00000070: 4401 15bc 70d8 9bbc 0ac5 04bc 7542 383c
00000080: 5dda abbc 719e 8bbc fcf6 863b 0e8a 08bc
00000090: 61f1 9c3b e5cd ff3c 5a64 f73c b411 db3c
000000a0: b392 08bc ce7c a63c 34c9 d23c 5e92 d1bc
000000b0: f4c0 1bbc d7f7 ecb9 37e7 03bb ea65 ec3c
000000c0: 93c9 85bc 1c3e c6bc af41 983b 5f44 fabc
000000d0: 4b5d b4bc a977 cdbc 9c78 e73c 063d 1c3b
000000e0: 3fd4 dfbb f8e3 133b fcf9 953c b320 1a3c
000000f0: 04d6 b63c 612b 773c e580 12bc 970f 8ebc
00000100: f980 413c 7242 a8bb 613b d5bb 55c9 a3bc
00000110: 5c1f 963c 01ba 9dbb 1543 5e3c 361e 973c
00000120: 510f 913c 1ca6 0cbc 29bc afbc d91a 463c
00000130: d2d1 d0bc d692 e73b bfe0 b8bc 91f6 e43b
00000140: cacb 1fbc 259e ea3c 4cfe dc3b 6e2c 5a3c
00000150: b673 79bc 2838 903c 58a8 a2bc 9593 053c
00000160: 411d 7cbb 3d5d 6dbc 119c a9bc 34ef 9eba
00000170: 83ca c33c 4f32 66bc f699 783c b4dd 9bbc
00000180: 2155 f23c d60b 003d 64dc 49b9 6975 ccbc
00000190: d6ca 1e3c 2b5b 9b3c e234 4bbb 569c bf3c
000001a0: 3862 b63c 12cb f3bc 628d 75bc 2512 853c
000001b0: 8884 afbc 7623 b1bc 9bed d3bc e140 983b
000001c0: 28b7 54ba fb81 aabc e3f5 9bb8 b99b b7ba
000001d0: c775 1d3c df20 e43b be80 01bd 2517 02bb
000001e0: bed8 913b 35bc 7dbc 36a1 93bb 5482 83bc
000001f0: 93f6 373c a4b1 9bbb edfe 4c3c 16d2 51bc
0.012210859 -0.008150652 -0.0033355376 -0.023039041 -0.0062381933 0.011829129 -0.017269652 -0.012882333
0.009755723 0.012011109 0.0030847602 -0.0066731065 -0.007191667 0.0072167865 0.008455883 0.046228416
-0.008961602 0.015628956 -0.00609619 0.02257448 0.010001198 0.013143596 0.0065990603 0.019565657
-0.01895999 -0.019783475 -0.00934354 9.784549e-05 -0.00909454 -0.019024104 -0.008103618 0.011246313
-0.020978147 -0.017043324 0.0041187983 -0.008333696 0.004789517 0.031226108 0.030199219 0.02674184
-0.008335757 0.020323183 0.025730707 -0.025582489 -0.009506453 -0.00045198083 -0.0020126828 0.02885719
-0.01633147 -0.024199538 0.004646502 -0.03055018 -0.022017142 -0.025081472 0.028255753 0.0023840084
-0.0068307216 0.00225663 0.018307678 0.00940721 0.022318847 0.015086026 -0.008941864 -0.017341418
0.011810535 -0.005134874 -0.0065073227 -0.019993464 0.0183255 -0.004813433 0.013565798 0.018447023
0.017707499 -0.008584525 -0.021452026 0.012091362 -0.025490675 0.0070670648 -0.022568105 0.006987401
-0.009753177 0.028639862 0.0067441817 0.013316257 -0.015225342 0.017604902 -0.019855663 0.008152862
-0.0038469585 -0.014487562 -0.020704301 -0.0012125731 0.023900276 -0.01405008 0.015173426 -0.019026615
0.029581608 0.031261288 -0.00019250956 -0.02495833 0.009691915 0.01896437 -0.0031006862 0.023389976
0.022263631 -0.029759917 -0.014987322 0.016244004 -0.0214255 -0.021623354 -0.025870135 0.004646406
-0.00081144506 -0.020813933 -7.436776e-05 -0.0014008201 0.0096106 0.0069619264 -0.03161692 -0.001985022
0.0044508865 -0.015486767 -0.004505302 -0.016053356 0.0112282215 -0.004751401 0.012511951 -0.012806436
