DRLND_deep_reinforcement_learning_nanodegree/p1_navigation/checkpoint.pth (torch_old, 36433 bytes, 8 tensors)

fc1.weight f4 [64, 37]
-0.064073615 -0.019546334 0.062986925 -0.13084798 0.113129474 0.025131332 0.07996642 0.086208
0.14455347 0.044091728 0.31034845 -0.20058149 -0.18177006 -0.52357346 -2.0043485 0.17459649
-0.033288434 0.046365835 0.06740098 -0.03079893 0.11222652 0.057574496 0.059305243 0.09565443
-0.06479813 0.08350256 -0.016944481 -0.06896032 -0.08967785 -0.19636315 -0.06843367 -0.102590755
0.03851077 0.10627537 0.057181116 -0.00096782565 0.005884725 0.4765015 0.046616666 -0.2628747
-0.4158498 -1.4501611 -0.16308117 0.07468579 0.09002893 -0.30690902 -0.14401063 0.047526937
-0.0045643365 0.04398831 0.12307448 0.010138992 0.15889297 0.037886567 0.107763484 -0.04572156
-0.34017205 -0.021275507 0.0033855513 -0.18755396 0.09732179 0.12913042 -0.100784175 0.064763464
0.14790425 0.12551649 -0.09165498 0.013405832 0.17392579 0.19487411 0.043816254 -0.1301682
-0.0033049814 -0.014508875 -0.7437209 -0.47179255 0.3269534 -0.47953084 -1.7516189 -0.35446233
-0.5396393 0.260313 -0.2535645 -0.982894 0.0970186 -0.45247862 -0.08557354 -0.14190815
0.0401447 -0.25231677 -0.431855 0.25067082 -0.27977797 -2.0609663 -0.040101502 0.025022812
-0.11336353 -0.569113 -0.08473231 -0.79129505 -0.03113549 0.29878426 -0.6643043 -0.91829455
-0.26389003 -0.1373047 -0.3293398 -0.31329778 -0.28754473 0.24130245 0.015915196 0.13521147
-0.06622448 0.116269656 0.10527961 -0.037024 0.08601498 -0.17332192 -0.025506916 0.06724161
0.10157303 0.044699874 -0.13223335 0.080687776 0.046689358 -0.09319397 0.0609084 -0.122769274
0.011447102 -0.2406234 -0.094245404 0.29731917 -0.189265 -0.20397529 -0.2202806 -0.7904942
0.061953146 -0.11493568 -0.07060656 0.26518434 0.08217778 0.06081614 0.19974914 0.043236304
-0.19918063 -0.14148597 -0.049928244 -0.015343218 -0.18421061 0.06929507 -0.29091045 -0.32384932
0.27472544 -0.4677538 -0.029358698 0.2844003 -0.21518001 -0.37084827 -0.0074154083 0.15178114
-0.10830309 -0.15416625 -0.23992966 -0.23241664 6.690132e-06 0.0058344635 -0.3360107 -0.034613986
-0.113437146 -0.18421684 0.033828616 0.20492756 0.19186154 -0.26271525 0.12318066 0.06618364
-0.117563784 -0.03218929 -0.1560158 -0.0020634744 0.00017287339 -0.023201732 0.3052071 -0.009162477
-0.0318778 0.16648152 -0.19730821 -0.274814 -0.34346294 0.12909359 -0.085590325 0.029821906
0.21027552 0.034251917 -0.21384232 -0.32025033 -0.08733845 -0.13625807 0.037495967 -0.37316298
0.052685052 0.13874605 0.02069175 -0.22738765 0.010233891 -0.07277316 0.20534776 -0.06676879
0.10851037 -0.39538908 0.1707428 -0.4095828 -0.4753687 -0.008512111 -0.3293382 0.031359438
-0.08416039 -0.02937498 -0.13091823 -0.6900797 0.089525834 -0.0107596805 -0.063732915 0.04009074
-0.009342989 0.14773665 0.12301328 -0.10136724 -0.07170289 0.14815502 0.07812137 0.086500265
0.24587147 -0.010076477 -0.04785269 0.25435707 -0.2513069 0.00080934184 0.0035195118 -0.21242909
0.2768016 0.13587473 0.097046085 -0.04489377 0.037042607 0.09909049 0.18958965 -0.03524873
0.04377744 -0.09612542 -0.1740623 -0.068951644 0.19553228 0.019234585 0.14956413 -0.44469383
00000000: 0739 83bd a21f a0bc 4aff 803d 03fd 05be
00000010: 6db0 e73d 39e0 cd3c 6fc5 a33d d28d b03d
00000020: d305 143e 8799 343d fee5 9e3e 3c65 4dbe
00000030: ee21 3abe e908 06bf 3f47 00c0 6cc9 323e
00000040: 7459 08bd 1aea 3d3d 8609 8a3d 0a4e fcbc
00000050: 05d7 e53d 3cd3 6b3d 0eea 723d 78e6 c33d
00000060: e2b4 84bd 6403 ab3d 27cf 8abc 113b 8dbd
00000070: 05a9 b7bd 6c13 49be f426 8cbd 1a1b d2bd
00000080: 78bd 1d3d e7a6 d93d bf36 6a3d aeb5 7dba
00000090: a7d4 c03b 01f8 f33e 1ef1 3e3d 8397 86be
000000a0: 44ea d4be e19e b9bf c0fe 26be ddf4 983d
000000b0: 1661 b83d 2e23 9dbe 8677 13be 9bab 423d
000000c0: 6e90 95bb 162d 343d 790e fc3d 041e 263c
000000d0: d7b4 223e f22e 1b3d 1ab3 dc3d 8846 3bbd
000000e0: 082b aebe f949 aebc 20e0 5d3b 250e 40be
000000f0: a650 c73d c43a 043e ef67 cebd b5a2 843d
00000100: 3674 173e 6587 003e 9bb5 bbbd 23a4 5b3c
00000110: 9a19 323e 148d 473e ac78 333d d04a 05be
00000120: 6398 58bb a2b6 6dbc 7e64 3ebf cb8e f1be
00000130: 7066 a73e 1185 f5be 0c35 e0bf 167c b5be
00000140: cd25 0abf bf47 853e 35d3 81be f19e 7bbf
00000150: b0b1 c63d 47ab e7be 2e41 afbd 5f50 11be
00000160: c56e 243d aa2f 81be 191c ddbe ed57 803e
00000170: 0f3f 8fbe dfe6 03c0 7941 24bd a4fc cc3c
00000180: 232b e8bd 64b1 11bf 2288 adbd 5092 4abf
00000190: db0f ffbc 40fa 983e d90f 2abf 5a15 6bbf
000001a0: 981c 87be 9a99 0cbe 3a9f a8be 9168 a0be
000001b0: 1039 93be fd17 773e 9660 823c e074 0a3e
000001c0: b3a0 87bd c91e ee3d d69c d73d 7aa6 17bd
000001d0: 9f28 b03d 4d7b 31be e1f3 d0bc f8b5 893d
000001e0: 8505 d03d 3717 373d 2e68 07be a23f a53d
000001f0: 573d 3f3d 7bdc bebd 167b 793d 756e fbbd
00000200: a08c 3b3c fb65 76be bc03 c1bd 383a 983e
00000210: afce 41be e6de 50be 3d91 61be d45d 4abf
00000220: 95c2 7d3d 6663 ebbd 2c9a 90bd 3ec6 873e
00000230: d34c a83d 581a 793d 0a8b 4c3e 8d18 313d
00000240: 02f6 4bbe b3e1 10be 8f81 4cbd 1f62 7bbc
00000250: b5a1 3cbe 93ea 8d3d 37f2 94be 94cf a5be
00000260: d0a8 8c3e 6d7d efbe a781 f0bc eb9c 913e
00000270: 2658 5cbe d3df bdbe f4fc f2bb 846c 1b3e
00000280: 03ce ddbd c2dd 1dbe 1fb0 75be a1fe 6dbe
00000290: cc7b e036 072f bf3b 9809 acbe 65c7 0dbd
000002a0: bc51 e8bd 57a3 3cbe e08f 0a3d 88d8 513e
000002b0: 5a77 443e 9d82 86be 2446 fc3d 4a8b 873d
000002c0: 48c5 f0bd ebd8 03bd 9bc2 1fbe 5b3b 07bb
000002d0: 5945 3539 8f11 bebc 1b44 9c3e 371e 16bc
000002e0: 4c92 02bd 227a 2a3e 2a0b 4abe 6cb4 8cbe
000002f0: 60da afbe 1c31 043e fb49 afbd 124d f43c
00000300: 7752 573e bd4b 0c3d 7bf9 5abe daf7 a3be
00000310: 80de b2bd 3c87 0bbe 5f95 193d 380f bfbe
00000320: 48cc 573d 7213 0e3e bf81 a93c 4fd8 68be
00000330: 0dac 273c 180a 95bd af46 523e 13be 88bd
00000340: af3a de3d 7070 cabe 33d7 2e3e d6b4 d1be
00000350: 8763 f3be 6276 0bbc 049f a8be c172 003d
00000360: 485c acbd cca3 f0bc 6e0f 06be 10a9 30bf
00000370: 5259 b73d 5f49 30bc 6786 82bd 3036 243d
00000380: 5613 19bc 4748 173e 63ee fb3d a199 cfbd
00000390: f7d8 92bd f3b5 173e 19fe 9f3d 0d27 b13d
000003a0: bbc5 7b3e cf17 25bc 2f01 44bd 173b 823e
000003b0: 4cab 80be 032a 543a 9ca7 663b 0387 59be
000003c0: f0b8 8d3e bf22 0b3e 19c0 c63d 88e2 37bd
000003d0: fdb9 173d f4ef ca3d ca23 423e f960 10bd
000003e0: f94f 333d 67dd c4bd 633d 32be 8536 8dbd
000003f0: 9d39 483e d991 9d3c 5727 193e e9ae e3be

fc1.bias f4 [64]
0.123798855 0.053585574 -0.03237726 -0.028775238 0.0906384 -0.15556352 -0.052109808 0.112902924
-0.0036402135 -0.19864386 0.028553484 0.07634008 0.055942886 0.15383068 -0.09399083 -0.14816481
-0.045194406 -0.08386028 0.019784084 -0.29517648 -0.021428743 0.070182726 -0.0015712781 -0.13285309
-0.19026887 0.18098783 -0.049619067 -0.017806048 0.06016001 0.08710059 -0.06933365 -0.21372479
0.14076972 0.0011879209 -0.21386576 0.048561834 -0.12633337 0.0005429643 -0.059550814 -0.16684206
-0.21684414 0.0323125 -0.10698462 0.08836631 0.02178729 -0.24541546 -0.05980591 -0.15061125
-0.16241503 0.042345583 -0.18765646 0.10076774 -0.04312565 -0.028755046 -0.19437343 -0.089315124
0.19768089 -0.049806442 -0.19484784 -0.13583882 -0.045474857 0.063528255 0.109569386 0.0069338144
00000000: 418a fd3d 8c7c 5b3d 059e 04bd 0cba ebbc
00000010: a0a0 b93d 0b4c 1fbe 1871 55bd a639 e73d
00000020: a690 6ebb 4c69 4bbe ffe8 e93c 3058 9c3d
00000030: 5e24 653d ca85 1d3e 447e c0bd 84b8 17be
00000040: c51d 39bd f0be abbd 3b12 a23c 5f21 97be
00000050: 558b afbc f6bb 8f3d 58f3 cdba a40a 08be
00000060: d8d5 42be e054 393e 5d3d 4bbd fddd 91bc
00000070: 586a 763d cb61 b23d cdfe 8dbd acda 5abe
00000080: f025 103e 03b4 9b3a a0ff 5abe c6e8 463d
00000090: 895d 01be b855 0e3a 8eeb 73bd a5d8 2abe
000000a0: 640c 5ebe 1d5a 043d c11a dbbd 65f9 b43d
000000b0: 427b b23c 314e 7bbe 0bf7 74bd d639 1abe
000000c0: 2050 26be 9072 2d3d 0429 40be 515f ce3d
000000d0: 86a4 30bd b48f ebbc d409 47be d9ea b6bd
000000e0: dc6c 4a3e d701 4cbd 3186 47be 5519 0bbe
000000f0: d843 3abd 1a1b 823d ea65 e03d 0d35 e33b

fc2.weight f4 [64, 64]
-0.058707718 0.011971158 0.43021956 0.13949141 0.22293782 -0.17595722 -0.07895555 -0.05583632
-0.30263814 -0.14446211 0.3061009 -0.18344806 -0.5787293 0.007874327 -0.19425553 -0.20884977
-0.15654755 -0.23781149 -0.1921426 0.13456213 -0.0720515 -0.161138 0.15038906 -0.5412475
-0.2364673 0.23036271 0.27458474 0.034008518 -0.09918905 0.13079605 0.48830542 -0.2999077
0.08675271 0.14924785 -0.018602697 -0.07949644 -0.28305832 0.1721481 0.24895038 -0.18816149
-0.6423809 0.185639 0.039423004 -0.28040907 0.17066935 -0.69304305 -0.25683653 0.14918216
-0.46509463 -0.34215856 0.08263621 -0.16585773 -0.21491206 -0.14843222 -0.1873151 -0.03279154
0.40993983 0.02877811 -0.24151997 0.24530609 -0.0028171828 0.23691285 0.0713852 0.3777597
0.17222746 0.5049176 0.005951966 0.017061777 -0.014007626 -0.0060727 -0.029033834 0.012986663
-0.06260841 -0.24234828 0.15626714 -0.06935745 -0.28171444 0.11483134 0.056156605 0.086724296
0.1284493 -0.16457304 -0.044037584 -0.0155330645 0.038364727 -0.110349104 0.107054554 -0.051003624
-0.074757546 0.09809245 -0.31566727 -0.3589676 0.05010035 -0.13868353 0.29813558 -0.2169647
0.1693257 0.194102 -0.02954686 -0.22420913 -0.18927798 0.19022056 0.29047975 -0.13880321
0.032464717 0.29385185 -0.04919401 -0.018061947 0.016531482 0.269357 -0.10476291 -0.05068904
0.11677359 -0.07606903 0.007837725 0.0994174 -0.14314179 0.2576488 0.2759467 -0.06420204
0.013535286 0.10157994 0.15753612 0.1096564 -0.05866272 -0.03159564 -0.03391175 -0.04855873
-0.08817075 -0.36856285 0.24394149 -0.34242928 0.050036553 0.13139644 0.054380663 0.12858315
0.18050161 0.042350646 0.05234259 0.0726728 0.07125226 0.29303962 -0.0070912014 0.013041028
0.070903964 0.3001957 -0.35058773 -0.13933769 -0.1549464 0.17182072 -0.14578491 -0.049437903
-0.08421271 0.3262983 -0.19675437 0.09200134 -0.010336215 -0.09043899 0.10708174 -0.21557942
-0.070419334 -0.23611267 -0.092512794 -0.1608019 -0.091075785 -0.030587578 0.02125433 -0.04079311
0.40089783 -0.03064893 0.1063328 -0.36757684 -0.23631357 0.30309403 -0.15945518 -0.035056803
0.017643861 -0.25270605 -0.09586752 0.12757981 -0.2925646 0.20834142 0.07605325 -0.24644642
-0.06741163 -0.16502078 -0.06179719 0.20356451 0.04318175 0.22748058 -0.26315734 0.3726387
-0.11160501 -0.109969966 0.060816273 -0.22132353 -0.085429944 -0.032619502 -0.026535127 -0.07220062
-0.12476321 -0.05716181 -0.0103224395 0.04341657 -0.06653663 -0.074379094 0.0031463748 -0.072147444
-0.062560864 -0.032081425 -0.010424491 -0.12358896 -0.037280526 -0.00059757155 -0.10105154 0.05658694
-0.104843296 0.006346796 -0.022721212 -0.005676018 -0.023204613 -0.10347597 0.042984318 -0.071776666
-0.10365495 -0.08207271 0.01185847 0.06538843 -0.13467766 -0.014726821 0.23144528 0.037117913
-0.028425261 0.04821058 -0.0015644977 -0.18425122 -0.045537077 0.02703389 -0.036111716 -0.024296753
-0.08805985 0.013873133 -0.18765117 -0.08786041 -0.015598528 0.004693203 -0.058492888 -0.08866224
-0.117906615 -0.09870062 -0.12569386 0.13364993 -0.2357966 -0.025153676 -0.095759176 -0.032781832
00000000: 8177 70bd ad22 443c bd45 dc3e d6d6 0e3e
00000010: d049 643e 212e 34be 73b3 a1bd a0b4 64bd
00000020: 63f3 9abe e0ed 13be 42b9 9c3e cfd9 3bbe
00000030: 9a27 14bf 5203 013c ecea 46be b7dc 55be
00000040: 004e 20be db84 73be 08c1 44be a8ca 093e
00000050: bd8f 93bd 5c01 25be 97ff 193e 328f 0abf
00000060: 7c24 72be 34e4 6b3e 5f96 8c3e 844c 0b3d
00000070: a123 cbbd 66ef 053e 2b03 fa3e 818d 99be
00000080: 68ab b13d 6ed4 183e af64 98bc 08cf a2bd
00000090: 05ed 90be 9747 303e d9ec 7e3e 68ad 40be
000000a0: 1373 24bf 2618 3e3e 047a 213d c791 8fbe
000000b0: f2c3 2e3e 456b 31bf 1480 83be 35c3 183e
000000c0: e220 eebe 682f afbe 2c3d a93d 9cd6 29be
000000d0: e811 5cbe 9efe 17be 88cf 3fbe 6c50 06bd
000000e0: a2e3 d13e 12c0 eb3c 0351 77be 8531 7b3e
000000f0: 7ca0 38bb 4899 723e 6732 923d b869 c13e
00000100: 655c 303e 4842 013f b608 c33b 24c5 8b3c
00000110: 3e80 65bc 80fd c6bb 5dd8 edbc 03c6 543c
00000120: d738 80bd 262a 78be 7e04 203e 470b 8ebd
00000130: e03c 90be b22c eb3d 7804 663d 829c b13d
00000140: 3788 033e d685 28be c160 34bd 657e 7ebc
00000150: 5524 1d3d b6fe e1bd 6b3f db3d 2de9 50bd
00000160: 7c1a 99bd b2e4 c83d 249f a1be 9aca b7be
00000170: 0636 4d3d 0e03 0ebe 3aa5 983e ff2b 5ebe
00000180: b763 2d3e adc2 463e 420c f2bc 1497 65be
00000190: 16d2 41be 2ec9 423e c3b9 943e 6e22 0ebe
000001a0: b9f9 043d c073 963e a97f 49bd a6f6 93bc
000001b0: 086d 873c 29e9 893e f08d d6bd 509f 4fbd
000001c0: fe26 ef3d 14ca 9bbd cd69 003c 5a9b cb3d
000001d0: c393 12be 8bea 833e e348 8d3e 5c7c 83bd
000001e0: 1bc3 5d3c 2509 d03d 2651 213e 8993 e03d
000001f0: 5248 70bd 6e6a 01bd 0ce7 0abd 85e5 46bd
00000200: de92 b4bd 45b4 bcbe cccb 793e e452 afbe
00000210: 21f3 4c3d ca8c 063e 42be 5e3d 4dab 033e
00000220: 6ad5 383e df77 2d3d 2f65 563d 7ad5 943d
00000230: b4ec 913d 4a09 963e 4f5d e8bb 09aa 553c
00000240: 1936 913d 40b3 993e 3c80 b3be 8aae 0ebe
00000250: 45aa 1ebe c5f1 2f3e a448 15be 667f 4abd
00000260: b777 acbd 9210 a73e fa79 49be 336b bc3d
00000270: 3a59 29bc 1438 b9bd ac4d db3d dac0 5cbe
00000280: 0338 90bd 85c7 71be 5977 bdbd 41a9 24be
00000290: f185 babd cd92 fabc 901d ae3c ad16 27bd
000002a0: 7b42 cd3e 7713 fbbc 03c5 d93d 0833 bcbe
000002b0: 2ffc 71be 242f 9b3e 3848 23be b997 0fbd
000002c0: dc89 903c b062 81be 3156 c4bd 48a4 023e
000002d0: 07cb 95be 7457 553e cec1 9b3d 735c 7cbe
000002e0: 1c0f 8abd 35fb 28be 0d1f 7dbd 3773 503e
000002f0: 59df 303d abf0 683e 8fbc 86be 80ca be3e
00000300: 2b91 e4bd ef37 e1bd 7c1a 793d a3a2 62be
00000310: e5f5 aebd 079c 05bd 3260 d9bc ebdd 93bd
00000320: db83 ffbd 8122 6abd 731f 29bc 93d5 313d
00000330: 5b44 88bd 1154 98bd 6933 4e3b 0ac2 93bd
00000340: e91f 80bd d067 03bd 7ccb 2abc 351c fdbd
00000350: 77b3 18bd 59a6 1cba 1cf4 cebd b5c7 673d
00000360: 15b8 d6bd c9f8 cf3b d621 babc e4fd b9bb
00000370: 9a17 bebc 36eb d3bd 5310 303d a5ff 92bd
00000380: 0c49 d4bd bd15 a8bd 074a 423c 5fea 853d
00000390: f1e8 09be c448 71bc feff 6c3e f408 183d
000003a0: 18dc e8bc 7578 453d d50f cdba 5aac 3cbe
000003b0: 1685 3abd 2d76 dd3c e1e9 13bd fc09 c7bc
000003c0: b958 b4bd 234c 633c a127 40be 29f0 b3bd
000003d0: f890 7fbc 71c9 993b 3d96 6fbd 8c94 b5bd
000003e0: 0679 f1bd 8d23 cabd e4b5 00be 87db 083e
000003f0: aa74 71be 150f cebc 631d c4bd 3e46 06bd

fc2.bias f4 [64]
-0.18562837 0.011318791 0.009796831 0.0023213935 -0.0035281447 -0.1447684 0.0033197082 0.0025235417
-0.2306053 0.3557296 -0.0054676873 0.026985202 0.35291365 -0.03827188 -0.007464163 -0.12608203
-0.08241333 -0.18028171 0.14254366 -0.039586104 0.23555495 0.011728189 0.09467066 0.02749363
-0.1569896 -0.10662423 0.5171317 -0.10479419 -0.1875658 0.30126232 -0.16480169 -0.31959966
0.004483836 0.23492974 0.037732895 -0.07720686 0.16848764 -0.108461894 0.44387737 0.0037620468
-0.28665894 0.26559258 -0.07939547 0.04165202 -0.1980288 -0.14062053 -0.09072046 -0.16820107
0.14271353 -0.17712694 -0.18490039 -0.045222484 -0.14272448 0.117179096 -0.058923017 -0.25065485
-0.054220103 -0.13102345 -0.08552706 -0.061498635 0.03553918 0.2918551 0.07403487 -0.19422312
00000000: 5d15 3ebe 7372 393c e382 203c 8522 183b
00000010: 7238 67bb 2b3e 14be 768f 593b 0162 253b
00000020: cc23 6cbe 3122 b63e 492a b3bb 1210 dd3c
00000030: 19b1 b43e fac2 1cbd f095 f4bb a61b 01be
00000040: 52c8 a8bd c59b 38be f7f6 113e 0a25 22bd
00000050: 5135 713e 9727 403c b1e2 c13d 523a e13c
00000060: e2c1 20be ce5d dabd be62 043f 569e d6bd
00000070: 4011 40be 0e3f 9a3e c6c1 28be 91a2 a3be
00000080: 24ed 923b 6c91 703e cf8d 1a3d a11e 9ebd
00000090: 0688 2c3e 4521 debd e543 e33e ac8c 763b
000000a0: f6c4 92be c0fb 873e 189a a2bd 4f9b 2a3d
000000b0: 10c8 4abe d4fe 0fbe a6cb b9bd e73c 2cbe
000000c0: 7f23 123e c460 35be 8756 3dbe 363b 39bd
000000d0: 5e26 12be 98fb ef3d 4359 71bd d555 80be
000000e0: e615 5ebd 032b 06be d028 afbd fee5 7bbd
000000f0: 8891 113d 086e 953e 989f 973d 6de2 46be

fc3.weight f4 [32, 64]
-0.13338503 -0.04948522 -0.17518838 0.019223617 -0.3632705 0.38502228 0.40429237 -0.5229095
0.017445326 -0.07246248 -0.6078391 -0.0020058956 0.011686985 0.16495574 -0.019742254 -0.087585144
-0.06349826 -0.085508265 -0.29086038 0.25820035 0.0071148193 -0.39985454 0.1253366 0.30831528
0.1633048 -0.16054407 -0.061751 -0.08547415 -0.03946738 -0.12951787 -0.15608168 0.0077839373
0.21111687 -0.4067309 0.020285698 0.014501753 0.29722422 -0.5290778 -0.029212782 0.13318941
0.58521706 -0.46703282 -0.09861063 0.28584543 -0.07648947 -0.105822854 0.43323803 -0.0528778
-0.37433165 -0.22264874 0.05190083 -0.10915126 0.17293507 -0.121673584 -0.020019 -0.1429186
-0.41046658 -0.07951103 0.5080164 -0.044776186 -0.15893477 0.2122254 -0.43837917 -0.3605224
0.49592844 -0.08292788 -0.5533606 0.06306531 -0.0826365 -0.08135286 -0.16437629 -0.30144128
0.28595582 0.09124306 -0.015638767 0.40239644 0.086748175 -0.14414014 0.3993376 0.2110261
-0.15399425 -0.4248355 -0.053974845 0.43012017 0.06168376 0.10282725 -0.18288127 0.096945494
-0.51695937 -0.20121658 0.0709867 -0.10243066 0.1041985 0.026720742 -0.41759592 -0.20651937
0.018416332 -0.018729497 0.090559 -0.013729174 -0.02164489 -0.47631848 -0.00088322465 -0.18204941
0.1755604 0.18398184 0.18952309 0.020389816 -0.43874317 -0.44146097 -0.18122339 0.24454881
-0.24779148 -0.0466157 -0.17808491 -0.11862578 -0.1620108 0.068219766 0.5187477 -0.225337
-0.024958624 -0.285368 -0.36205876 -0.5760768 -1.2053467 -0.13713734 -0.5123067 -0.51116
-0.004891398 -0.019494435 0.1832715 -0.03345771 0.20474774 -0.031260163 0.11720641 0.060276885
0.26762375 0.064336896 -0.24334133 0.096774116 0.11479475 -0.43508255 -0.8152667 0.5060143
-0.047551394 0.37850803 0.12760745 0.25022814 0.16326222 -0.041370176 -0.087860845 0.14468247
0.08028797 -0.15092008 0.14668696 -0.16259113 -0.2542123 0.16099617 -0.0048996694 -0.05249153
-0.16408642 0.05159544 0.06926828 0.31350023 0.05699158 0.052104324 0.13147356 0.031213727
-0.052433897 0.06692985 0.25699145 0.07937519 0.16756397 0.39131117 0.37033814 0.15582588
0.046250723 0.029044814 0.08038896 -0.2586759 -0.18645518 0.05545155 -0.032681685 0.13875571
0.056131978 -0.15393488 0.08947942 -0.063955195 -0.12417022 0.105043374 0.12813298 0.07906738
-0.077314354 0.028676026 -0.11628674 -0.0783313 -0.37395492 0.10538589 -0.068761766 -0.07720332
0.36324674 0.14832401 0.34890684 -0.06375222 0.11497588 0.21615209 -0.6801439 -0.5382086
0.11740197 0.12881039 -0.5032724 0.13644156 0.06091448 0.53607285 -0.5408926 0.30949697
-0.59946454 -0.09885314 -0.022908099 -0.03824649 -0.1141284 -0.5685991 -0.27059147 -0.00037545478
-0.56389827 -0.45372248 -0.12470624 0.1928053 -0.019912563 -0.09204308 -0.14153887 -0.11581688
0.14712924 0.1305432 0.048036415 -0.47284558 -0.123447604 -0.4103656 0.40045732 0.3010139
0.12712523 -0.21515456 -0.057601575 0.275174 -0.1490885 -0.16054809 0.037914466 -0.031991743
-0.22127336 -0.34756225 -0.08939402 -0.5163817 -0.15980244 -0.31931403 -0.511927 -0.0046822485
00000000: 1696 08be 04b1 4abd 9564 33be d97a 9d3c
00000010: 97fe b9be a421 c53e 69ff ce3e 66dd 05bf
00000020: 80e9 8e3c 3567 94bd 589b 1bbf 5875 03bb
00000030: c57a 3f3c 28ea 283e 82ba a1bc d75f b3bd
00000040: 600b 82bd f51e afbd a7eb 94be d632 843e
00000050: 6e23 e93b bcb9 ccbe 3d58 003e 80db 9d3e
00000060: 6039 273e aa65 24be 9eee 7cbd 120d afbd
00000070: 8ca8 21bd 55a0 04be e0d3 1fbe 6610 ff3b
00000080: 052f 583e 083f d0be 312e a63c c398 6d3c
00000090: c62d 983e a571 07bf a54f efbc ce62 083e
000000a0: c9d0 153f ed1e efbe 5ff4 c9bd 555a 923e
000000b0: 83a6 9cbd a7b9 d8bd 60d1 dd3e 6496 58bd
000000c0: 66a8 bfbe 08fe 63be f795 543d b28a dfbd
000000d0: e415 313e 0030 f9bd e3fe a3bc 4159 12be
000000e0: ad28 d2be aed6 a2bd 5d0d 023f 3c67 37bd
000000f0: ccbf 22be 9e51 593e 3c73 e0be 6496 b8be
00000100: 55ea fd3e 18d6 a9bd 0aa9 0dbf 6328 813d
00000110: 533d a9bd 549c a6bd 4252 28be 8356 9abe
00000120: cd68 923e a4dd ba3d df1c 80bc e806 ce3e
00000130: 07a9 b13d 7999 13be fa75 cc3e 3a17 583e
00000140: abb0 1dbe 0a84 d9be ba14 5dbd b638 dc3e
00000150: 1ca8 7c3d 1897 d23d 3a45 3bbe 5c8b c63d
00000160: 7357 04bf b80b 4ebe 7a61 913d 2ac7 d1bd
00000170: 0666 d53d 75e5 da3c 22cf d5be d079 53be
00000180: d9dd 963c 9a6e 99bc ff76 b93d 54f0 60bc
00000190: a050 b1bc 04e0 f3be 3488 67ba 296b 3abe
000001a0: 1bc6 333e bc65 3c3e 5712 423e 8b08 a73c
000001b0: f2a2 e0be 2c07 e2be a092 39be 016b 7a3e
000001c0: 0dbd 7dbe 1bf0 3ebd e45b 36be 13f2 f2bd
000001d0: 29e6 25be ceb6 8b3d a6cc 043f bebe 66be
000001e0: 0776 ccbc c11b 92be c45f b9be c579 13bf
000001f0: cd48 9abf bb6d 0cbe 8826 03bf 62db 02bf
00000200: 0548 a0bb cbb2 9fbc 86ab 3b3e f40a 09bd
00000210: 64a9 513e a80a 00bd ea09 f03d e5e4 763d
00000220: fb05 893e 10c3 833d 782e 79be 8231 c63d
00000230: 8319 eb3d 24c3 debe 52b5 50bf 278a 013f
00000240: 40c5 42bd cecb c13e 87ab 023e e71d 803e
00000250: 362e 273e c673 29bd 63f0 b3bd a427 143e
00000260: 056e a43d cb8a 1abe 1b35 163e 4a7e 26be
00000270: 1d28 82be 2edc 243e 688d a0bb 5c01 57bd
00000280: 4506 28be bd55 533d 87dc 8d3d 1a83 a03e
00000290: 0170 693d 586b 553d 01a1 063e eeb3 ff3c
000002a0: edc4 56bd 8412 893d 6294 833e 768f a23d
000002b0: e495 2b3e f059 c83e f69c bd3e d290 1f3e
000002c0: 6671 3d3d 64ef ed3c f8a2 a43d 2b71 84be
000002d0: 1bee 3ebe 2a21 633d 3bdd 05bd fa15 0e3e
000002e0: a5ea 653d 1ba1 1dbe fc40 b73d f1fa 82bd
000002f0: f54c febd fb20 d73d 4b35 033e 14ee a13d
00000300: fd56 9ebd fce9 ea3c be27 eebd 296c a0bd
00000310: 0577 bfbe 8fd4 d73d f8d2 8cbd c61c 9ebd
00000320: 7afb b93e 40e2 173e eba3 b23e 8690 82bd
00000330: 7978 eb3d f956 5d3e e91d 2ebf 0ac8 09bf
00000340: 7270 f03d dfe6 033e 76d6 00bf 56b7 0b3e
00000350: 7681 793d 123c 093f f077 0abf 6376 9e3e
00000360: 8276 19bf 8473 cabd c4a9 bbbc 5aa8 1cbd
00000370: 27bc e9bd b68f 11bf f78a 8abe b0d8 c4b9
00000380: a35b 10bf 504e e8be fc65 ffbd c16e 453e
00000390: ac1f a3bc 1581 bcbd 91ef 10be 6631 edbd
000003a0: 0ca9 163e 1ead 053e d5c1 443d d118 f2be
000003b0: 19d2 fcbd 711b d2be be08 cd3e 7e1e 9a3e
000003c0: 1e2d 023e 7a51 5cbe a1ef 6bbd 9be3 8c3e
000003d0: a8aa 18be b866 24be 334c 1b3d c609 03bd
000003e0: 7c95 62be aef3 b1be 3614 b7bd 9731 04bf
000003f0: 40a3 23be 217d a3be a60d 03bf 8c6d 99bb

fc3.bias f4 [32]
0.2695955 0.13262825 0.52237546 -0.019800792 0.020219332 0.056515444 -0.42519227 -0.19308753
0.14474037 0.18821992 0.6933118 0.037610546 0.67064404 -0.22631706 0.1254131 0.17524922
-0.05258722 0.027312545 0.13759622 0.33706966 0.5718461 0.067852765 0.16286066 0.31308362
0.2920608 0.3268294 0.6047122 0.5206897 0.5781988 -0.27343675 -0.12744428 0.52822274
00000000: 6c08 8a3e b3cf 073e 66ba 053f 4535 a2bc
00000010: 03a3 a53c bd7c 673d cdb2 d9be bdb8 45be
00000020: d236 143e b9bc 403e e27c 313f 840d 1a3d
00000030: 54af 2b3f a9bf 67be 4b6c 003e 8874 333e
00000040: b265 57bd 8fbe df3c 06e6 0c3e 6594 ac3e
00000050: 8264 123f 64f6 8a3d f2c4 263e 7f4c a03e
00000060: fe88 953e 2f56 a73e 6bce 1a3f ec4b 053f
00000070: d604 143f e7ff 8bbe c180 02be 9b39 073f

fc4.weight f4 [4, 32]
0.26483357 -0.08423335 0.087872714 -0.01400325 -0.1866191 0.4706873 -0.4217177 -0.2155992
-0.10096486 -1.0055894 0.3129006 0.36639798 0.21468692 -0.25324756 0.2719393 -0.48514986
0.012231457 0.43465805 0.2433192 -0.018749857 0.3183677 0.0362294 0.31326744 0.5396981
0.27963465 0.11667803 0.3480267 0.13893276 0.3267911 -0.013915852 0.027307577 0.30280364
0.31297892 0.14770606 0.2640559 -0.10312629 0.33024567 0.39369282 -0.45283523 -0.22332302
-0.018486496 -0.040176738 0.35815632 0.3306587 0.37510434 -0.22240417 0.1391357 0.46162638
0.33668983 0.64905864 0.31409955 0.17607488 0.33554548 0.21491627 0.1350397 0.55132365
0.1450899 0.17959753 0.09736547 0.28422466 0.33168 -0.15300795 -0.22858617 0.257593
0.068613976 -0.35734862 0.32055733 -0.2117521 -0.23248284 0.22766982 -0.49690473 -0.10654464
0.16883525 0.008575257 0.34307477 0.41634884 0.2164339 -0.051284242 0.16573869 0.100343205
0.118232176 -0.22122476 -0.19143768 0.35384294 0.3222167 -0.10510849 0.38400227 -0.07980544
0.30725813 0.25793228 0.33992612 0.13647027 0.2421417 -0.14438783 -0.2681293 0.2881808
0.3410718 0.08761489 0.349166 -0.35912243 0.017933048 0.28347096 -0.23595811 -0.3414235
0.24853328 -0.47667417 0.3322974 -0.3549597 0.37958673 -0.74743885 -0.55677754 0.24327883
-0.31034452 0.5740342 0.44097504 0.09008173 0.07276451 -0.13945395 0.109899595 -0.33210048
0.28772926 0.18809076 0.26435888 0.30487406 0.099349596 -0.27110752 -0.18293996 0.25664622
00000000: 4498 873e 8982 acbd 9cf6 b33d e36d 65bc
00000010: 1419 3fbe edfd f03e 62eb d7be 09c6 5cbe
00000020: aac6 cebd 27b7 80bf 8234 a03e 8498 bb3e
00000030: e3d6 5b3e aaa9 81be a13b 8b3e 9065 f8be
00000040: 7366 483c 808b de3e ab28 793e 4d99 99bc
00000050: 1701 a33e 4865 143d 9764 a03e a829 0a3f
00000060: 462c 8f3e e4f4 ee3d 8e30 b23e 6444 0e3e
00000070: 2a51 a73e 50ff 63bc 24b4 df3c 1409 9b3e
00000080: c63e a03e 4240 173e 5632 873e e033 d3bd
00000090: f615 a93e 1b92 c93e 05da e7be caae 64be
000000a0: fe70 97bc 5d90 24bd 4460 b73e 194c a93e
000000b0: ad0d c03e ebbd 63be 9779 0e3e 4b5a ec3e
000000c0: 9c62 ac3e b528 263f a8d1 a03e f94c 343e
000000d0: 9ecc ab3e 0313 5c3e d947 0a3e 8c23 0d3f
000000e0: 7292 143e 6ae8 373e 8c67 c73d e585 913e
000000f0: f6d1 a93e 1eae 1cbe 7e12 6abe 3be3 833e
00000100: 7c85 8c3d 66f6 b6be 1720 a43e 8bd5 58be
00000110: fb0f 6ebe 4722 693e 4c6a febe 1434 dabd
00000120: 26e3 2c3e 3c7f 0c3c 7fa7 af3e ad2b d53e
00000130: d9a0 5d3e 6d0f 52bd 67b7 293e bd80 cd3d
00000140: b623 f23d be88 62be 3d08 44be e72a b53e
00000150: 96f9 a43e 1f43 d7bd f29b c43e 0971 a3bd
00000160: f050 9d3e b30f 843e cc0a ae3e ddbe 0b3e
00000170: fef3 773e 67da 13be 3e48 89be 6f8c 933e
00000180: f7a0 ae3e 6f6f b33d e3c5 b23e e5de b7be
00000190: 54e8 923c 1b23 913e 019f 71be 10cf aebe
000001a0: 827f 7e3e a30e f4be e322 aa3e 47bd b5be
000001b0: 3159 c23e 2758 3fbf f988 0ebf 161e 793e
000001c0: 7ae5 9ebe e8f3 123f 7bc7 e13e c57c b83d
000001d0: 8f05 953d 04cd 0ebe 0a13 e13d 1309 aabe
000001e0: 4051 933e dd9a 403e 0c5a 873e 7418 9c3e
000001f0: cd77 cb3d 9bce 8abe 9d54 3bbe 2267 833e

fc4.bias f4 [4]
0.5913868 0.27361146 0.34528098 0.4483504
00000000: 2065 173f cd16 8c3e abc8 b03e 2f8e e53e
